src/data/IDDPG-20220613-131815/weights/actor-0-2.pkl (torch, 44167 bytes, 8 tensors)

layers.0.weight f4 [64, 28]
0	0x3e3243cf	0.1740868
1	0xbd605721	-0.054770593
2	0x3e2c8b71	0.16850068
3	0x3da2d24b	0.079502665
4	0x3dd4971d	0.10380385
5	0x3e358806	0.1772767
6	0xbda8eb5c	-0.08248016
7	0xbd8a10d8	-0.06741494
8	0xbe119741	-0.14217855
9	0x3cae4713	0.021274125
10	0xbe25ca91	-0.16190554
11	0xbdea6162	-0.114443555
12	0x3d2ade9b	0.0417162
13	0xbdb92a4e	-0.09041272
14	0x3e45151b	0.19246332
15	0xbd16117c	-0.03663777
16	0xbd712a1a	-0.05887804
17	0x3e292ea8	0.16521704
18	0x3d833002	0.06405641
19	0xbdb3dff0	-0.08782947
20	0x3df2ba2e	0.11851917
21	0x3e4539b6	0.19260296
22	0x3daedeaa	0.085385635
23	0x3dcbd414	0.0995256
24	0xbd865fb2	-0.06561221
25	0xbdb21355	-0.086950935
26	0x3e465da9	0.19371666
27	0xbda3d606	-0.07999806
28	0xbd0a4bca	-0.033763684
29	0xbe31438b	-0.17310922
30	0x3df4c366	0.11951332
31	0x3e1e771c	0.15475124
32	0x3d47ecf9	0.04880998
33	0xbe1f0435	-0.15528949
34	0xbd7131b7	-0.058885302
35	0xbd19b464	-0.03752555
36	0xbe246d12	-0.16057232
37	0xbe11d578	-0.14241588
38	0x3de39e40	0.11114168
39	0xbe086105	-0.1331826
40	0xbe33e7c3	-0.17568879
41	0x3d555b08	0.052088767
42	0xbe0725d1	-0.1319802
43	0xbcf6dc22	-0.030134264
44	0x3e3beb00	0.18351364
45	0xbd13831d	-0.03601371
46	0x3d2d2415	0.04227074
47	0x3cb5f5ff	0.022212027
48	0x3e3d9235	0.18512805
49	0xbe18e860	-0.14932394
50	0x3dac4806	0.08412175
51	0xbd034300	-0.032046318
52	0xbc9a7417	-0.018854184
53	0x3c8ea75a	0.017413784
54	0xbe187907	-0.14889918
55	0x3859b521	5.190552e-05
56	0xbd0ee7f2	-0.03488917
57	0xbc362e45	-0.01111943
58	0x3e03b023	0.1286016
59	0x3e2b360f	0.1671984
60	0x3c242e10	0.010020748
61	0x3e07e500	0.1327095
62	0x3d94c6bb	0.07264467
63	0xbc915504	-0.017740734
64	0x3e03c983	0.1286984
65	0x3e0fa5eb	0.14028136
66	0x3e22309e	0.15838858
67	0xbb57a0d8	-0.0032902267
68	0xbe228d84	-0.15874296
69	0xbe4a9f8d	-0.19787426
70	0x3e0ab7b1	0.13546635
71	0x3da78ee2	0.081815496
72	0x3da1a108	0.078920424
73	0xbe3e648e	-0.18593046
74	0x3c1996c0	0.0093743205
75	0xbdbbd40e	-0.091713056
76	0xbdadffa9	-0.08496029
77	0x3d5e9e64	0.05435027
78	0xbd1f7ba9	-0.03893629
79	0x3df48cd5	0.11940924
80	0x3d52d174	0.05146928
81	0xbc96dedf	-0.01841682
82	0xbe0a6348	-0.13514435
83	0x3e0b61b3	0.13611488
84	0xbd459b1a	-0.04824362
85	0x3e6521e9	0.22376217
86	0x3dd3de0a	0.10345085
87	0x3d7b850f	0.06140619
88	0x3e0b6934	0.1361435
89	0xbde45c26	-0.111503884
90	0x3e4db2e5	0.20087774
91	0x3c1c0511	0.009522692
92	0x3d388ea4	0.045057908
93	0xbe0cf878	-0.13766658
94	0xbd894194	-0.06701961
95	0x3e0d691d	0.13809629
96	0xbda72f1b	-0.081632815
97	0x3dc9e5aa	0.09858258
98	0x3e3d4769	0.18484272
99	0x3e3aa1b1	0.18225743
100	0x3dc4bc1c	0.096061915
101	0x3dfea3c7	0.12433582
102	0xbe100858	-0.14065683
103	0xbd806cb2	-0.06270732
104	0xbd2bb05e	-0.041916244
105	0x3da6090e	0.08107196
106	0xbd809d57	-0.0628001
107	0x3e0211b1	0.12702061
108	0x3e0f9901	0.1402321
109	0xbd30c3ad	-0.04315536
110	0xbd87395c	-0.06602737
111	0xbe6076a4	-0.21920258
112	0x3dd2d92a	0.10295327
113	0xbdedd12c	-0.11612162
114	0xbdd3f4f6	-0.10349457
115	0x3e14224a	0.14466205
116	0x3dc920c2	0.09820701
117	0x3d90eccd	0.07076416
118	0x3d7cd537	0.061726775
119	0xbd3b9bc9	-0.045802865
120	0x3db530d7	0.08847206
121	0x3e2309d8	0.15921724
122	0xbbd559ce	-0.0065109497
123	0xbd1cf4be	-0.03831934
124	0x3ca5b322	0.020227019
125	0xbdf7fa3c	-0.12108275
126	0x3e163f62	0.14672616
127	0xbde8755b	-0.11350509
128	0x3d255306	0.04036238
129	0x3da23a6f	0.079213016
130	0xbd51eec0	-0.05125308
131	0x3d9370ca	0.07199247
132	0xbe459460	-0.19294882
133	0xbe314008	-0.17309582
134	0x3e0f8ef6	0.14019379
135	0xbdbb554e	-0.0914713
136	0xbe0e5f2d	-0.13903494
137	0xbe32a76c	-0.17446679
138	0x3d53033a	0.05151675
139	0x3d84858d	0.06470785
140	0xbb83b84a	-0.0040197717
141	0xbe3a99f3	-0.1822279
142	0xbe203a07	-0.15647136
143	0xba45d73d	-0.00075470266
144	0x3e2870c7	0.16449271
145	0xbe3f5556	-0.18684897
146	0x3cac3070	0.02101919
147	0xbd4f777f	-0.05065107
148	0x3ddf02e5	0.10889224
149	0x3c777a80	0.01510489
150	0x3e045202	0.12921908
151	0x3c35c9ba	0.011095459
152	0x3de7de29	0.113216706
153	0xbd13541b	-0.03596888
154	0x3d70f44c	0.05882673
155	0xbd640df9	-0.055677388
156	0xbdd87ac5	-0.105702914
157	0x3e2ea0e9	0.1705357
158	0x3dc7b6da	0.09751673
159	0xbd2d1b9a	-0.04226265
160	0xbd0e10e0	-0.034684062
161	0xbe1f0867	-0.15530549
162	0xbe3ac974	-0.18240911
163	0xbe258e4c	-0.16167563
164	0xbe174069	-0.14770664
165	0x3e25bc8d	0.16185208
166	0xbcaf710c	-0.02141621
167	0x3d725d10	0.059170783
168	0x3d9b3d52	0.07580055
169	0xbe065d99	-0.13121642
170	0x3e4b6102	0.19861224
171	0x3e17de41	0.14830877
172	0xbdc79d61	-0.097468145
173	0xbd544271	-0.051821176
174	0x3e4b714a	0.19867435
175	0xbe0bcddc	-0.13652748
176	0x3e38f7b1	0.18063237
177	0xbe1920d9	-0.14953937
178	0xbbeb8c59	-0.0071883616
179	0xbe1b6139	-0.15173806
180	0xb98b36b3	-0.000265529
181	0xbde8a32a	-0.11359246
182	0x3d66baf2	0.05633063
183	0x3cdf1919	0.027233647
184	0x3baf9839	0.0053587225
185	0xbcfef3e7	-0.031122161
186	0x3e30619c	0.17224735
187	0xbd1ac9f3	-0.03779025
188	0x3e22dbc3	0.15904145
189	0x3dc6e76f	0.09712111
190	0x3b3364fa	0.002737342
191	0xbd853cd9	-0.065057464
192	0x3e39d56b	0.18147819
193	0x3aa6a381	0.0012713523
194	0x3d7755fc	0.060384735
195	0xbe36555d	-0.17806001
196	0x3e519d58	0.20470178
197	0xbd8afe61	-0.067868
198	0x3e427d04	0.18993002
199	0x3e1b8b3b	0.15189831
200	0x3e2ad22a	0.16681734
201	0xbdef02fa	-0.116704896
202	0xbdcbf117	-0.099580936
203	0xbd6d5dca	-0.057950772
204	0x3dc79c6a	0.097466305
205	0xbd2a74b2	-0.041615196
206	0xbcc5993e	-0.024120923
207	0xbcf15185	-0.029457817
208	0x3e4fb5d4	0.20284206
209	0x3e4732d7	0.19452988
210	0xbd7abd22	-0.061215527
211	0x3d87fb22	0.06639697
212	0x3d211a11	0.0393315
213	0xbe2bf2a9	-0.16791786
214	0x3e13306d	0.14373942
215	0x3dc857a5	0.09782342
216	0x3dfd122c	0.12356982
217	0xbe2f0deb	-0.17095153
218	0xbdad7f46	-0.08471541
219	0x3e1059b9	0.14096726
220	0x3df6ceff	0.120512
221	0x3e1c3115	0.15253098
222	0x3d2f6cec	0.042828485
223	0xbdec5fd5	-0.11541716
224	0x3c9e9a99	0.019360827
225	0x3cdeee16	0.027213138
226	0x3d87aea4	0.06625107
227	0x3e0daa12	0.13834408
228	0xbe2ca434	-0.16859514
229	0xbe0739cc	-0.13205642
230	0xba7c1a32	-0.00096169405
231	0xbe2c344c	-0.16816825
232	0x3e1b967c	0.15194124
233	0x3e2786e0	0.16360044
234	0x3dde740f	0.1086198
235	0x3d5961cc	0.053071782
236	0x3e2ae4f3	0.166889
237	0x3dddfac5	0.10838846
238	0xbd4b8d45	-0.049695272
239	0x3e2f385c	0.17111343
240	0xbccf0bc8	-0.025274172
241	0xbdd9633f	-0.10614633
242	0xbe0508c0	-0.12991619
243	0xbcc5126b	-0.024056634
244	0x3e077a11	0.13230158
245	0x3e52619b	0.20545046
246	0xbc769453	-0.015050012
247	0x3e0ae276	0.1356295
248	0xbda6f219	-0.08151645
249	0xbe384674	-0.17995626
250	0xbca905e7	-0.020632697
251	0x3dfeb875	0.12437526
252	0x3e3a0775	0.18166907
253	0xbddc64a1	-0.10761381
254	0xbe3973a9	-0.18110527
255	0xbe375fdb	-0.1790766

layers.0.bias f4 [64]
0	0x3d4d1b2c	0.05007474
1	0x3e2e2c7c	0.17009157
2	0xbd8a0f15	-0.06741158
3	0xbd0b6553	-0.034032177
4	0x3e1bcf87	0.15215884
5	0x3d230296	0.039797388
6	0xbd85d79c	-0.06535265
7	0xbd3f0203	-0.046632778
8	0x3e4720fc	0.19446176
9	0x3d0d0de0	0.03443706
10	0x3d3e563a	0.04646895
11	0x3d9c92f1	0.07645214
12	0x3e0740aa	0.13208261
13	0x3e1fec48	0.15617478
14	0x3d5f2060	0.054474235
15	0x3c1d2476	0.0095912125
16	0x3e2c7598	0.16841733
17	0xba835846	-0.0010020814
18	0xbe344052	-0.17602661
19	0x3d0e89e5	0.034799475
20	0xbe268a73	-0.16263752
21	0x3b844ade	0.004037245
22	0xbda37d91	-0.07982934
23	0xbdcc6ec1	-0.09982062
24	0xbdf22538	-0.11823505
25	0xbbf474d4	-0.007460216
26	0xbd51b088	-0.051193744
27	0xbe1fe62c	-0.15615147
28	0xbe0b8e13	-0.13628416
29	0xbe2bb43f	-0.16767977
30	0x3c34f6ca	0.011045167
31	0x3e29e8a7	0.16592656
32	0xbe0d71e9	-0.13812985
33	0x3db2dfe0	0.08734107
34	0xbd4c7902	-0.04992009
35	0xbc77d3b8	-0.015126161
36	0xbddc7dcd	-0.10766182
37	0x3cf1d96a	0.029522616
38	0x3e082a18	0.13297307
39	0x3a179ae7	0.0005783275
40	0xbd9b5474	-0.075844675
41	0xbdb873e7	-0.090064816
42	0x3cebca3d	0.028782958
43	0xbdbcfbfb	-0.09227749
44	0x3d7b31fc	0.061326966
45	0x3c37e05b	0.011222924
46	0x3e1b2153	0.15149431
47	0x3e1106fd	0.14162822
48	0xbde5a3f5	-0.11212913
49	0x3d513d97	0.051084127
50	0xbddc43c7	-0.10755115
51	0xbe22fd30	-0.15916896
52	0x3d4de617	0.05026826
53	0x3e2c8926	0.16849193
54	0xbdfc58b2	-0.12321605
55	0x3e14fda7	0.14549886
56	0xbdfc87db	-0.123306
57	0xbd20e42b	-0.039280098
58	0xbdb7619c	-0.089541644
59	0x3e219489	0.15779318
60	0xbe1c1848	-0.15243638
61	0xbdcb4956	-0.09926097
62	0xbd988de8	-0.074489415
63	0xbe278f2a	-0.16363207

layers.1.weight f4 [64, 64]
0	0x3d785390	0.060626566
1	0x3cb9ea18	0.022694632
2	0xbd323f3c	-0.043517336
3	0xbb845260	-0.00403814
4	0x3dd982a2	0.10620619
5	0x3dc411fa	0.09573741
6	0xbdede4c4	-0.11615899
7	0xbb85f220	-0.0040877014
8	0xbde3eae8	-0.11128789
9	0x3d0ca648	0.034338266
10	0xbd2d4d50	-0.04231006
11	0xbd3b832c	-0.045779392
12	0x3d1783d0	0.03699094
13	0x3dddf18a	0.108370855
14	0xbda54df6	-0.080715105
15	0xbdc6db04	-0.09709743
16	0x3df51d46	0.11968474
17	0x3b0aff00	0.002120912
18	0xbda2db10	-0.07951939
19	0x3cd61890	0.02613476
20	0x3b7bf240	0.0038443953
21	0x3d168e04	0.03675653
22	0xbdeb8cac	-0.115014404
23	0x3d655638	0.055990428
24	0xbd891308	-0.06693083
25	0x3dcc2a98	0.099690616
26	0xbd0947c4	-0.033515707
27	0xbcff7578	-0.031183943
28	0x3c490700	0.012269735
29	0xbcae99b8	-0.021313533
30	0xbc56e590	-0.013116255
31	0xbd2ca27c	-0.042147145
32	0xbd00d000	-0.031448364
33	0xb7a76000	-1.9952655e-05
34	0x3d7346e0	0.059393764
35	0x3dddbfd2	0.108276024
36	0xbc5b80a0	-0.013397366
37	0xbdbb161c	-0.091350764
38	0xbdb94c28	-0.09047729
39	0x3d4b0b28	0.049571186
40	0x3d8ea82c	0.0696567
41	0xbd950f12	-0.07278265
42	0x3de2683a	0.11055036
43	0xbd982dce	-0.074306116
44	0x3d88ea50	0.066853166
45	0xbde76a70	-0.11299598
46	0xbdb302f0	-0.08740795
47	0xbd90b1ec	-0.07065186
48	0xbd3e3924	-0.046441212
49	0x3d31c31c	0.04339896
50	0xbcec2a20	-0.02882868
51	0x3d75bf30	0.059996784
52	0x3a897800	0.0010488033
53	0xbde79450	-0.11307585
54	0x3d52a624	0.051427975
55	0x3ddf5538	0.10904926
56	0x3df7981a	0.12089558
57	0x3d6afe64	0.057371512
58	0xbdfef572	-0.12449159
59	0x3d3aaeac	0.045576736
60	0xbc66d5c0	-0.014089048
61	0x3d9c7ca0	0.07640958
62	0xbda251c2	-0.0792575
63	0xbda75e2c	-0.08172259
64	0x3c99f2fd	0.018792624
65	0x384b9000	4.8533082e-05
66	0x3c09318c	0.008373629
67	0x3e12044d	0.14259453
68	0x3d8950e7	0.06704884
69	0xbd10e23c	-0.035372004
70	0x37bbc1ef	2.2382445e-05
71	0x3de3ad77	0.1111707
72	0x3d9b9e92	0.07598604
73	0x3c73c39c	0.01487818
74	0x3d97ec84	0.07418159
75	0x3d758332	0.05993957
76	0xbdaa285c	-0.08308479
77	0xbd7fd1db	-0.062455993
78	0x3d4fe861	0.050758723
79	0xbdb72ee8	-0.089444935
80	0xbb868b1b	-0.004105938
81	0xbdff5ae4	-0.12468508
82	0x3d5e68d3	0.054299187
83	0x3d43d948	0.047814637
84	0x3c9bc730	0.019015878
85	0x3d187caa	0.037228264
86	0xbdfb1848	-0.12260491
87	0xbdc221c8	-0.094790995
88	0x3d0d51c0	0.03450179
89	0x3de35622	0.11100413
90	0x3d85182b	0.0649875
91	0xbd84de12	-0.06487669
92	0xbdd4c921	-0.10389925
93	0xbdcbf5bf	-0.09958982
94	0x3dbd0f89	0.09231479
95	0x3bf82fa3	0.007574038
96	0xbda66316	-0.08124368
97	0xbd8d90c4	-0.069123775
98	0x3e149433	0.14509659
99	0xbd735d3b	-0.059415083
100	0xbdc5e5f1	-0.096629985
101	0xbbbb746c	-0.0057206657
102	0xbaa41300	-0.001251787
103	0xbc73d630	-0.014882609
104	0xbdea217e	-0.114321694
105	0x3d1bf2e5	0.03807344
106	0x3dd8987d	0.1057596
107	0x3d522eff	0.05131435
108	0x3d8c7707	0.0685864
109	0xbd938712	-0.07203497
110	0xbcb6349d	-0.022241885
111	0xbd63e1e1	-0.055635337
112	0x3de7e776	0.113234445
113	0x3dfd2971	0.1236142
114	0xb9af228c	-0.0003340434
115	0xbde5fc44	-0.112297565
116	0x3df39a02	0.11894609
117	0x3d976597	0.073924236
118	0x3d05a7d4	0.032630756
119	0x3d5385fc	0.05164145
120	0xbdc1c57f	-0.094614975
121	0xbc30c100	-0.010788202
122	0x3c3fcd00	0.011706591
123	0xbdf299a8	-0.11845714
124	0x3d37f200	0.044908524
125	0x3d25e0b4	0.040497497
126	0x3d937b70	0.07201278
127	0xbd23dcde	-0.040005557
128	0xbce37e66	-0.027770232
129	0x3dc017a6	0.093795106
130	0xbd0ad132	-0.03389091
131	0x3d171577	0.036885705
132	0x3dfb8349	0.122809
133	0xbcec3448	-0.028833523
134	0xbd988072	-0.07446374
135	0xbdfaaf33	-0.12240448
136	0xbd41bac4	-0.047297254
137	0xbc65dbf0	-0.014029488
138	0xbdd367fc	-0.10322568
139	0x3de7f19f	0.113253824
140	0xbd31c008	-0.043396026
141	0x3d2a85ac	0.041631386
142	0x3db65ecb	0.08904799
143	0xbd6e2308	-0.058138877
144	0xbc005eeb	-0.00783513
145	0xbd9518f7	-0.07280152
146	0x3d9a5ec8	0.07537609
147	0xbca36d48	-0.01994957
148	0x3d3b8644	0.045782343
149	0xbd180961	-0.03711832
150	0x3da3436d	0.07971845
151	0x3dce0b9c	0.10060808
152	0x3dd090ba	0.101838544
153	0x3dcecb75	0.100974
154	0x3dae4216	0.08508699
155	0x3dd8a98c	0.105792135
156	0x3d99ded0	0.07513201
157	0xbd8b7cc9	-0.0681091
158	0xbdb98caf	-0.090600364
159	0xbd8cfd62	-0.068842664
160	0xbdea7428	-0.11447936
161	0xbdf5bafa	-0.119985536
162	0x3d0c1968	0.034203917
163	0x3d43c86a	0.04779855
164	0x3dd3dac2	0.10344459
165	0x3d4727e0	0.048622012
166	0x3c234790	0.009965792
167	0xbd4e278c	-0.050330684
168	0xbcdbcfd2	-0.026832495
169	0xbdfb8f0f	-0.12283146
170	0xbac2f929	-0.0014875281
171	0xbde1747e	-0.11008547
172	0xbdca9ea8	-0.098935425
173	0xbcfef098	-0.031120583
174	0x3aba3788	0.0014207223
175	0xbd0ff907	-0.0351496
176	0xbd2edf80	-0.042693615
177	0x3d7c9b1f	0.061671373
178	0x3d67ef75	0.05662485
179	0x3d20af84	0.039229885
180	0x3dfa0dd0	0.12209666
181	0xbafa8469	-0.0019112948
182	0x3dcbd026	0.099518105
183	0x3dcbf0ce	0.09958039
184	0xbd2740f8	-0.040833443
185	0xbbb05bdb	-0.005382044
186	0x3c106420	0.008812934
187	0xbde1028e	-0.109868154
188	0x3dc5e734	0.09663239
189	0x3df58220	0.1198771
190	0x3dddfda8	0.10839397
191	0xbd6f3f1b	-0.05840979
192	0xbd954aeb	-0.0728968
193	0x3d854728	0.065077126
194	0xbdfb1bcf	-0.122611634
195	0xbdbf8984	-0.09352401
196	0x3ca8a4cd	0.020586396
197	0x3df5fddc	0.120113105
198	0xbd04cfaf	-0.032424625
199	0x3b4d4ac3	0.003132508
200	0xbdfc91d8	-0.12332505
201	0xbdbfc250	-0.09363234
202	0xbd9efd4f	-0.077631585
203	0xbd93e44d	-0.07221279
204	0xbdcfd12a	-0.10147317
205	0x3db05e53	0.08611741
206	0x3d099a44	0.033594385
207	0xbccd9d80	-0.025099516
208	0xbd4f636a	-0.050631918
209	0xbdfe6858	-0.12422246
210	0xbbc44229	-0.005989332
211	0x3ce4ff78	0.027953848
212	0x3c0741e0	0.008255452
213	0x3de13f80	0.1099844
214	0xbd4362e1	-0.04770172
215	0x3d91b222	0.07114054
216	0x3d7a3170	0.061082304
217	0x3d550ae4	0.05201234
218	0xbc33c659	-0.010972583
219	0x3d034752	0.03205044
220	0xbcc8df4a	-0.024520535
221	0xbd78c40c	-0.06073384
222	0x3da7ad77	0.08187383
223	0xbdee4f26	-0.1163619
224	0xbd1e4a9c	-0.03864537
225	0x3dbbd046	0.091705844
226	0x3dd22e28	0.1026271
227	0x3c32092e	0.010866446
228	0x3d3a3a44	0.045465723
229	0x3aab1a00	0.0013054013
230	0x3d3fef88	0.046859294
231	0xbd7b40ec	-0.06134121
232	0x3dad60d3	0.084657334
233	0xbda9085e	-0.08253549
234	0x3d05a662	0.03262938
235	0xb9097c1a	-0.0001311157
236	0x3de8fbb8	0.113761365
237	0xbd11e7f8	-0.035621613
238	0xbbd266fb	-0.0064209676
239	0x3d91a068	0.07110673
240	0x3da7f842	0.08201648
241	0xbc303756	-0.010755381
242	0xbd85f479	-0.0654077
243	0x3dc4d56a	0.09611018
244	0x3cf3bda8	0.029753521
245	0xbdd6317a	-0.10458656
246	0x3c12f880	0.00897038
247	0xbd4f85bc	-0.05066465
248	0x3ce518e8	0.027965978
249	0x3d80d7d7	0.06291168
250	0xbd429d98	-0.047513574
251	0xb900abc0	-0.00012271013
252	0xbba53ec0	-0.005042881
253	0x3bc72a80	0.0060780644
254	0x3dbda2aa	0.09259541
255	0x3d04919f	0.032365438

layers.1.bias f4 [64]
0	0x3ca83d28	0.020536974
1	0xbdb651b2	-0.08902301
2	0x3de3cd0e	0.111230955
3	0xbdfbb9e6	-0.12291317
4	0xbe033a62	-0.1281524
5	0x3dbf3cda	0.093377784
6	0x3d9b6ad4	0.07588735
7	0xbdb2f3c5	-0.087379016
8	0xbdc95ad0	-0.09831774
9	0x3e065812	0.13119534
10	0x3d928943	0.07155087
11	0x3cb80fa1	0.02246839
12	0x3cb37824	0.021907873
13	0xbdabf632	-0.083965674
14	0x3db23ba2	0.0870278
15	0x3db5d59e	0.08878635
16	0x3d5b2c18	0.053508848
17	0x3dab1354	0.08353296
18	0xbd9d3460	-0.07676005
19	0xbc82288e	-0.015888479
20	0xbb91e89b	-0.0044527776
21	0xbd6265ec	-0.05527298
22	0x3daa28b0	0.08308542
23	0x3dab080d	0.08351145
24	0xbdbaf3ea	-0.09128554
25	0x3dff9062	0.12478711
26	0x3d5ea318	0.054354757
27	0xbc97295a	-0.018452335
28	0x3db0a432	0.08625068
29	0x3d139e97	0.036039915
30	0xbd8a9f67	-0.06768685
31	0x38598000	5.185604e-05
32	0xbc2040f1	-0.009781108
33	0xbdb2bf74	-0.08727923
34	0x3d973c48	0.073845446
35	0xbdd886b8	-0.105725706
36	0xbd2e5354	-0.042559937
37	0x3d769b0d	0.06020646
38	0x3d75d3ef	0.06001657
39	0x3d3a1154	0.04542668
40	0x3d8d3c37	0.06896251
41	0x3e0b1b92	0.13584736
42	0xbcd3ba70	-0.025845736
43	0xbdb16d32	-0.086634055
44	0x3d5dadf0	0.054120958
45	0x3bfdbe6d	0.007743648
46	0x3d7fafc5	0.062423486
47	0x3d2d371c	0.042288885
48	0x3de181de	0.11011098
49	0xbdd44479	-0.103646226
50	0xbdb5d78c	-0.08879003
51	0x3da574dc	0.0807893
52	0x3d714cbd	0.058911074
53	0x3d71621f	0.058931466
54	0xbdd360bc	-0.10321185
55	0x3d8171fc	0.06320569
56	0x3c06304c	0.008190226
57	0xbcecc4c0	-0.028902411
58	0x3dfe8d98	0.124293506
59	0xbd6d93cd	-0.058002282
60	0xbac841cd	-0.0015278399
61	0x373f0e11	1.1387762e-05
62	0xbd20507b	-0.039139252
63	0x3d8010a7	0.06253176

layers.2.weight f4 [64, 64]
0	0x3df2c4ac	0.118539184
1	0xbded2021	-0.11578394
2	0xbd498278	-0.04919669
3	0xbcdc5f0f	-0.026900796
4	0x3dcf130d	0.101110555
5	0xbd5c6e70	-0.05381626
6	0xbd17f0c0	-0.03709483
7	0xbbe14211	-0.006874331
8	0xbd09a0f6	-0.03360077
9	0x3ce96e7a	0.028495062
10	0xbd9ca389	-0.07648379
11	0x3df16f59	0.11788816
12	0xbdb8f9d4	-0.09032026
13	0x3c5ed700	0.013601065
14	0xbe03ec3f	-0.1288309
15	0x3deb49a8	0.11488658
16	0x3d40d59c	0.047078714
17	0x3d93670b	0.07197388
18	0xbc5ba4b0	-0.013405964
19	0x3d9f42ac	0.077763885
20	0xbc8e0c69	-0.017339902
21	0xbd5127b4	-0.051063254
22	0x3da3f535	0.08005754
23	0x3d18a468	0.037266165
24	0xbcf6235d	-0.03004616
25	0x3cc50632	0.024050806
26	0xbcb2b478	-0.02181457
27	0xbda11762	-0.07865788
28	0x3de02352	0.10944237
29	0x3cf80f6b	0.03028079
30	0xbd396c1e	-0.045269124
31	0x3d8dcb36	0.06923525
32	0xbd662783	-0.056190025
33	0xbdd3f3da	-0.10349245
34	0xbc1d2930	-0.009592339
35	0x3c6c1170	0.014408454
36	0x3d9d4b4e	0.07680379
37	0xbcd02d08	-0.025412098
38	0x3d8db1ca	0.06918676
39	0x3cea8a08	0.028630272
40	0x3d03be13	0.03216369
41	0xbdb93c01	-0.09044648
42	0xbcdff7d8	-0.02733986
43	0xbd3c26d8	-0.04593548
44	0xbd283b7c	-0.041072354
45	0xbdf644d9	-0.120248504
46	0x3de94aab	0.11391195
47	0x3d068a8c	0.032846972
48	0xbd8b6af9	-0.06807513
49	0xbd1b388b	-0.03789572
50	0x3de6a591	0.11262048
51	0xbb98404c	-0.0046463367
52	0xbd6ec3f0	-0.05829233
53	0xbd728718	-0.059210867
54	0xbdd310cc	-0.10305938
55	0xbcf1d180	-0.029518843
56	0x3c398686	0.011323577
57	0xbdb4b878	-0.08824247
58	0xbcc42e38	-0.02394782
59	0x3d63dda6	0.055631302
60	0x3c053ae5	0.008131717
61	0x3d817139	0.06320424
62	0x3de18f4c	0.1101366
63	0xbd236a03	-0.039896023
64	0xbcd8da70	-0.026471347
65	0x3d6f60e2	0.058442004
66	0x3d819335	0.06326906
67	0x3db01015	0.085968174
68	0x3d8f9be8	0.07012159
69	0x3d575aed	0.052576948
70	0xbdb9c616	-0.09070985
71	0xbdc98c7b	-0.09841248
72	0x3cb36549	0.021898882
73	0xbe057a2f	-0.1303489
74	0xbdc4dee8	-0.096128285
75	0x3d958d69	0.073023625
76	0xbda1b665	-0.07896117
77	0x3df21b30	0.11821592
78	0x3da94ea1	0.082669504
79	0xbcf65ff8	-0.030075058
80	0xbd3ce6dc	-0.046118602
81	0x3ca59586	0.0202129
82	0xbdbff979	-0.09373755
83	0x3cb63cd3	0.0222458
84	0xbdd56246	-0.10419135
85	0xbd1531fc	-0.036424622
86	0x3de32c88	0.11092478
87	0x3d8c90b4	0.068635374
88	0xbdc580bb	-0.09643694
89	0xbd94d5b4	-0.07267323
90	0xbc561de0	-0.013068646
91	0xbd960364	-0.073248655
92	0x3d9c45b2	0.07630481
93	0xbdf44664	-0.119274884
94	0x3d085a91	0.033289496
95	0x3ddaa262	0.10675503
96	0x3d1529b4	0.036416724
97	0xbdfa0b3a	-0.122091725
98	0xbd68c1a0	-0.05682528
99	0xbd12bb78	-0.035823315
100	0xbd752340	-0.05984807
101	0xbdc2d3f6	-0.095130846
102	0xbce4c2c1	-0.027924897
103	0xbd1c8264	-0.038210288
104	0x3dd72b5d	0.10506318
105	0x3dc412f6	0.09573929
106	0xbde1b0d2	-0.11020054
107	0x3d7fbb06	0.06243422
108	0x3d965b48	0.07341629
109	0xbc56b8eb	-0.013105611
110	0x3b09e242	0.0021039401
111	0x3dd19a34	0.1023449
112	0xbdc4ae12	-0.09603514
113	0x3c948519	0.018129872
114	0xbe024399	-0.12721099
115	0x3d3b3d45	0.045712728
116	0xbd724dee	-0.05915635
117	0x3bc311f7	0.0059530693
118	0x3ded189c	0.115769595
119	0x3da0ce02	0.07851793
120	0xbd3dd298	-0.046343416
121	0x3d73718c	0.05943446
122	0x3ca82530	0.020525545
123	0xbd689a99	-0.05678806
124	0x3de9a6fa	0.114088014
125	0x3d925560	0.0714519
126	0x3c4127df	0.011789291
127	0x3de711a0	0.112826586
128	0xbca9eac8	-0.020741835
129	0xbc9fa3bd	-0.019487256
130	0x3de50e02	0.111843124
131	0xbd82d080	-0.063874245
132	0x3de764fb	0.11298557
133	0x3dddda06	0.108326
134	0x3dad5d47	0.08465057
135	0x3d3f2b5a	0.046672203
136	0x3d919b99	0.07109756
137	0xbb3d37ee	-0.0028872448
138	0x3d0b0580	0.033940792
139	0x3daf890e	0.08571063
140	0x3dd84edc	0.10561916
141	0x3e0a9963	0.13535075
142	0x3dab9d7b	0.083796464
143	0x3d811630	0.0630306
144	0x3c6cc1a0	0.014450461
145	0xbda5d23a	-0.08096738
146	0x3d6855fb	0.056722622
147	0x3de0913e	0.10965203
148	0x3d8825ca	0.06647833
149	0xbdefe542	-0.11713649
150	0xbc59881e	-0.013277082
151	0xbdb894dd	-0.090127684
152	0x3d8ac385	0.06775574
153	0x3dba0579	0.09083075
154	0xbdfb6088	-0.12274271
155	0xbc734dde	-0.014850108
156	0x3cc89a30	0.024487585
157	0xbd295a23	-0.041345727
158	0xbceebde8	-0.029143289
159	0x3dc80a6a	0.09767611
160	0x3d206ad9	0.039164398
161	0x3cc9d630	0.024638265
162	0xbd267490	-0.040638506
163	0x3d6a22dc	0.05716215
164	0x3db3c64e	0.08778058
165	0x3d0edf04	0.034880653
166	0x3c96dbe4	0.018415399
167	0xbdd651e2	-0.10464837
168	0xbd57e0d3	-0.052704643
169	0x3e00fa91	0.12595583
170	0xbd886728	-0.066603005
171	0xbd50fd5b	-0.05102287
172	0xbd1a8858	-0.037727684
173	0xbd04eb4e	-0.032450967
174	0x3d99eca4	0.07515839
175	0xbdc17e88	-0.09447962
176	0xbd40ec65	-0.047100443
177	0x3df2695a	0.118365005
178	0xbdd4f36e	-0.10397993
179	0x3d2275bb	0.039663058
180	0xbd299740	-0.04140401
181	0x3e063b6d	0.13108607
182	0xbdc422d2	-0.09576954
183	0xbdc27cea	-0.09496482
184	0xbd0b0a31	-0.033945266
185	0x3dbc9108	0.0920735
186	0xbdd84d4a	-0.10561617
187	0xbdcea7e3	-0.100906156
188	0x3ca65c42	0.020307664
189	0xbc1fd95d	-0.009756413
190	0x3d712d88	0.058881313
191	0x3db06b28	0.086141884
192	0xbc506b30	-0.012720868
193	0xbcbe0340	-0.02319491
194	0x3d45be18	0.04827699
195	0x3de2cbf0	0.11074054
196	0x3ce83c28	0.028348997
197	0x3c15c300	0.00914073
198	0x3cb4b5f8	0.022059426
199	0xbd0e4f94	-0.03474386
200	0xbd0e0a40	-0.034677744
201	0x3d6b606c	0.057465002
202	0xbd403968	-0.046929747
203	0x3d29ec80	0.04148531
204	0xbd1be67c	-0.038061604
205	0xbdf3b782	-0.11900236
206	0xbc9fc7f8	-0.019504532
207	0x3d82658a	0.06367023
208	0x3d9d2bfc	0.07674405
209	0xbd61c350	-0.055117905
210	0x3d2d2468	0.042271048
211	0xba195700	-0.0005849451
212	0xbd0e3dc4	-0.034726873
213	0x3d84c0e0	0.064821005
214	0xbd01c0b8	-0.03167793
215	0xbd82da82	-0.06389333
216	0x3d83ded4	0.064389855
217	0x3d9de098	0.077088535
218	0x3d292fc4	0.04130532
219	0x3d408408	0.047000915
220	0x3a63f700	0.00086961687
221	0x3c0f3980	0.008741736
222	0x3d952932	0.07283248
223	0xbdcd35d0	-0.100200295
224	0x3cf96ab8	0.030446395
225	0xbdac3aca	-0.084096506
226	0x3d447194	0.04795988
227	0xbdaa6b98	-0.08321303
228	0x3c3a1bf0	0.0113592
229	0xbdc2445c	-0.09485695
230	0x3c9301f8	0.017945275
231	0x3d203a30	0.039117992
232	0x3d038eac	0.032118484
233	0x3d5e4c58	0.054272026
234	0xbcec9a48	-0.02888216
235	0xbdae45d2	-0.08509411
236	0x3dde66c0	0.10859442
237	0xbcaca418	-0.02107434
238	0xbd9ce822	-0.07661463
239	0xba987800	-0.0011632442
240	0x3c928a78	0.017888293
241	0x3dec0f6c	0.11526379
242	0xbde0a140	-0.10968256
243	0x3cf89c48	0.030347958
244	0xbd9cbfb6	-0.076537535
245	0x3d67a858	0.05655703
246	0xbccfe698	-0.02537851
247	0xbcf65850	-0.030071408
248	0x3df7985a	0.12089606
249	0xbd05434c	-0.032534882
250	0x3d091bd8	0.03347382
251	0xbca93e88	-0.0206597
252	0x3dd7edaa	0.10543378
253	0x3d95673e	0.072950825
254	0xbdf8effe	-0.1215515
255	0xbdd982f0	-0.106206775

layers.2.bias f4 [64]
0	0x3da1e0bf	0.07904195
1	0x3d0e1d2b	0.034695785
2	0x3d4b6b6a	0.049662985
3	0xbdbecb6c	-0.093161434
4	0xbbbb65e1	-0.005718932
5	0xbd0af2c8	-0.03392294
6	0xbd0cea73	-0.034403276
7	0x3d8f6174	0.070010096
8	0xbc8793d8	-0.01654999
9	0x3e087597	0.13326107
10	0xbd2f37c2	-0.042777784
11	0x3df0daca	0.11760481
12	0xbd90bdcd	-0.070674516
13	0x3c6e4861	0.014543624
14	0xbdd03d70	-0.10167968
15	0x3dbfa87a	0.09358306
16	0x3cb7c127	0.02243097
17	0x3df94e20	0.12173104
18	0x3dc73930	0.097277045
19	0x3d92fc84	0.0717707
20	0xbdb5a457	-0.08869236
21	0x3d17d14c	0.037064835
22	0xbdae3998	-0.08507079
23	0xbd9e7b06	-0.077383086
24	0xbb255348	-0.0025226641
25	0x3c6ed6b6	0.014577558
26	0x3db6c579	0.08924384
27	0x3dae5301	0.085119255
28	0x3ccfaf38	0.025352105
29	0x3e0764f6	0.13222107
30	0x395ec497	0.00021244805
31	0xbd7b6a64	-0.06138076
32	0xbd11172f	-0.0354225
33	0x3d2c8e0c	0.042127654
34	0xbd919b14	-0.07109657
35	0xbcae931b	-0.02131038
36	0xbd2becec	-0.041973993
37	0x3d378a1d	0.04480945
38	0x3d343b9d	0.044002164
39	0xbdcca309	-0.09992034
40	0x3df667c6	0.12031512
41	0x3d8793e4	0.06620005
42	0xbd622260	-0.055208564
43	0xbdc1cc0c	-0.09462747
44	0x3d825a5c	0.06364891
45	0xbda15fd7	-0.07879608
46	0xbd2e9556	-0.042622887
47	0x39c6e202	0.00037933892
48	0xbb73ea00	-0.0037218332
49	0x3da9b5dc	0.0828664
50	0xbd9110c7	-0.07083278
51	0xbd875d65	-0.066096105
52	0x3d80d1f4	0.062900454
53	0x3d528433	0.051395606
54	0xbdb6e16f	-0.08929717
55	0x3cdff621	0.027339043
56	0x3c6883b6	0.014191559
57	0x3baafe63	0.0052183135
58	0xbda07ff4	-0.07836905
59	0x3d51c897	0.051216688
60	0x3d87ca6e	0.06630407
61	0x3d92f1e3	0.071750425
62	0x3de18c9c	0.11013147
63	0x3d63009c	0.055420503

layers.3.weight f4 [1, 64]
0	0x3d840ff4	0.06448355
1	0xbd9c99b0	-0.07646501
2	0x3e59e2dc	0.21277946
3	0xbd4fc048	-0.050720483
4	0xbe40c942	-0.18826774
5	0x3d0c4500	0.03424549
6	0x3e2210f0	0.15826774
7	0xbe49caba	-0.1970624
8	0x3e93c527	0.28861353
9	0x3ca88e2f	0.02057561
10	0x3e6d385f	0.23166035
11	0x3e6d091c	0.23148006
12	0x3d195891	0.03743798
13	0xbd2d6ad3	-0.042338204
14	0xbe10abc0	-0.14128017
15	0xbe2c5052	-0.16827515
16	0x3d223de4	0.039609805
17	0x3e79c2ab	0.24390666
18	0xbded2c07	-0.11580663
19	0xbcde33ab	-0.027124247
20	0x3e3ad3e9	0.182449
21	0xbe8c8034	-0.2744156
22	0xbc9649b2	-0.018345688
23	0x3dc225a8	0.094798386
24	0x3e9a2005	0.30102554
25	0x3c9ec933	0.019383049
26	0x3e9a9e87	0.30199072
27	0x3b530968	0.0032201651
28	0xbcc3dfe9	-0.02391048
29	0xbda2f427	-0.079567246
30	0x3dc5d348	0.09659439
31	0x3d47badd	0.04876219
32	0xbe204944	-0.15652949
33	0x3d9b9fb2	0.07598819
34	0x3e8e5559	0.2779949
35	0x3d826860	0.06367564
36	0x3e01f8cd	0.12692566
37	0x3d3286fd	0.043585766
38	0x3d6d4b58	0.05793318
39	0x3b39b168	0.0028334502
40	0x3d1aa363	0.037753474
41	0xbe9ceca0	-0.3064928
42	0xbe0f3a14	-0.13986999
43	0xbe857052	-0.26062256
44	0x3e3ecc58	0.18632638
45	0xb95097b2	-0.00019892937
46	0x3e957a63	0.29194936
47	0xbe3d2f49	-0.18475069
48	0x3ea4e271	0.3220401
49	0x3eb430d1	0.35193494
50	0xbdefb6d6	-0.11704795
51	0xbe2620bf	-0.16223429
52	0x3e1966f8	0.14980686
53	0x3d8a9b09	0.06767852
54	0x3e872f44	0.26403248
55	0xbc5622fb	-0.013069863
56	0x3e0d2a40	0.13785648
57	0x3e8c66d0	0.2742219
58	0xbe274708	-0.1633569
59	0x3e0d21f6	0.13782486
60	0x3c910d8a	0.017706651
61	0x3aed5938	0.0018108254
62	0xbe4db787	-0.20089541
63	0xbcf119c7	-0.029431237

layers.4.weight f4 [1, 64]
0	0xbe4362ae	-0.19080612
1	0x3d69af4e	0.05705195
2	0x3e20b1ea	0.15692869
3	0xbda2217e	-0.079165444
4	0x3e48a37d	0.19593616
5	0xbd60bb39	-0.05486605
6	0x3e22303a	0.1583871
7	0xbddbe11e	-0.10736297
8	0x3d855e19	0.06512088
9	0x3e11ded7	0.14245163
10	0xbd078661	-0.033087138
11	0x3d69889c	0.057015046
12	0xbdf69cb0	-0.120416045
13	0xbdbd5e9c	-0.09246561
14	0xbe30f7a3	-0.17281966
15	0xbe85a7a1	-0.26104453
16	0x3e401d47	0.18761168
17	0x3e39f36f	0.18159269
18	0xbd72d9c0	-0.059289694
19	0x3c928402	0.017885212
20	0xbd16626c	-0.036714956
21	0xbecd1862	-0.40057665
22	0x3e9147d1	0.28375104
23	0x3df9d8dc	0.12199566
24	0xbdcf45c0	-0.10120726
25	0x3e05badd	0.13059564
26	0xbdf4acc2	-0.119470134
27	0xbe4cd921	-0.20004703
28	0xbe486795	-0.19570763
29	0x3ea7a095	0.32739702
30	0x3c8641b5	0.016388753
31	0x3df551bb	0.119784795
32	0x3d4f9102	0.0506754
33	0x3e193857	0.14962898
34	0x3d2610e0	0.040543437
35	0xbe55461e	-0.20827529
36	0x3e03d14c	0.12872809
37	0xbd9ea0c8	-0.0774551
38	0xbd9dfd18	-0.077142894
39	0xbdda6db9	-0.10665459
40	0x3e827093	0.25476512
41	0xbe0198a9	-0.12655891
42	0x3e049c94	0.12950355
43	0x3d93b77b	0.072127305
44	0x3e27bb35	0.16380008
45	0x3e551313	0.20808057
46	0x3df3d5a4	0.11905983
47	0x3e8985c5	0.2685987
48	0x3e0a502e	0.13507149
49	0x3e67050d	0.2256052
50	0x3d778776	0.06043192
51	0x3d457642	0.048208483
52	0x3dabc4fe	0.08387183
53	0xbdb21378	-0.086951196
54	0x3d9d77f3	0.07688894
55	0xbd7f4651	-0.06232292
56	0xbea7dfcd	-0.32787934
57	0xbeef7679	-0.46770075
58	0xbc557344	-0.01302797
59	0xbddc6957	-0.107622795
60	0x3e829b63	0.25509176
61	0xbe7a228b	-0.2442724
62	0x3d835310	0.06412327
63	0xbded95bb	-0.116008244
