src/data/IDDPG-20220614-202159/weights/critic-final-4.pkl (torch, 43855 bytes, 7 tensors)

layers.0.weight f4 [64, 30]
0.15098351 0.037758272 -0.04104538 0.094609 -0.056110103 0.078318015 -0.18087769 -0.053186864
-0.17157425 0.06847891 0.20787013 -0.13742398 -0.19884034 -0.04808035 0.141354 -0.07186424
0.09343645 -0.04040941 -0.077200666 -0.08306331 -0.31666398 0.22130261 0.037116945 -0.055099588
0.2117258 -0.28447038 0.2828927 0.4411136 -0.41540608 0.40907905 -0.1348502 -0.012209579
0.17833813 -0.1328556 -0.12480182 -0.11050662 -0.06081319 0.032127593 -0.10213136 0.008888747
0.08581496 -0.0058972756 -0.117243566 0.055690188 -0.17699708 -0.11836468 0.018117063 -0.15135829
0.17415455 -0.089704156 0.05812405 -0.16019891 0.042414386 -0.024926143 -0.08689575 -0.025864739
-0.07075123 0.15108392 -0.10754126 0.02970311 -0.06493551 0.2723395 0.17884448 0.2655041
-0.23050301 0.19462906 -0.081751764 0.2779514 -0.008238732 -0.2215895 -0.2968389 -0.049799684
-0.053820033 0.12182671 -0.27048838 0.07775704 0.08712789 0.26555285 0.1038397 -0.22281466
-0.10305019 -0.28407973 0.13082606 -0.069408506 -0.5869401 0.15119441 0.12906048 -0.19826865
0.28663683 -0.11520503 0.090386145 0.3837075 0.32591826 -0.147134 -0.27573243 -0.010821272
0.054772805 -0.27445722 0.054417722 0.33089095 0.111697026 0.16783482 0.10079005 0.18967777
-0.2393453 -0.15096149 -0.1901716 0.13634713 -0.2753756 -0.09381362 -0.27946705 0.19995013
0.37152418 -0.12924933 -0.48257828 0.11278519 -0.16797458 0.14393188 0.36278018 -0.20004378
0.100888535 0.35575676 -0.5917684 -0.24511255 -0.06713679 -0.1647783 -0.027002715 -0.029338216
-0.02219615 -0.0330513 -0.22057736 -0.18497421 0.24694556 0.3820166 -0.24670467 -0.16226785
0.13776766 0.054508816 0.15479012 0.04015805 -0.1861798 0.032178123 0.14258406 0.015212895
0.8631733 0.049521737 0.053903755 0.055436645 -0.080356374 0.97707456 0.0045304047 -0.20145288
-0.09501377 0.1232282 0.08148436 -0.09132084 -0.016545108 -0.20038086 0.083864555 0.13935463
-0.13657944 0.045260176 0.13358486 0.17506288 -0.080395535 -0.26642787 -0.16982326 0.09711796
-0.06524858 0.06964645 0.17440382 0.26912838 0.14983058 -0.1536167 -0.704997 0.97853565
-0.112076744 0.41560647 0.083986 -0.12431864 0.0547208 0.056106716 0.10756252 -0.17647022
0.15872183 -0.04513341 0.05648505 -0.26920125 -0.21656497 0.0026277408 0.10721133 -0.14782512
0.34535366 0.2698712 0.13762127 -0.07747215 -0.28419542 0.0026246796 0.13207015 -0.1342423
0.25189093 0.046863157 -0.119449124 0.07694835 -0.518606 0.20301609 0.013863687 0.016730597
-0.10120246 -0.9380381 -0.16759779 -0.08459138 -0.17753036 -0.041583024 0.1131721 -0.0031105008
-0.024069512 -0.09978046 -0.14658415 0.0300565 0.02020178 -0.06794034 -0.10795943 -0.11917715
-0.16869831 -0.026702411 -0.17174648 -0.09148104 0.07962691 0.13065559 -0.077566594 -0.1495962
-0.086316615 -0.09559026 -0.1290216 0.17921717 -0.014453591 0.08618801 -0.052054204 0.018100021
-0.26355192 0.05430191 0.19131921 -0.015938265 0.030756988 0.09629537 0.2927599 0.23607393
-0.07861676 0.06123737 -0.26200727 0.11571461 0.13631515 -0.03169569 -0.03406454 -0.018095829
00000000: 6c9b 1a3e 6ba8 1a3d 331f 28bd 5dc2 c13d
00000010: b5d3 65bd 3265 a03d 0038 39be 78da 59bd
00000020: 29b1 2fbe ac3e 8c3d e8db 543e dfb8 0cbe
00000030: cd9c 4bbe e7ef 44bd 1abf 103e 8f2d 93bd
00000040: 9c5b bf3d 5684 25bd 621b 9ebd 191d aabd
00000050: c821 a2be 279d 623e f007 183d 1bb0 61bd
00000060: a6ce 583e 1aa6 91be 50d7 903e a4d9 e13e
00000070: 1bb0 d4be cf72 d13e 2c16 0abe b00a 48bc
00000080: 459e 363e 4c0b 08be 1998 ffbd 4b51 e2bd
00000090: 4017 79bd 3998 033d 3f2a d1bd 1ba2 113c
000000a0: c1bf af3d ef3d c1bb 651d f0bd 651b 643d
000000b0: b93e 35be 2e69 f2bd 3c6a 943c abfd 1abe
000000c0: 9255 323e d0b6 b7bd 7c13 6e3d 2f0b 24be
000000d0: b5ba 2d3d e931 ccbc 66f6 b1bd 4ae2 d3bc
000000e0: 05e6 90bd beb5 1a3e 983e dcbd f053 f33c
000000f0: e9fc 84bd 1570 8b3e 0223 373e 27f0 873e
00000100: fb08 6cbe d74c 473e 786d a7bd a54f 8e3e
00000110: bffb 06bc 5ce8 62be 45fb 97be c1fa 4bbd
00000120: 6572 5cbd 4880 f93d 747d 8abe 153f 9f3d
00000130: 1b70 b23d 8bf6 873e e9a9 d43d 8729 64be
00000140: fa0b d3bd e672 91be 44f7 053e 0c26 8ebd
00000150: b541 16bf b5d2 1a3e 6e28 043e f006 4bbe
00000160: 10c2 923e 9df0 ebbd 5f1c b93d 4f75 c43e
00000170: c2de a63e 4caa 16be cd2c 8dbe b44b 31bc
00000180: 7359 603d a885 8cbe 1ee5 5e3d 8a6a a93e
00000190: 69c1 e43d e4dc 2b3e 046b ce3d e43a 423e
000001a0: ef16 75be a695 1abe 58bc 42be 959e 0b3e
000001b0: 08fe 8cbe 5b21 c0bd 4e16 8fbe babf 4c3e
000001c0: 6b38 be3e f059 04be 8014 f7be ecfb e63d
000001d0: 8701 2cbe e162 133e 53be b93e 47d8 4cbe
000001e0: a69e ce3d c025 b63e 227e 17bf c9fe 7abe
000001f0: 037f 89bd a5bb 28be cc34 ddbc b356 f0bc
00000200: b3d4 b5bc cd60 07bd 08df 61be e169 3dbe
00000210: 4cdf 7c3e ae97 c33e 26a0 7cbe 8b29 26be
00000220: f712 0d3e a344 5f3d 4d81 1e3e c47c 243d
00000230: eba5 3ebe 35cd 033d 8e01 123e 823f 793c
00000240: edf8 5c3f 4ed7 4a3d 2fca 5c3d 8911 633d
00000250: e291 a4bd 8f21 7a3f ca73 943b aa49 4ebe
00000260: 9496 c2bd 115f fc3d 46e1 a63d 6c06 bbbd
00000270: 9b89 87bc a430 4dbe 2ec1 ab3d fbb2 0e3e
00000280: 7bdb 0bbe bc62 393d 78ca 083e af43 333e
00000290: 6aa6 a4bd 3c69 88be 26e6 2dbe c8e5 c63d
000002a0: 0ca1 85bd cca2 8e3d ea96 323e 32cb 893e
000002b0: 306d 193e b24d 1dbe af7a 34bf 5081 7a3f
000002c0: 7e88 e5bd 5fca d43e da00 ac3d c59a febd
000002d0: eb22 603d 28d0 653d bd49 dc3d 9cb4 34be
000002e0: fa87 223e cfdd 38bd de5c 673d bfd4 89be
000002f0: 35c3 5dbe 2d36 2c3b 9d91 db3d 785f 17be
00000300: 32d2 b03e 8f2c 8a3e 97ec 0c3e b8a9 9ebd
00000310: 1082 91be d102 2c3b 663d 073e d076 09be
00000320: d9f7 803e 95f3 3f3d bea1 f4bd 1997 9d3d
00000330: 5dc3 04bf 73e3 4f3e 8524 633c 9b0e 893c
00000340: 3c43 cfbd 4423 70bf c19e 2bbe 3f3e adbd
00000350: 85ca 35be f652 2abd c6c6 e73d 8bd9 4bbb
00000360: 6d2d c5bc b359 ccbd 281a 16be 0d39 f63c
00000370: 347e a53c 4e24 8bbd d519 ddbd 2613 f4bd
00000380: 40bf 2cbe 04bf dabc 4fde 2fbe 695a bbbd
00000390: 6f13 a33d 94ca 053e 3cdb 9ebd bf2f 19be
000003a0: c4c6 b0bd d4c4 c3bd 3d1e 04be b584 373e
000003b0: c1ce 6cbc 5783 b03d ca36 55bd 7f46 943c
000003c0: 47f0 86be ae6b 5e3d 2fe9 433e f790 82bc
000003d0: 14f6 fb3c 8236 c53d a0e4 953e 5dbd 713e
000003e0: d301 a1bd 09d4 7a3d d125 86be c8fb ec3d
000003f0: 3396 0b3e 57d3 01bd 4287 0bbd b43d 94bc

layers.0.bias f4 [64]
0.15905093 0.022924306 -0.08305611 0.15662482 0.13838172 0.011840782 0.024963418 0.031251006
-0.07354982 -0.11105323 0.05876496 -0.1254076 0.035080694 0.13895576 -0.031232916 -0.10430306
-0.0873036 -0.19221185 0.0018676717 -0.11838468 0.0017203217 -0.021351414 -0.1558247 0.19290057
-0.0083017545 -0.092564456 0.01870714 0.08758996 -0.015616631 0.16023056 -0.010562546 0.028783223
0.051950943 0.06679435 -0.10564433 0.046442557 0.23424223 -0.21023293 0.09188927 -0.03539831
0.10781023 0.020063214 -0.03393399 0.1270147 -0.1129452 0.12907767 -0.17258988 -0.06765093
-0.02321947 -0.14654762 -0.18450028 -0.21078634 0.12760755 -0.10278834 -0.017248599 0.036190696
0.05885309 -0.07171248 0.07700844 -0.11944829 -0.0919387 0.035475 0.21086228 0.14685129
00000000: 3fde 223e c1cb bb3c 5219 aabd 4262 203e
00000010: f0b3 0d3e d7ff 413c 1580 cc3c 0e01 003d
00000020: 4aa1 96bd e06f e3bd 87b3 703d da6a 00be
00000030: c6b0 0f3d 6b4a 0e3e 2cdc ffbc d89c d5bd
00000040: 3bcc b2bd 2fd3 44be aacc f43a ab73 f2bd
00000050: 6b7c e13a 29e9 aebc 8390 1fbe ba87 453e
00000060: 1504 08bc 6f92 bdbd b73f 993c 5d62 b33d
00000070: e6dc 7fbc 7b13 243e 870e 2dbc cbca eb3c
00000080: 83ca 543d 7acb 883d 0e5c d8bd 8d3a 3e3d
00000090: 32dd 6f3e 4d47 57be 7130 bc3d d1fd 10bd
000000a0: 9ccb dc3d 9c5b a43c 5efe 0abd 2410 023e
000000b0: d04f e7bd f02c 043e 67bb 30be 928c 8abd
000000c0: c236 bebc 9410 16be a4ed 3cbe 60d8 57be
000000d0: 8eab 023e b182 d2bd ef4c 8dbc b23c 143d
000000e0: f00f 713d fedd 92bd 9ab6 9d3d 4ea1 f4bd
000000f0: 5b4a bcbd 3c4e 113d 48ec 573e 2f60 163e

layers.1.weight f4 [64, 64]
-0.16509108 0.050657988 0.15379137 0.065106876 0.19761902 -0.0243421 -0.16437738 -0.07778558
0.13149309 -0.05371399 -0.03989792 0.20146151 -0.13968009 -0.23243675 -0.24318206 -0.20920996
0.056413937 -0.1621628 -0.0751849 -0.06162666 0.027686002 0.43736327 0.45160225 -0.09045404
0.36858934 0.032896683 -0.06229495 0.27313954 -0.25055102 0.18628888 -0.057529915 -0.029235939
0.29067525 -0.39372423 -0.115766704 -0.059652023 -0.32780334 0.15287903 0.1335475 -0.02361151
-0.05331333 -0.3038531 -0.15724716 0.29017082 -0.082123324 -0.063607916 0.09749953 0.3825499
-0.015071339 0.12143311 -0.01795002 0.18555903 -0.27704838 0.06736909 -0.33322102 -0.33333996
-0.10306481 0.09252936 -0.4214837 0.3082258 0.031290278 -0.034755126 -0.13289113 -0.08820872
-0.20053965 0.098290965 -0.029937929 0.2851321 0.08098443 0.3615934 0.24013701 -0.1009025
0.3159926 0.03330009 -0.016417982 0.08990961 0.16840357 -0.10615153 -0.040621053 -0.078998595
-0.03817834 -0.21990666 -0.043065444 -0.09512188 -0.018323727 0.07822215 -0.015682708 -0.052669674
-0.023965254 -0.11011152 -0.009901613 -0.10427618 0.4225682 0.10176418 0.36944675 -0.2054098
0.50292265 0.0783383 -0.015823081 0.0101574 -0.11738478 0.2548992 0.041551817 -0.17504108
0.08356576 0.2911836 0.51283365 -0.4283766 0.21634008 -0.2054778 0.19048984 0.2723932
0.0016848199 -0.34186876 0.094844125 -0.1182147 0.030252678 -0.10315486 0.050610326 -0.293663
-0.34672102 0.051354602 0.28842834 0.23481943 -0.14396103 -0.059664115 -0.37954542 -0.059639752
-0.04507132 0.011235014 -0.08467247 0.03914696 0.030797573 -0.006527826 0.076956384 -0.06218478
-0.12406443 -0.037148774 0.017816013 -0.11576074 -0.0029092482 0.044127084 -0.104050115 0.050917
0.05107947 0.0010920725 -0.059910953 -0.0957815 -0.031793315 -0.0056706565 -0.016431108 -0.06834105
-0.036528155 -0.015118524 -0.042382777 0.039204016 -0.117366925 -0.05356102 0.0914397 -0.10725836
0.06439409 -0.08271642 -0.005089253 0.0018824062 -0.098524645 -0.007325725 0.09424715 -0.11801485
-0.10528165 0.009058644 -0.040552393 -0.11743322 -0.024276162 -0.03682755 0.10427374 -0.09016159
0.09155107 0.081402406 -0.04305051 -0.123536155 -0.046882797 4.556775e-05 -0.0076151732 -0.13621746
-0.029611617 0.038578987 -0.099544376 -0.074163504 -0.027139857 0.07393816 0.028491054 0.09180336
0.12282084 0.0092917085 -0.15635768 0.609283 -0.077103846 0.083860785 0.13983671 0.023949504
0.047226407 0.19440706 -0.014101554 -0.03229203 -0.17851517 -0.15716091 0.14740668 -0.21922305
0.08558811 0.15072596 -0.1478142 0.27476394 -0.53546304 -0.34011123 -0.16075803 0.46208334
0.07954891 -0.08761308 -0.047972783 0.057597198 -0.14628875 -0.0052082753 -0.24380866 -0.15211661
0.63353515 -0.07958745 -0.017232046 -0.01601823 -0.19532393 0.44302103 -0.105621025 -0.30996695
-0.014662623 0.20944987 -0.1603365 0.23627083 -0.29938707 0.12531403 -0.109071776 -0.24679656
0.109390214 0.28630263 0.09585421 0.057792816 -0.34105816 0.09698992 0.33549348 0.24338703
-0.50610536 0.032668106 0.07398038 0.27521637 -0.48573434 -0.12447578 -0.07490705 -0.062861234
00000000: a30d 29be c07e 4f3d 7c7b 1d3e c156 853d
00000010: a45c 4a3e 1569 c7bc 8b52 28be 0c4e 9fbd
00000020: 20a6 063e 3303 5cbd 006c 23bd ed4b 4e3e
00000030: 4c08 0fbe e603 6ebe b804 79be 233b 56be
00000040: 4d12 673d 010e 26be 8afa 99bd 3d6c 7cbd
00000050: c1cd e23c 14ee df3e 6938 e73e f83f b9bd
00000060: beb7 bc3e acbe 063d fd28 7fbd f2d8 8b3e
00000070: 3948 80be 83c2 3e3e 7da4 6bbd 3580 efbc
00000080: 63d3 943e 3996 c9be 1817 edbd ae55 74bd
00000090: d7d5 a7be 528c 1c3e adc0 083e ed6c c1bc
000000a0: 145f 5abd a292 9bbe 6605 21be 4591 943e
000000b0: 4630 a8bd de44 82bd d5ad c73d 95dd c33e
000000c0: c7ed 76bc ecb1 f83d ec0b 93bc 3003 3e3e
000000d0: 49d9 8dbe cef8 893d f29b aabe 89ab aabe
000000e0: a513 d3bd 0880 bd3d b6cc d7be c6cf 9d3e
000000f0: 3c2a 003d 645b 0ebd 9d14 08be c6a6 b4bd
00000100: 445a 4dbe c64c c93d 6340 f5bc d6fc 913e
00000110: 2adb a53d c522 b93e 7ae6 753e f8a5 cebd
00000120: c8c9 a13e ad65 083d 017f 86bc 8822 b83d
00000130: fc71 2c3e f965 d9bd 4362 26bd 04ca a1bd
00000140: e460 1cbd 362f 61be 6465 30bd 43cf c2bd
00000150: a41b 96bc ef32 a03d 0679 80bc 28bc 57bd
00000160: c852 c4bc 2682 e1bd 603a 22bc c08e d5bd
00000170: dc5a d83e bd69 d03d 2028 bd3e f256 52be
00000180: 8abf 003f d56f a03d 689f 81bc 396b 263c
00000190: 6e67 f0bd 2682 823e 3d32 2a3d f83d 33be
000001a0: 8624 ab3d 0416 953e 1149 033f 2d54 dbbe
000001b0: 4188 5d3e c668 52be c50f 433e 1f77 8b3e
000001c0: 2dd5 dc3a 6c09 afbe a33d c23d 8c1a f2bd
000001d0: 77d4 f73c db42 d3bd c64c 4f3d ff5a 96be
000001e0: 6b85 b1be 3459 523d e1ac 933e 8174 703e
000001f0: 856a 13be 5c62 74bd c753 c2be d048 74bd
00000200: b49c 38bd 1013 383c c368 adbd 9058 203d
00000210: 314b fc3c 60e7 d5bb 4f9b 9d3d 78b5 7ebd
00000220: 7e15 febd 5029 18bd e3f2 913c f813 edbd
00000230: 16a9 3ebb 9abe 343d 3a18 d5bd 588e 503d
00000240: b538 513d df23 8f3a 3065 75bd 1729 c4bd
00000250: b539 02bd ead0 b9bb 889a 86bc 64f6 8bbd
00000260: 8c9e 15bd b0b3 77bc 9099 2dbd 6494 203d
00000270: 125e f0bd cd62 5bbd bd44 bb3d 45aa dbbd
00000280: 0ce1 833d 3a67 a9bd c0c3 a6bb 12bb f63a
00000290: 4ac7 c9bd a30c f0bb a604 c13d c5b1 f1bd
000002a0: e89d d7bd b56a 143c 441a 26bd d480 f0bd
000002b0: cdde c6bc 7cd8 16bd 788d d53d a4a6 b8bd
000002c0: 217f bb3d 4eb6 a63d bb55 30bd 8600 fdbd
000002d0: 2d08 40bd 0020 3f38 b488 f9bb 977c 0bbe
000002e0: 1094 f2bc 0005 1e3d ecdd cbbd 09e3 97bd
000002f0: 6854 debc e46c 973d 1266 e93c 6603 bc3d
00000300: 7e89 fb3d 403c 183c 3a1c 20be f8f9 1b3f
00000310: 9fe8 9dbd 34bf ab3d 5b31 0f3e c031 c43c
00000320: 7a70 413d a512 473e 340a 67bc a644 04bd
00000330: aecc 36be caee 20be c7f1 163e 027c 60be
00000340: d248 af3d e857 1a3e 9b5c 17be dcad 8c3e
00000350: 1b14 09bf 0f23 aebe c19d 24be 3096 ec3e
00000360: 8aea a23d 7d6e b3bd 1c7f 44bd 0aeb 6b3d
00000370: b8cc 15be 2eaa aabb faa8 79be 75c4 1bbe
00000380: 5c2f 223f bffe a2bd 382a 8dbc aa38 83bc
00000390: ff02 48be a7d3 e23e d64f d8bd fdb3 9ebe
000003a0: 803b 70bc 077a 563e 402f 24be fbf0 713e
000003b0: 4349 99be 5252 003e 0661 dfbd 3db8 7cbe
000003c0: fa07 e03d 4296 923e 364f c43d 29b8 6c3d
000003d0: 2d9f aebe a7a2 c63d cdc5 ab3e 733a 793e
000003e0: 1f90 01bf fece 053d 0783 973d 29e9 8c3e
000003f0: 2cb2 f8be 28ed febd de68 99bd 64bd 80bd

layers.1.bias f4 [64]
-0.08985773 0.05594786 0.040567186 0.056307085 -0.113142304 -0.049983468 0.20072046 -0.07580305
-0.18640026 0.00085202226 -0.13270523 0.014972972 0.0016154846 -0.10048829 0.08127972 0.2026434
0.09277859 -0.07366822 0.1321041 -0.048661638 0.17410134 -0.103193134 -0.080246165 0.059471395
-0.10952 0.10027967 0.14987123 0.24345648 -0.01973132 -0.141243 -0.18502359 -0.019147469
0.19598232 0.007354596 -0.11289552 0.12448416 0.09110882 -0.11033848 -0.25282437 -0.18047073
-0.16211687 -0.089710526 -0.0068166354 0.06694208 0.20227702 -0.08719026 -0.11116782 0.0757393
-0.21365222 0.037421785 -0.14570333 -0.09788765 -0.0030201594 0.19726872 0.11010825 0.046988558
-0.00902854 -0.05554585 0.26017404 -0.11298029 -0.058767386 -0.06375955 0.03194321 0.09271356
00000000: 5407 b8bd 9529 653d c729 263d 42a2 663d
00000010: 27b7 e7bd 77bb 4cbd aa89 4d3e a13e 9bbd
00000020: b6df 3ebe 3f5a 5f3a e1e3 07be 3251 753c
00000030: abbe d33a cecc cdbd fb75 a63d c081 4f3e
00000040: b402 be3d 5ddf 96bd 4c46 073e 6d51 47bd
00000050: 9f47 323e ec56 d3bd 1a58 a4bd 4798 733d
00000060: 064c e0bd 6d5f cd3d d877 193e a84c 793e
00000070: 94a3 a1bc 01a2 10be d376 3dbe 27db 9cbc
00000080: 97af 483e d3fe f03b c435 e7bd 8df1 fe3d
00000090: 4397 ba3d 24f9 e1bd 3272 81be 52cd 38be
000000a0: f701 26be 27ba b7bd 155e dfbb ee18 893d
000000b0: b521 4f3e cf90 b2bd f4ab e3bd 351d 9b3d
000000c0: a6c7 5abe 9647 193d 4133 15be 5279 c8bd
000000d0: deed 45bb d000 4a3e 6f80 e13d 1377 403d
000000e0: 71ec 13bc 0c84 63bd 8835 853e 3662 e7bd
000000f0: 12b6 70bd 5e94 82bd e2d6 023d 9be0 bd3d

layers.2.weight f4 [64, 64]
-1.4859103 0.07854576 -0.02770056 0.47748387 -0.06204884 0.073734164 -0.016386159 -0.54733264
-0.23472069 -0.6429786 0.07678345 -0.7135295 0.10636717 -0.6058122 0.9246489 0.10907418
0.45275798 0.8017296 0.94083 0.39423648 0.14531344 -1.390496 -1.1006119 0.21617414
0.48343194 0.032878112 -0.1954646 0.11054684 0.22614752 0.98898983 0.535884 -0.81839716
-0.17142373 -0.9829082 0.13864972 0.17663367 0.8810298 0.5689793 -0.24637403 -0.9901631
-1.4668918 -0.9564786 0.048818078 -1.2028953 0.28559828 -0.25091147 -0.045323033 0.23007374
-0.34690294 0.7235907 0.088664375 0.27398783 0.0036751702 -0.1545159 0.16169399 -1.1496614
-1.3634378 0.5110082 0.059071824 0.4205425 0.3380299 -1.3461753 -0.08913523 0.4011673
-0.016155085 0.015047904 0.108683646 -0.16600917 0.058350496 0.067158364 0.032292426 -0.12148439
-0.21232592 -0.2246292 -0.030950176 -0.19088757 -0.07129001 -0.18889754 -0.08596125 0.08952072
-0.024578348 -0.18149665 -0.0033481766 -0.18010211 0.03833797 0.08428169 0.10349788 0.15981886
-0.1751335 0.2707286 -0.14416106 0.14542696 0.09718602 0.16328926 0.16252773 0.033305317
-0.01544807 0.070750445 -0.19121198 0.07270783 0.26467612 0.25144544 -0.098434195 -0.09565093
0.030478979 -0.17878903 -0.06465684 0.06703684 0.025819741 0.2777262 -0.11169279 0.18319453
-0.45723096 0.44394046 0.008421286 -0.04927376 -0.25758395 -0.13081053 0.06542282 -0.124290586
0.2921578 0.034981348 0.015803527 0.24185102 0.35145336 -0.9116481 -0.07290945 -0.010433221
-0.25568125 -0.047345337 0.099318296 -0.06292142 0.22341524 -0.056002393 0.13882594 -0.24292718
-0.5235491 -0.2815801 -0.008319635 -0.31006142 0.042051684 -0.24304725 -0.30274865 0.268275
-0.28791577 -0.06375148 0.121902 0.30009952 0.21593447 -0.29736444 -0.52132064 0.08300704
-0.31714538 0.038304273 0.19554916 0.094706684 -0.054565296 -0.28988913 -0.025962591 -0.10783162
0.059273556 -0.2115649 -0.59025127 0.03382445 0.17671727 -0.052597687 -0.299536 0.6380505
-0.005560467 0.11645332 -0.050350964 -0.1641999 0.12237528 0.47064796 -0.53688127 0.13990442
0.1329991 0.32974714 -0.044583034 0.097794056 -0.7542338 0.2122162 0.011040985 -0.5764486
0.046980105 0.38177228 0.30162597 -0.82049316 -0.21166778 -0.24098584 -0.07835327 0.1634457
0.03631293 0.47234905 -0.08957463 -0.07613255 -0.24607092 0.09072071 0.21802877 0.16044894
0.3976364 0.11378402 -0.06464793 0.08898181 -0.028450014 -0.0987314 0.27093843 0.24651256
-0.2502845 -0.43790388 0.13489184 0.5455794 -0.11533861 -0.20218956 0.20843959 0.21687604
0.30874708 -0.25148603 0.084757224 -0.083180115 -0.069616705 -0.1398277 0.50196356 0.15555914
0.1465473 0.12883782 -0.14615466 0.033711992 0.27533996 0.7703781 -0.29321182 -0.06251293
0.12448816 0.006762422 0.09329107 0.05994493 -0.45177934 -0.0879751 0.73456675 0.032717805
0.35777238 -0.27064738 0.084387645 -1.2109346 0.96139485 -0.044121023 -0.20480102 0.28881148
-0.11478061 -0.2610237 -0.116302446 0.29735902 0.0057006143 0.06578003 0.08027925 0.3870817
00000000: 4f32 bebf 99dc a03d 49ec e2bc c478 f43e
00000010: ed26 7ebd f001 973d 443c 86bc fe1d 0cbf
00000020: 9f5a 70be 3f9a 24bf a440 9d3d dfa9 36bf
00000030: 08d7 d93d 8216 1bbf cab5 6c3f 4962 df3d
00000040: e5cf e73e 273e 4d3f 3cda 703f 5dd9 c93e
00000050: 0ccd 143e c6fb b1bf dae0 8cbf c15c 5d3e
00000060: 6484 f73e 33ab 063d df27 48be 6266 e23d
00000070: 3793 673e 702e 7d3f b22f 093f 7a82 51bf
00000080: b489 2fbe df9f 7bbf 31fa 0d3e 75df 343e
00000090: 2b8b 613f a1a8 113f 7949 7cbe 547b 7dbf
000000a0: 1cc3 bbbf c8db 74bf 77f5 473d 79f8 99bf
000000b0: f039 923e 7877 80be a5a4 39bd 7398 6b3e
000000c0: 439d b1be 3d3d 393f ab95 b53d 2248 8c3e
000000d0: 20db 703b 6b39 1ebe 1c93 253e 1b28 93bf
000000e0: 2185 aebf 6fd1 023f 4cf5 713d 5951 d73e
000000f0: 4112 ad3e 794f acbf 888c b6bd cd65 cd3e
00000100: ab57 84bc 7c8b 763c 8895 de3d 4ffe 29be
00000110: ee00 6f3d 538a 893d 1045 043d cfcc f8bd
00000120: f76b 59be 3205 66be 398b fdbc 0878 43be
00000130: 7f00 92bd 5b6e 41be 740c b0bd a456 b73d
00000140: 8858 c9bc 42da 39be 156d 5bbb b06c 38be
00000150: 4608 1d3d e19b ac3d b2f6 d33d 8ea7 233e
00000160: 3256 33be f09c 8a3e f59e 13be ceea 143e
00000170: 7709 c73d 4d35 273e ab6d 263e 286b 083d
00000180: e719 7dbc 9ce5 903d 13cd 43be d8e7 943d
00000190: a183 873e 75bd 803e de97 c9bd a3e4 c3bd
000001a0: 0daf f93c 7914 37be ce6a 84bd 9c4a 893d
000001b0: ec83 d33c 2132 8e3e 31bf e4bd 5997 3b3e
000001c0: 2d1a eabe 2a4c e33e 6ff9 093c 48d3 49bd
000001d0: 0be2 83be 32f3 05be 66fc 853d 108c febd
000001e0: b595 953e 9a48 0f3d 6676 813c cba7 773e
000001f0: b2f1 b33e c561 69bf 8d51 95bd 1af0 2abc
00000200: a7e8 82be 2fed 41bd 6467 cb3d f2dc 80bd
00000210: f7c6 643e c462 65bd 6328 0e3e e7c1 78be
00000220: 5007 06bf 442b 90be 144f 08bc 5fc0 9ebe
00000230: 633e 2c3d 61e1 78be df01 9bbe 575b 893e
00000240: b269 93be 2390 82bd c1a7 f93d a5a6 993e
00000250: ed1d 5d3e 2740 98be 4575 05bf 98ff a93d
00000260: e160 a2be f1e4 1c3d 0a3e 483e 94f5 c13d
00000270: dc7f 5fbd 596c 94be 80af d4bc d3d6 dcbd
00000280: d4c8 723d 78a4 58be b51a 17bf 828b 0a3d
00000290: 5ff5 343e ac70 57bd c85c 99be 4757 233f
000002a0: 9434 b6bb 147f ee3d d03c 4ebd 0524 28be
000002b0: e49f fa3d c5f8 f03e 0d71 09bf 1b43 0f3e
000002c0: eb30 083e 9ed4 a83e b39c 36bd 4048 c83d
000002d0: 7715 41bf 344f 593e 3fe5 343c 2392 13bf
000002e0: 366e 403d a877 c33e b86e 9a3e d70b 52bf
000002f0: 70bf 58be fec4 76be ae77 a0bd 4f5e 273e
00000300: debc 143d bcd7 f13e e772 b7bd 62eb 9bbd
00000310: 04fa 7bbe c8cb b93d ef42 5f3e ba4c 243e
00000320: 0097 cb3e 9907 e93d 2266 84bd 183c b63d
00000330: 0110 e9bc b033 cabd 71b8 8a3e ca6d 7c3e
00000340: 4a25 80be f034 e0be 1621 0a3e 17ab 0b3f
00000350: a636 ecbd c80a 4fbe 3071 553e c114 5e3e
00000360: 1914 9e3e c7c2 80be 3295 ad3d 565a aabd
00000370: 3493 8ebd fe2e 0fbe af80 003f e54a 1f3e
00000380: 7f10 163e 10ee 033e 91a9 15be 9615 0a3d
00000390: 5cf9 8c3e 8037 453f dc1f 96be c706 80bd
000003a0: a6f3 fe3d 4f97 dd3b 630f bf3d d188 753d
000003b0: 9f4f e7be 4a2c b4bd 910c 3c3f 1b03 063d
000003c0: f12d b73e 4b92 8abe 6ed3 ac3d e8ff 9abf
000003d0: f91d 763f 3fb8 34bd 5cb7 51be 19df 933e
000003e0: 1912 ebbd e6a4 85be fa2f eebd 713f 983e
000003f0: 38cc ba3b aeb7 863d 7369 a43d 932f c63e

layers.2.bias f4 [64]
0.22574906 -0.12061742 0.18448827 -0.06964587 0.21457121 0.114529654 0.049606614 -0.053775214
0.30187175 -0.27695888 0.23273996 -0.15957657 -0.16402473 0.14546289 0.092126295 -0.011024849
-0.112293564 -0.2112932 0.08561216 -0.085688405 0.26410088 0.04393223 -0.121601164 -0.15272711
-0.024655534 -0.15964064 -0.20268086 0.047032602 0.2074399 0.14092076 -0.09332044 -0.16294706
0.11087831 -0.09128029 -0.17065354 -0.006581428 -0.025577787 -0.002254729 -0.1668096 0.13851894
-0.020541145 -0.17311937 -0.01158667 0.24169643 0.022121947 0.057750296 -0.28140962 0.1010266
-0.15655228 0.11175791 -0.11527946 -0.1525933 -0.13613349 -0.049457166 -0.0724272 -0.17628025
-0.13773422 -0.009496945 -0.2088762 -0.14796793 0.05254978 -0.043894913 0.054009058 -0.14697316
00000000: c32a 673e 4406 f7bd 7eea 3c3e 7ea2 8ebd
00000010: 8eb8 5b3e 868e ea3d 4e30 4b3d 6643 5cbd
00000020: ef8e 9a3e 8ecd 8dbe 6253 6e3e 0a68 23be
00000030: 19f6 27be 39f4 143e b6ac bc3d 91a1 34bc
00000040: 2bfa e5bd 3f5d 58be 6e55 af3d 677d afbd
00000050: 3b38 873e 48f2 333d 080a f9bd 7f64 1cbe
00000060: 67fa c9bc d678 23be 928b 4fbe 42a5 403d
00000070: 206b 543e 884d 103e c91e bfbd 98db 26be
00000080: 2b14 e33d 29f1 babd cdbf 2ebe 05a9 d7bb
00000090: 8288 d1bc 13c4 13bb 23d0 2abe e9d7 0d3e
000000a0: e745 a8bc 3446 31be 04d6 3dbc 457f 773e
000000b0: 1639 b53c 938b 6c3d ec14 90be 09e7 ce3d
000000c0: 3e4f 20be 55e1 e43d a317 ecbd 6b41 1cbe
000000d0: 9466 0bbe 9993 4abd b654 94bd cf82 34be
000000e0: 330a 0dbe 1399 1bbc a4e3 55be e884 17be
000000f0: 703e 573d 27cb 33bd 9a38 5d3d 2280 16be

layers.3.weight f4 [1, 64]
3.094033 0.20214163 0.2694939 -0.512489 0.7519644 0.26651597 0.07551231 0.06289514
0.4246965 -0.583682 0.77962905 -3.3596487 -0.3399504 1.0757655 -0.10027764 0.17506362
0.97996336 -1.644018 -0.19820198 -0.1256213 0.80356854 -1.2848569 -0.57613057 -0.12862933
2.2028682 -0.64848644 1.3099691 0.027394712 1.0701565 0.0979777 -0.5694824 -1.7468634
0.5345199 1.8082671 0.045735545 -0.330941 2.340719 -0.20409238 -0.37585896 1.7850012
0.1515021 -0.25278047 -0.803689 0.48979995 0.019394575 0.14351171 -0.9678105 0.071054764
0.47139668 1.5363014 -2.5573146 0.06466311 -2.480953 -0.30723962 -0.059049416 0.088016436
0.1055289 0.021467619 -0.8405762 -1.1376365 1.339386 -0.6035864 -0.1040631 -0.5269473
00000000: a304 4640 37fe 4e3e 1bfb 893e 7b32 03bf
00000010: bd80 403f c874 883e 33a6 9a3d 2bcf 803d
00000020: d271 d93e 2f6c 15bf c595 473f 7c04 57c0
00000030: fb0d aebe afb2 893f 5d5e cdbd e143 333e
00000040: e1de 7a3f 2f6f d2bf 76f5 4abe dfa2 00be
00000050: abb6 4d3f 3176 a4bf 4b7d 13bf 68b7 03be
00000060: cbfb 0c40 3503 26bf 11ad a73f e06a e03c
00000070: e3fa 883f 88a8 c83d 99c9 11bf 3899 dfbf
00000080: 4cd6 083f 4c75 e73f 3255 3b3d 1971 a9be
00000090: 57ce 1540 98fd 50be 9670 c0be eb7a e43f
000000a0: 5e23 1b3e 716c 81be 90be 4dbf 0fc7 fa3e
000000b0: 5fe1 9e3c bcf4 123e 6ec2 77bf 2985 913d
000000c0: e85a f13e 86a5 c43f 0bab 23c0 186e 843d
000000d0: efc7 1ec0 834e 9dbe cddd 71bd f641 b43d
000000e0: 891f d83d dcdc af3c 0030 57bf 139e 91bf
000000f0: 0071 ab3f a384 1abf 091f d5bd 05e6 06bf
