src/data/IDDPG-20220612-051857/weights/critic-final-4.pkl (torch, 43855 bytes, 7 tensors)

layers.0.weight f4 [64, 30]
0	0xbdacc900	-0.08436775
1	0x3deae7d9	0.11470003
2	0xbe8141d1	-0.25245526
3	0xbd175d84	-0.036954418
4	0xbdbfaab7	-0.09358733
5	0x3db8b977	0.090197496
6	0x3e1bff5f	0.15234135
7	0x3d35f6d9	0.044424865
8	0x3c9b834a	0.018983502
9	0xbe981b10	-0.29708147
10	0xbe1ddeaa	-0.15416971
11	0x3e992dfe	0.29917902
12	0x3e8ea546	0.2786047
13	0x3d4a64d1	0.049412552
14	0x3d02dd83	0.03194953
15	0xbde86ca3	-0.11348846
16	0xbe954425	-0.29153553
17	0x3d38b49b	0.045094114
18	0x3e846dfb	0.25865158
19	0x3d9033f5	0.0704116
20	0xbe28fe48	-0.1650325
21	0x3d98272d	0.07429347
22	0xbdfb1cb0	-0.12261331
23	0x3d157d4b	0.03649644
24	0x3f9943bd	1.1973797
25	0xbf3329dd	-0.69985753
26	0x3d8eb1ad	0.06967483
27	0xbeedb21b	-0.46424946
28	0x3f5685f8	0.8379817
29	0x3d1648cc	0.03669052
30	0x3e63a681	0.22231485
31	0x3e2ed24a	0.17072406
32	0xbc88b9f2	-0.016690228
33	0xbe2bbb6c	-0.16770715
34	0xbe6a69d7	-0.22891937
35	0xbe5afd4b	-0.21385686
36	0xbe1f61d1	-0.15564658
37	0x3d9c3084	0.07626441
38	0xbd6d04f2	-0.057866044
39	0xbd6eca7c	-0.058298573
40	0x3dd0df55	0.10198847
41	0x3e6f52e0	0.23371458
42	0x3e5b4b55	0.21415456
43	0x3dccc882	0.09999181
44	0x3e51ceed	0.20489092
45	0xbe134798	-0.1438278
46	0xbe1cb29b	-0.15302508
47	0x3d9c2292	0.07623781
48	0x3d783e20	0.060606122
49	0x3da55bbf	0.0807414
50	0x3e1954f1	0.14973809
51	0xbb30e46e	-0.0026991623
52	0x3dd88cd4	0.10573736
53	0x3e4e3e99	0.20141067
54	0xbf44aeb1	-0.7682906
55	0x3f30ea3a	0.691074
56	0xbed52bbb	-0.41634926
57	0x3daf128b	0.08548459
58	0x3d1c6176	0.038178883
59	0x3df0d55b	0.11759444
60	0xbea25660	-0.31706524
61	0xbca411ee	-0.02002808
62	0x3ed032cd	0.40663758
63	0xbf19936e	-0.59990585
64	0x3e4cd20d	0.20002003
65	0x3b6d3421	0.0036194401
66	0x3eb942eb	0.36183867
67	0x3e5058f9	0.2034644
68	0x3d929756	0.07157771
69	0xbebc87c7	-0.3682234
70	0x3de9f4b0	0.114236236
71	0xbe2b2b78	-0.16715801
72	0x3e56126e	0.20905468
73	0xbd5c0f08	-0.053725272
74	0x3dbd0e3b	0.0923123
75	0x3e046d6d	0.12932368
76	0xbeb87133	-0.36023864
77	0x3d001c39	0.031276915
78	0xbe0c5b4f	-0.13706706
79	0x3cbf3f8f	0.023345737
80	0xbd880ea2	-0.06643416
81	0xbec61157	-0.38685104
82	0xbeaf5964	-0.34247887
83	0x3dcdefd6	0.10055511
84	0xbfc58365	-1.5430723
85	0xbd9bd76a	-0.07609446
86	0xbe83356c	-0.25626695
87	0xbc0e5580	-0.008687377
88	0xbe11ecf4	-0.14250547
89	0xbdd71293	-0.105015896
90	0x3d0ab917	0.03386792
91	0x3e3678d3	0.17819528
92	0x3dcc58da	0.099778846
93	0x3e95059f	0.2910585
94	0x3dd3e9ab	0.10347303
95	0x385761b5	5.135099e-05
96	0xbcbf5de6	-0.023360204
97	0xbd0cd46f	-0.03438228
98	0x3dc8398d	0.09776602
99	0x3dc2e143	0.095156215
100	0xbddf246d	-0.108956195
101	0xbe296c1e	-0.1654515
102	0xbda4ecdd	-0.080529906
103	0x3cf7e69f	0.030261336
104	0xbdc6a503	-0.09699442
105	0xbe0baa1e	-0.13639113
106	0x3d0ef546	0.03490188
107	0xbe01e7f7	-0.12686144
108	0x3d87d889	0.06633098
109	0x3d900c30	0.070335746
110	0xbe1c1069	-0.15240635
111	0xbd586816	-0.05283364
112	0xbbed1d5b	-0.0072361655
113	0x3d0b327d	0.033983696
114	0x3dfe04f6	0.1240329
115	0x3f2eeb6e	0.6832799
116	0xbe9960e1	-0.29956725
117	0xbf958b54	-1.1683145
118	0x3e51fc4f	0.20506404
119	0x3dd5dc8c	0.104424566
120	0xbcb7247a	-0.02235626
121	0x3df5a884	0.119950324
122	0xbd97b7f9	-0.07408137
123	0xbd727a6f	-0.059198793
124	0x3e94241f	0.28933808
125	0x3d9a7215	0.07541291
126	0xbe5018e0	-0.20321989
127	0xbcd9e6d0	-0.026599318
128	0x3d9fa730	0.0779556
129	0x3c612da1	0.013743789
130	0xbd503ae9	-0.05083743
131	0x3cae26ee	0.021258797
132	0xbd927692	-0.07151522
133	0xbde09805	-0.109664954
134	0x3dd6f563	0.104960226
135	0xbe291b30	-0.16514277
136	0xbdd11e9f	-0.10210919
137	0x3dc938ff	0.09825324
138	0x3c86cdd6	0.016455572
139	0xbd6123f9	-0.054965947
140	0xbc826039	-0.015915023
141	0xbdf9aa80	-0.121907234
142	0x3da13e32	0.07873191
143	0x3d3e61d4	0.046480015
144	0xbf728978	-0.9474101
145	0x3edb6e91	0.42857793
146	0x3ec4a8b4	0.3840996
147	0xbdb9b280	-0.09067249
148	0x3ef36d47	0.4754431
149	0xbeb75fdc	-0.35815322
150	0xbe08f6d0	-0.13375401
151	0x3d8eb079	0.06967253
152	0x3da06a83	0.078328155
153	0xbe8dd071	-0.2769809
154	0xbd6b0d16	-0.057385527
155	0x3e0bda7b	0.13657562
156	0x3cc0be41	0.02352822
157	0x3e78a257	0.24280678
158	0x3df1646d	0.11786733
159	0xbd95c96b	-0.07313808
160	0xbd53e669	-0.051733408
161	0xbeaa6c04	-0.33285534
162	0x3dc8f73a	0.0981278
163	0xbe05062b	-0.12990634
164	0x3e1f54b1	0.15559651
165	0xbe637fc4	-0.22216707
166	0x3c8ec2b5	0.017426828
167	0x3e2629fe	0.16226956
168	0x3dfe3f9b	0.124144755
169	0xbd293f49	-0.04132012
170	0x3e067c31	0.13133313
171	0x3e795a07	0.24350749
172	0x3dd7558c	0.10514364
173	0x3d67d504	0.056599632
174	0xbf9fb794	-1.2477899
175	0x3f0e6f98	0.5563903
176	0x3d93f5a7	0.07224589
177	0xbefb8047	-0.49121305
178	0xbebb604f	-0.36596915
179	0xbe3c5ed6	-0.18395552
180	0xbbbcfa47	-0.00576714
181	0xbe1a885c	-0.1509108
182	0xbe0fb916	-0.14035448
183	0xbe109538	-0.14119422
184	0xbe1c80e0	-0.15283537
185	0xbe1b4e8b	-0.1516668
186	0x3bd2958f	0.00642652
187	0xbc9c9709	-0.019114988
188	0xbe3e1fe1	-0.18566848
189	0xbe0e57b9	-0.13900651
190	0xbddff3c8	-0.109351695
191	0x3d79729d	0.06090032
192	0x3c362ed4	0.011119563
193	0x3c073eda	0.008254731
194	0xbd92c771	-0.07166947
195	0xbd1b0263	-0.037844073
196	0x3d024f2f	0.031813797
197	0x3daf85a9	0.085704155
198	0x3d7c4d40	0.06159711
199	0xbda8ffb7	-0.08251899
200	0xbe5fa1d5	-0.21839078
201	0xbe746a4a	-0.23868671
202	0xbdfc3533	-0.123148344
203	0xbe4520e5	-0.1925083
204	0x3bf3efdb	0.0074443645
205	0x3dec0b29	0.11525566
206	0xbe377558	-0.17915857
207	0x3e134aca	0.14383999
208	0x3d4bb406	0.04973223
209	0x3dbf897b	0.09352394
210	0xbe9cca6d	-0.3062319
211	0xbef4714f	-0.47742698
212	0xbbcf8390	-0.006332822
213	0xbd9343aa	-0.0719064
214	0x3e05ae82	0.1305485
215	0x3e552cef	0.20817922
216	0x3e64414d	0.22290535
217	0xbdda9c87	-0.106743865
218	0xbed51e44	-0.41624653
219	0x3cfa0094	0.030517854
220	0x3d0ffbad	0.035152126
221	0x3d824480	0.063607216
222	0xbe19df94	-0.15026695
223	0x3e3fe17f	0.18738364
224	0x3dec4c98	0.115380466
225	0xbd7125b0	-0.058873832
226	0x3de10d77	0.10988896
227	0x3cc94aff	0.024571894
228	0xbddb6441	-0.10712481
229	0xbec5f5f7	-0.3866422
230	0xbe6b2445	-0.22963054
231	0xbe6850be	-0.2268705
232	0x3e85250f	0.26004836
233	0x3e09bc12	0.1345065
234	0xbf5f00b8	-0.8711047
235	0x3e801863	0.25018606
236	0x3e8f336f	0.27968928
237	0xbdfc37f0	-0.12315357
238	0xbec65088	-0.38733315
239	0xbe3656c4	-0.17806536
240	0x3d49877c	0.049201474
241	0x3e349e2f	0.17638467
242	0x3d9f50f4	0.077791125
243	0x3da9df53	0.08294549
244	0xbe044700	-0.1291771
245	0x3b83f7a7	0.004027325
246	0x3df16ccc	0.117883295
247	0x3d969ce8	0.07354146
248	0xbe938d90	-0.2881894
249	0xbd014f3e	-0.031569712
250	0xbd8cd859	-0.068772025
251	0xbbaf5661	-0.0053508733
252	0x3d2d3e9b	0.042296033
253	0x3e6ee04e	0.23327753
254	0x3dd533a2	0.10410239
255	0x3e084cab	0.13310497

layers.0.bias f4 [64]
0	0xbe88a1de	-0.26685995
1	0x3ebaed23	0.36509046
2	0xbd6f1976	-0.05837389
3	0xbe830087	-0.2558634
4	0xbe5b374e	-0.21407816
5	0x3e408208	0.18799603
6	0xbe0deada	-0.1385912
7	0x3e021c16	0.12706026
8	0xbdafb4a1	-0.08579374
9	0x3dbda146	0.09259276
10	0xbd96424c	-0.07336864
11	0xbe697115	-0.22797044
12	0xbe324e71	-0.17412736
13	0xbebed27e	-0.37269968
14	0xbe93e0c6	-0.28882426
15	0xbe168907	-0.1470071
16	0x3d2a9dc3	0.04165436
17	0x3cda6b32	0.026662443
18	0x3e0e044c	0.13868827
19	0xbde62bca	-0.11238821
20	0x3e5d8894	0.21634132
21	0x3e395640	0.18099308
22	0x3e7e0faa	0.24810663
23	0xbdd588c1	-0.10426474
24	0xbe3bffaf	-0.18359254
25	0x3b72e3b4	0.0037061991
26	0x3e34b8c0	0.17648602
27	0x3d2c7a7b	0.042108994
28	0x3c8e9f86	0.017410051
29	0xbe92a99f	-0.28645036
30	0xbe005a5d	-0.12534471
31	0xbe325440	-0.17414951
32	0x3e813c66	0.25241393
33	0x3e4cd7b1	0.20004155
34	0xbd5ae547	-0.053441312
35	0x3dc888b6	0.097917005
36	0xbcbc51e2	-0.022988264
37	0x3e1722d4	0.1475938
38	0xbd86eace	-0.06587754
39	0xbd210334	-0.039309695
40	0xbe0b2b26	-0.13590679
41	0xbecd0111	-0.40039876
42	0x3ce840d9	0.028351234
43	0x3ce80e25	0.028327057
44	0x3e5f239e	0.2179093
45	0xbe03773c	-0.12838453
46	0x3d932eb9	0.07186646
47	0xbc9b37fb	-0.018947592
48	0xbd885112	-0.06656088
49	0x3e85b0d5	0.26111475
50	0xbd7a6865	-0.061134715
51	0x3ccfaa44	0.025349744
52	0x3e667e98	0.22509229
53	0x3dd66ae4	0.104696065
54	0x3eb45ee3	0.35228643
55	0xbdaeedd4	-0.08541456
56	0x3e57a6db	0.21059744
57	0x3ea53b79	0.32271937
58	0xbd1be18f	-0.038056906
59	0xbe8f7931	-0.2802215
60	0xbe82d1eb	-0.2555078
61	0xbe0c844d	-0.13722344
62	0x3db1cb3c	0.08681342
63	0x3c8d1731	0.017222973

layers.1.weight f4 [64, 64]
0	0xbd92020c	-0.07129297
1	0xbf249e73	-0.64304274
2	0xbdc45367	-0.0958622
3	0xbc3d65c7	-0.01155991
4	0x3c40b38f	0.01176156
5	0x3cc88620	0.024478018
6	0xbcdfdea7	-0.027327849
7	0xbde26e4c	-0.11056194
8	0x3cdd260b	0.02699568
9	0x3e25aae0	0.16178465
10	0xbdbbb153	-0.09164681
11	0xbbbf5b49	-0.0058397395
12	0xbd171dc7	-0.036893632
13	0x3f00b685	0.502785
14	0x3e0e1caf	0.1387813
15	0xbea8c8d0	-0.32965708
16	0x3f87385c	1.0564075
17	0xbd5cabc1	-0.053874735
18	0x3c9af720	0.018916667
19	0xbec9da55	-0.39424387
20	0x3ea071d8	0.31336856
21	0x3f6d7bd0	0.9276705
22	0xbddb3034	-0.107025534
23	0x3d59c0a5	0.053162236
24	0x3e59d160	0.21271276
25	0x3d05addd	0.032636512
26	0x3e6b2dac	0.22966641
27	0xbea00c81	-0.3125954
28	0x3ce2d4f3	0.027689433
29	0x3e11da88	0.1424352
30	0x3ea7c9e1	0.3277121
31	0x3d07efb2	0.033187576
32	0x3e2b95af	0.16756319
33	0xbeea098b	-0.45710406
34	0x3f14334d	0.5789078
35	0x3e16a0ac	0.14709729
36	0xbf1e2429	-0.61773926
37	0x3e7efb37	0.24900518
38	0xbd0cf3fb	-0.034412365
39	0xbed608cc	-0.41803586
40	0xbd438e4b	-0.047743123
41	0x3c9d52f3	0.019204592
42	0x3e285d29	0.16441788
43	0x3e22505e	0.1585097
44	0xbeb5a87a	-0.354801
45	0x3eaa8969	0.3330796
46	0x3e27d800	0.16390991
47	0x3efc40aa	0.49268085
48	0xbeee3864	-0.46527398
49	0x3e4b375b	0.19845335
50	0xbd360bfd	-0.044445027
51	0x3d1d9be1	0.038478736
52	0xbebde00e	-0.37085003
53	0xbe60b8ce	-0.21945497
54	0xbe0119db	-0.1260752
55	0x3eb06106	0.34449023
56	0xbcf7b144	-0.030235894
57	0xbd4a1280	-0.04933405
58	0x3d6b7543	0.057484876
59	0x3d9020bf	0.07037496
60	0xbe91efc3	-0.28503236
61	0xbcbd6916	-0.023121398
62	0x3f2a5454	0.66534925
63	0xbd75c16c	-0.059998915
64	0x3dfed70c	0.12443361
65	0xbe886361	-0.2663832
66	0xbeabde16	-0.33567876
67	0x3e816883	0.2527505
68	0x3d0ebe91	0.034849707
69	0xbc6f84ed	-0.014619094
70	0xbc90e205	-0.0176859
71	0x3e644dff	0.22295378
72	0x3e1fbc5e	0.155992
73	0x3f11c1c5	0.56936294
74	0x3eac319a	0.33631593
75	0xbe554e2b	-0.208306
76	0x3e545d1b	0.20738642
77	0x3f333635	0.7000459
78	0xbe1e8e92	-0.15484074
79	0x3d2f5e26	0.042814396
80	0xbfdaec34	-1.7103333
81	0x3e354f09	0.17705931
82	0x3b730580	0.0037082136
83	0xbeba4db2	-0.36387402
84	0xbf25973b	-0.64683884
85	0x3fe5c278	1.7949972
86	0x3e169679	0.14705838
87	0x3d10579f	0.035239812
88	0x3e1459b5	0.14487346
89	0x3d264b58	0.040599197
90	0x3c3f7deb	0.011687736
91	0x3cb8fd86	0.022581827
92	0xbe75239c	-0.23939365
93	0x3dac9275	0.08426372
94	0xbbffc670	-0.007805638
95	0x3e1a64ed	0.15077563
96	0xbdab7ceb	-0.083734356
97	0x3e764496	0.24049601
98	0x3f16bb76	0.5887979
99	0xbdece2a7	-0.11566668
100	0xbf13819c	-0.57619643
101	0xbe059e38	-0.13048637
102	0xbd9f403a	-0.07775922
103	0xbfc86ee9	-1.5658847
104	0x3d8bd917	0.06828516
105	0x3ee79a70	0.45235014
106	0xbd202795	-0.03910025
107	0xbb93b2dc	-0.0045074057
108	0xbeb72024	-0.3576671
109	0x3cebf8bb	0.028805127
110	0xbe1301bc	-0.1435613
111	0x3eec3c18	0.46139598
112	0x3e8a838d	0.2705349
113	0xbe0c5858	-0.13705575
114	0xbc756d04	-0.014979605
115	0x3dace559	0.08442182
116	0x3d9b2808	0.07575995
117	0xbe32df1a	-0.17467919
118	0xbe51ccf4	-0.2048834
119	0x3de31fdc	0.11090061
120	0xbeef54ab	-0.46744284
121	0xb9ce08f5	-0.00039298055
122	0xbdff9ac2	-0.124806896
123	0xbd9f5350	-0.077795625
124	0x3e6c9c07	0.23106395
125	0x3ec614bf	0.38687703
126	0xbed85a0d	-0.42256203
127	0x3ca9085f	0.020633874
128	0xbdf1f378	-0.11814016
129	0x3dac7b4a	0.08421953
130	0xbd4ab76a	-0.049491324
131	0xbdd10901	-0.102067955
132	0xbcac06e9	-0.020999389
133	0xbe0a0327	-0.13477765
134	0xbd40057e	-0.046880238
135	0xbf28d21e	-0.65945613
136	0x3e14bb5e	0.145246
137	0x3e51d40d	0.20491047
138	0x3dda66ed	0.10664163
139	0xbdbf454b	-0.093393885
140	0x3cb06a7e	0.021535154
141	0x3f142c85	0.5788043
142	0x3e65e8b8	0.22452056
143	0x3f51166b	0.8167483
144	0xbf72d723	-0.9485952
145	0xba94aa39	-0.0011342234
146	0xbda82fc0	-0.082122326
147	0xbe1cfe35	-0.15331347
148	0xbeabb64f	-0.33537528
149	0x3f467711	0.7752543
150	0xbe1e8138	-0.1547898
151	0xbd5bf8b6	-0.053703986
152	0xbed5eab4	-0.41780627
153	0xbd1a9914	-0.037743643
154	0xbea4337e	-0.32070535
155	0xbdb5be96	-0.08874242
156	0xbe1e256c	-0.15443963
157	0x3cc6e44b	0.02427878
158	0x3e5b498c	0.21414775
159	0x3d4b88e2	0.04969109
160	0x3e69eda5	0.2284456
161	0xbeb6996f	-0.35663936
162	0x3de21562	0.11039235
163	0xbe4de300	-0.20106125
164	0x3f338cbf	0.70136636
165	0xbcfd1e7d	-0.030898327
166	0xbe0fd008	-0.14044201
167	0x3f0564bd	0.5210684
168	0x3e0303b6	0.12794384
169	0x3e5bd004	0.2146607
170	0x3d960543	0.07325222
171	0xbc97d37e	-0.018533465
172	0x3e2e378d	0.17013378
173	0xbea0a416	-0.31375188
174	0xbca0e6ec	-0.019641362
175	0x3e774c48	0.24150193
176	0x3dea2f03	0.11434748
177	0x3e4a4921	0.19754459
178	0x3da28781	0.079360016
179	0xbd8981bd	-0.06714199
180	0x3e4d764c	0.20064658
181	0x3d8b2996	0.06795041
182	0x3cdfc1cc	0.02731409
183	0xbe5867c6	-0.21133336
184	0x3ee71e37	0.4514024
185	0x3e047cce	0.12938234
186	0x3bc56e1c	0.006025089
187	0xbd085efd	-0.033293713
188	0x3f198470	0.5996771
189	0x3e86a4e7	0.26297686
190	0xbc8518d6	-0.016247194
191	0xbcff224b	-0.031144282
192	0xbf1a0f89	-0.60179955
193	0x3e73f7cd	0.23824997
194	0x3e8bf49d	0.27335063
195	0xbf2bfda0	-0.67183876
196	0x3b8554d6	0.004068951
197	0x3dc7aa43	0.09749272
198	0x3d7bcaf7	0.06147286
199	0xbf73756d	-0.9510105
200	0x3cb07fd5	0.02154533
201	0xbeec3fcf	-0.46142432
202	0x3ce04e36	0.027381044
203	0xbe4db75c	-0.20089477
204	0x3dc58bba	0.09645791
205	0xbf152595	-0.5826047
206	0x3e88579c	0.2662934
207	0x3f0b0dc4	0.5431788
208	0x3e00f822	0.12594655
209	0xbb17a835	-0.002314103
210	0xbcf921c8	-0.030411616
211	0xbcdec058	-0.027191326
212	0xbe1ad708	-0.1512109
213	0x3f54fdad	0.8319958
214	0x3ecdc7a0	0.40191364
215	0xbe83c7a4	-0.2573825
216	0xbda28422	-0.079353586
217	0xbcfd1328	-0.030892923
218	0xbf918f4c	-1.1371856
219	0x3d3f9864	0.04677619
220	0xbfda0b1f	-1.7034644
221	0x3d46d1fd	0.048540104
222	0x3ded6a26	0.11592512
223	0x3bbfdb60	0.005855009
224	0x3cb73368	0.02236338
225	0xbd7d990a	-0.061913528
226	0xbe948469	-0.2900727
227	0xbdaa1387	-0.08304506
228	0x3f2e550d	0.6809853
229	0xbdb2513d	-0.08706901
230	0x3cf15450	0.029459149
231	0x3edb45cf	0.42826697
232	0xbfb97e80	-1.449173
233	0xbed63030	-0.4183364
234	0xbeb1f0d1	-0.3475404
235	0x3e14521a	0.14484444
236	0xbdb3d85c	-0.08781502
237	0xbd818a72	-0.063252345
238	0xbd9aad28	-0.07552558
239	0xbe344271	-0.1760347
240	0xbe8211c5	-0.25404182
241	0xbcc4c7e7	-0.024021102
242	0xbd89083a	-0.06691022
243	0x3dd34e5f	0.103176825
244	0xbdee0cc9	-0.11623532
245	0x3e65dc73	0.22447376
246	0xbdf645f8	-0.12025064
247	0xbd8c2398	-0.068427265
248	0xbe074e18	-0.13213384
249	0x3d5f48e0	0.05451286
250	0xbcf4cdea	-0.029883344
251	0xbd34b6fd	-0.044119824
252	0x3ead574b	0.33855662
253	0xbd857298	-0.06515998
254	0xbf5da473	-0.86579055
255	0xbe0a22cb	-0.13489835

layers.1.bias f4 [64]
0	0xbe9fef32	-0.3123718
1	0xbebd48dd	-0.36969653
2	0x3e23e1aa	0.16004053
3	0x3af8bb82	0.001897678
4	0x3e04efc7	0.12982093
5	0x3e0c0cf1	0.13676812
6	0x3be5eee6	0.0070170043
7	0x3e4c695f	0.19962071
8	0xbe5700a1	-0.20996334
9	0x3e68b55a	0.2272543
10	0xbe8d13a4	-0.27554047
11	0xbdf79fdd	-0.120910384
12	0xbdf8ee4a	-0.12154825
13	0xbdf5e6ae	-0.12006889
14	0x3d5bc8d3	0.053658318
15	0xbddb5ac9	-0.10710675
16	0x3e97043e	0.29495424
17	0xbe11d440	-0.14241123
18	0x3ea88f47	0.32921812
19	0xba8eed83	-0.0010904524
20	0xbdbaf8f4	-0.09129515
21	0xbe0c19d9	-0.13681735
22	0x3dccd142	0.1000085
23	0x3e8d1332	0.27553707
24	0xbd9b5bc6	-0.07585864
25	0xbea4b822	-0.32171732
26	0x3d71df62	0.059050925
27	0xbdb64bf9	-0.089012094
28	0x3ebf4468	0.37356877
29	0x3e7018db	0.23446982
30	0x3e72d06c	0.23712319
31	0xbe1dc7da	-0.15408269
32	0x3eb8ab30	0.36068106
33	0x3e8dd188	0.27698922
34	0xbda935bf	-0.082622044
35	0xbe55eef0	-0.20891929
36	0xbc8306c2	-0.015994433
37	0x3e5eaac8	0.21744835
38	0xbeda42e3	-0.42629156
39	0xbdf4756f	-0.11936461
40	0xbe9d85c4	-0.30766118
41	0xbea497b5	-0.32146993
42	0xbdda3a55	-0.10655657
43	0xbe01292e	-0.12613365
44	0xbdf7892d	-0.12086711
45	0xbe01ad29	-0.12663712
46	0xbe5a7b66	-0.21336135
47	0xbe27a5c9	-0.16371836
48	0xbdc7d07e	-0.097565636
49	0xbdf526e1	-0.11970306
50	0x3e5d7daa	0.21629968
51	0x3ebc337a	0.36758024
52	0xbe8701e4	-0.2636863
53	0xbd438915	-0.047738153
54	0xbea78779	-0.32720545
55	0xbc94739b	-0.018121531
56	0xbe108cea	-0.14116254
57	0xba0c5756	-0.000535359
58	0xbeb66d9d	-0.35630503
59	0xbd87df8c	-0.06634435
60	0xbeea6e46	-0.45787257
61	0xbe031d69	-0.12804188
62	0xbe953cad	-0.29147854
63	0xbdca3f2d	-0.09875331

layers.2.weight f4 [64, 64]
0	0xbf39293f	-0.7232856
1	0xbf8828c5	-1.0637442
2	0x3e80d90d	0.25165597
3	0x3f0269f2	0.5094291
4	0x3eb83e7f	0.3598518
5	0x3eaf038f	0.34182402
6	0xbe4f11ad	-0.20221587
7	0x3e4084e7	0.18800698
8	0xbe9b5b7d	-0.30343238
9	0xbda96e32	-0.08272971
10	0x3f382b51	0.71941096
11	0xbf16d4f7	-0.5891871
12	0x3c70986c	0.014684778
13	0xbe285d2b	-0.16441791
14	0xbe3bc017	-0.18334995
15	0xbdd2f324	-0.10300282
16	0x3f695f27	0.91160816
17	0xbeaef821	-0.34173682
18	0x3e303095	0.17206033
19	0xbdc80c4a	-0.09767969
20	0xbf33301a	-0.6999527
21	0x3eacfaf0	0.337852
22	0x3f30044e	0.6875657
23	0x3db65a6f	0.089039676
24	0xbec03ccc	-0.37546384
25	0x3e37a1de	0.17932841
26	0xbec6fda6	-0.38865393
27	0xbf8fcf90	-1.1235218
28	0xbea5dab7	-0.3239343
29	0x3d60f97e	0.054925434
30	0x3e54ec17	0.20793186
31	0x3f28bee6	0.6591629
32	0x3e9bb5a5	0.3041202
33	0x3f81a443	1.0128254
34	0x3ed47380	0.4149437
35	0x3d3d2ef9	0.046187375
36	0x3dfaf9e9	0.12254698
37	0xbecf3531	-0.4047027
38	0xbe027836	-0.1274117
39	0xbdb1e8c1	-0.086869724
40	0x3df02384	0.11725524
41	0xba9cd87a	-0.001196637
42	0xbf0dab17	-0.5533919
43	0x3ece411b	0.40284047
44	0xbcdf34f3	-0.027246928
45	0xbd4debeb	-0.050273817
46	0xbf1f347f	-0.6218948
47	0xbf9e4929	-1.2366077
48	0xbf4dc8b5	-0.8038438
49	0xbcacd55e	-0.021097835
50	0x3e04559e	0.12923285
51	0xbd82595a	-0.06364699
52	0xbe2117bb	-0.15731709
53	0xbf923fb7	-1.1425694
54	0x3e7be199	0.24597777
55	0x3f6672a1	0.9001866
56	0xbe882f04	-0.2659837
57	0xbd61c5f8	-0.05512044
58	0x3ebda44b	0.37039408
59	0xbd56d054	-0.05244477
60	0x3dc5b773	0.09654131
61	0xbe972c77	-0.2952611
62	0xbe03050b	-0.12794892
63	0x3e7f984c	0.2496044
64	0xbdeee756	-0.116652176
65	0xbe04c248	-0.12964737
66	0xbd3173ec	-0.043323442
67	0x3e227765	0.15865858
68	0x3ddb392a	0.107042626
69	0x3eabccab	0.33554587
70	0x3dcb363b	0.09922453
71	0x3c5c9fe4	0.013465855
72	0x3e9b8f19	0.30382612
73	0x3d38baa1	0.04509986
74	0x3da3293b	0.079668485
75	0x3e7946b1	0.24343373
76	0x3dd8cbb4	0.10585728
77	0xbda0db42	-0.0785432
78	0xbea88c58	-0.32919574
79	0xbf806a77	-1.003249
80	0xbe58dd3a	-0.21178141
81	0x3e340bcf	0.1758263
82	0xbdf53a75	-0.119740404
83	0x3d9f6d1d	0.077844836
84	0x3e050229	0.12989105
85	0xbd9bc44c	-0.076058
86	0xbf080fe7	-0.53149265
87	0xbf24a578	-0.64314985
88	0x3d134790	0.03595692
89	0x3e7a7d1b	0.24461786
90	0xbd814127	-0.06311255
91	0xbd991b9a	-0.07475968
92	0xbd8d6503	-0.06904032
93	0x3dcd9e36	0.10039942
94	0xbdd922d0	-0.10602343
95	0x3d90edc0	0.07076597
96	0xbda40109	-0.0800801
97	0x3e4bf205	0.19916542
98	0xbcec5f6e	-0.028854098
99	0x3d7a698d	0.061135817
100	0x3dbca3f0	0.09210956
101	0xbe08dca3	-0.13365416
102	0x3d23e1ec	0.040010378
103	0xbdae13bb	-0.08499857
104	0x3da16bd9	0.078818984
105	0x3e213d04	0.15745932
106	0x3e791426	0.24324092
107	0x3f422ca6	0.7584938
108	0x3cfef1ed	0.031121219
109	0x3dc607b2	0.096694365
110	0x3e9be4de	0.3044805
111	0x3f8179a7	1.011525
112	0x3ddf496a	0.109026745
113	0x3f29fa32	0.6639739
114	0xbeab5b38	-0.33468032
115	0xbdfe86e0	-0.12428069
116	0x3e856890	0.26056337
117	0xbd411441	-0.047138456
118	0x3ccd4a52	0.025059853
119	0xbf052339	-0.5200687
120	0x3f325c5d	0.69672185
121	0xbcea861b	-0.0286284
122	0x3ed966af	0.42461154
123	0xbd8b2920	-0.06794953
124	0x3db04659	0.08607168
125	0x3eb934cb	0.3617309
126	0x3dd0c172	0.10193147
127	0x3e01043d	0.12599273
128	0x3e08a242	0.13343146
129	0x3cc248be	0.023716327
130	0x3dcc9b44	0.09990552
131	0xbf0d791e	-0.55262935
132	0xbe07a345	-0.13245876
133	0x3dd97d10	0.10619557
134	0x3e2613b2	0.1621845
135	0x3e935421	0.28775123
136	0x3e656fed	0.22405978
137	0x3e13efbe	0.14446923
138	0x3eb6e172	0.35718876
139	0x3e1567c8	0.1459037
140	0xbde29e15	-0.11065308
141	0x3cb41e8a	0.021987218
142	0xbdaf037f	-0.08545589
143	0xbf359e99	-0.70945126
144	0xbf2f54e7	-0.68488926
145	0xbe0879ef	-0.13327764
146	0xbdc14f85	-0.09438995
147	0xbe9c5bdf	-0.30538842
148	0x3e5ed688	0.21761525
149	0xbd5b822a	-0.05359093
150	0x3efdf046	0.49597377
151	0xbeee80cc	-0.4658264
152	0x3d148d23	0.03626741
153	0x3d87b812	0.066269055
154	0x3e4bfb20	0.19920015
155	0xbe8acfd7	-0.27111694
156	0xbcab1bed	-0.02088734
157	0x3a5a7e89	0.0008334895
158	0xbdb19854	-0.086716324
159	0x3ec117ae	0.3771338
160	0xbe203596	-0.15645441
161	0xbf704115	-0.9384931
162	0x3dea27e2	0.11433388
163	0x3ee5bc1b	0.44870076
164	0x3e8a0a62	0.26961046
165	0xbed4990f	-0.41523024
166	0x3e84166c	0.25798357
167	0xbcef33dd	-0.029199535
168	0x3dee89ec	0.116474
169	0xbd10e8fd	-0.035378445
170	0x3eb28bc5	0.3487226
171	0x3f19d242	0.6008645
172	0xbe3e4017	-0.18579136
173	0x3daf14a5	0.085488595
174	0x3dccf09c	0.1000683
175	0x3f8e962b	1.1139578
176	0x3d6e4c31	0.05817813
177	0x3ed94b5b	0.42440304
178	0x3eab230d	0.3342518
179	0x3e08137f	0.13288687
180	0x3e5d8c58	0.21635568
181	0x3d8f2b5f	0.06990694
182	0x3e8c1902	0.2736283
183	0xbf804c50	-1.0023289
184	0x3c8d26ab	0.017230352
185	0xbd456e3f	-0.048200842
186	0x3e40c504	0.18825155
187	0x3cbca6e1	0.023028793
188	0x3dc9a2b0	0.09845483
189	0x3d1c519b	0.038163763
190	0xbe86335f	-0.26211068
191	0xbe3448e5	-0.17605932
192	0x3e3ee297	0.18641125
193	0x3b36ae41	0.002787486
194	0xbcad9a27	-0.02119167
195	0xbf1662b8	-0.5874438
196	0xbe207790	-0.1567061
197	0x3ea28e47	0.31749174
198	0x3e6aa68c	0.22915095
199	0x3e202701	0.15639879
200	0x3e875c4e	0.2643761
201	0x3dc27cec	0.09496483
202	0x3eb37050	0.35046625
203	0x3e866b6c	0.2625383
204	0xbdf74281	-0.120732315
205	0xbde1131e	-0.109899744
206	0x3c9d01a3	0.01916582
207	0xbe989d69	-0.29807594
208	0xbd333466	-0.043751143
209	0xbddd704a	-0.10812433
210	0xbe12b167	-0.14325486
211	0xbd9020c6	-0.07037501
212	0x3e4fcae5	0.20292242
213	0x398ec685	0.0002723226
214	0x3f130a13	0.5743725
215	0xbeefd03d	-0.4683856
216	0xbc952449	-0.018205779
217	0x3ca133cb	0.019678017
218	0x3d04c299	0.032412145
219	0xbe7c3f69	-0.24633564
220	0xbdd4e2e8	-0.103948414
221	0x3e329fe1	0.17443801
222	0x3dae785f	0.08519053
223	0x3d9da617	0.07697695
224	0xbe82b2ba	-0.25526983
225	0xbf268d04	-0.6505892
226	0x3e4bd462	0.19905236
227	0x3ed92da7	0.42417642
228	0xbd14ada0	-0.036298394
229	0xbeaf09bd	-0.34187117
230	0x3e732fc4	0.2374869
231	0xbd065bb5	-0.032802302
232	0x3c213a7f	0.009840607
233	0xbdbefec9	-0.0932594
234	0x3dee3c87	0.116326384
235	0x3f1ffb4e	0.62492836
236	0xbdabe67a	-0.08393569
237	0x3e803fca	0.25048667
238	0x3cf4e431	0.029893966
239	0x3f5f8bba	0.8732258
240	0x3e8e5210	0.27796984
241	0x3e94710f	0.28992507
242	0x3e0294b1	0.12752034
243	0xbde513d3	-0.11185422
244	0x3dcfdf72	0.10150041
245	0x3d3bf66e	0.04588931
246	0x3e8868b4	0.26642382
247	0xbf175457	-0.5911307
248	0x3de8766b	0.113507114
249	0x3d214b66	0.039378546
250	0x3dd9a62f	0.106274
251	0x3d045a62	0.03231276
252	0x3e6bc8cd	0.23025818
253	0x3abb74be	0.001430176
254	0xbdd46071	-0.10369957
255	0xbdf8dca4	-0.12151459

layers.2.bias f4 [64]
0	0x3e388ad2	0.18021706
1	0xbeb5eacb	-0.35530695
2	0xbed107a8	-0.40826154
3	0xbe3615c5	-0.17781742
4	0x3ee685a8	0.45023847
5	0xbdf08b5e	-0.11745332
6	0x3ec61b50	0.38692713
7	0xbe9bff4e	-0.3046822
8	0xbe506fe9	-0.2035519
9	0x3ed1607b	0.4089392
10	0xbc0c129f	-0.0085493615
11	0x3f06ccf0	0.5265646
12	0xbe1db9bc	-0.15402883
13	0x3e908c1e	0.282319
14	0x3e7f419d	0.24927373
15	0xbf03074c	-0.5118301
16	0xbe98d17b	-0.2984732
17	0xbea3defb	-0.32006058
18	0xbd74edc2	-0.059797056
19	0xbe6fe5fa	-0.23427573
20	0x3e964675	0.2935063
21	0x3f0ee3bd	0.5581625
22	0x3d17ee4e	0.0370925
23	0xbe0695af	-0.13143037
24	0x3c8f0de1	0.017462673
25	0xbe8d16c5	-0.27556434
26	0x3e33b933	0.17551117
27	0xbef4240c	-0.47683752
28	0xbe669ba9	-0.22520317
29	0x3e6847a6	0.22683582
30	0x3e52acfb	0.205738
31	0xbe84e49b	-0.25955662
32	0x3cbde3e5	0.023179958
33	0xbebf1786	-0.37322634
34	0x3ec10f4f	0.37706992
35	0xbde8ac0b	-0.113609396
36	0x3e70a3c3	0.2349997
37	0x3e6a18c0	0.22861004
38	0x3b2fce0e	0.00268257
39	0xbed97e01	-0.42478946
40	0x3eb9a91f	0.36261842
41	0x3bc20cc6	0.005921933
42	0x3d9da357	0.0769717
43	0x3ebba953	0.36652622
44	0xbe6d83af	-0.23194765
45	0x3cf0bc69	0.029386716
46	0xbe995388	-0.29946542
47	0xbe986011	-0.29760793
48	0xbe361a8b	-0.17783563
49	0xbeb479ea	-0.35249263
50	0x3e82ffba	0.2558573
51	0xbe0fadb5	-0.14031108
52	0xbecddbb9	-0.40206698
53	0xbe68f412	-0.22749355
54	0xbeac178d	-0.33611718
55	0xbe77623d	-0.24158569
56	0xbedfcd6f	-0.4371142
57	0xbeaff05f	-0.34363076
58	0x3ed237cd	0.41058198
59	0xbe298223	-0.1655355
60	0xbd3e7961	-0.046502475
61	0xbeaa562a	-0.33268863
62	0xbe06fa2c	-0.1318137
63	0xbe9ab89c	-0.3021897

layers.3.weight f4 [1, 64]
0	0x3fbd560d	1.4791886
1	0xbe56a7c2	-0.20962432
2	0xbec6b0c0	-0.38806725
3	0xbe7bbf9b	-0.2458481
4	0x3f04a710	0.5181742
5	0x3c175602	0.009236814
6	0x3fd7b100	1.6850891
7	0xbec57671	-0.38566926
8	0xbee2dadc	-0.443076
9	0x3e8225e3	0.2541953
10	0xbba4bbe9	-0.0050272834
11	0x3f12341f	0.5711078
12	0x3d8a7d0c	0.06762132
13	0x3ea300e8	0.3183663
14	0x4017f824	2.3745203
15	0xbed4918a	-0.41517287
16	0xbdf67ab1	-0.1203512
17	0xbe901d9f	-0.281476
18	0x3fee547f	1.8619536
19	0xbe84c503	-0.25931558
20	0x3e9a2342	0.30105025
21	0x3edfb54e	0.43693012
22	0xbd41fc19	-0.04735956
23	0x3fcb8db3	1.5902618
24	0x3da30ae9	0.07961065
25	0xbf7f45ef	-0.99716085
26	0x3f927eee	1.1444986
27	0xbec8456b	-0.39115462
28	0xbf6204e9	-0.8828874
29	0x3fa2e834	1.2727113
30	0x3ead1df0	0.33811903
31	0xbf15a690	-0.5845728
32	0xc0006b3a	-2.0065446
33	0xbeba556e	-0.36393303
34	0x3e9fe29d	0.3122758
35	0xbe49351e	-0.19649169
36	0x3fdb186f	1.7116832
37	0x3f9cb10d	1.2241532
38	0x4011e449	2.2795584
39	0xbe9023e5	-0.28152385
40	0x3ec96445	0.39334312
41	0x3a5fc587	0.0008536209
42	0x3fb6b05a	1.4272568
43	0x3fe01e6b	1.7509283
44	0xbe3d9b1e	-0.18516204
45	0xbda8045b	-0.08203956
46	0xbff724bb	-1.9308084
47	0xbfa02d25	-1.2513777
48	0xbf8077c8	-1.0036554
49	0xbee587f3	-0.44830284
50	0x3e41828d	0.18897457
51	0x3caae397	0.020860476
52	0xbf17cc68	-0.59296274
53	0xbe84967a	-0.25896055
54	0xbdad679e	-0.08467029
55	0xbdf718d9	-0.12065286
56	0xbec35513	-0.38150844
57	0xbfbcdeca	-1.475549
58	0x3e67bb1f	0.22629975
59	0x3d4c7052	0.049911804
60	0x3cdae9a4	0.026722737
61	0xbe37d0e0	-0.17950773
62	0x3d5d34e7	0.05400553
63	0xbe755b7e	-0.23960683
