src/data/SEDDPG-20220614-085821/weights/actor-final-3.pkl (torch, 44167 bytes, 8 tensors)

layers.0.weight f4 [64, 28]
0	0xbe097489	-0.13423361
1	0xbd7845cf	-0.06061345
2	0x3c7f37c8	0.015577264
3	0x3e1fd5b9	0.15608872
4	0x3d118ff5	0.03553768
5	0xbe06108c	-0.1309225
6	0x3d983f17	0.074339084
7	0x3cc1a8c3	0.023640042
8	0x3d02e691	0.031958167
9	0x3e10c54d	0.14137764
10	0x3c9861fc	0.01860141
11	0x3cc2cf8b	0.023780605
12	0x3d38fa62	0.04516066
13	0x3e1862cd	0.1488144
14	0xbe402c6e	-0.18766949
15	0x3d93b15a	0.072115615
16	0x3e01c9b3	0.12674598
17	0x3dc33fa9	0.095336266
18	0xbdf84a9f	-0.12123608
19	0xbdd21444	-0.102577716
20	0xbd7c86b0	-0.061651886
21	0xbdc3df95	-0.09564129
22	0xbe4817ac	-0.1954028
23	0xbdcf6c0b	-0.101280294
24	0x3eba24b2	0.3635612
25	0xbf0bc618	-0.5459914
26	0x3cd96af9	0.026540266
27	0x406dbbfc	3.7145987
28	0xbe09bdb4	-0.13451272
29	0x3df91755	0.12162653
30	0xbe0422e8	-0.1290394
31	0xbe3e0e5c	-0.18560165
32	0xbe4bab91	-0.19889666
33	0xbca5e08b	-0.020248672
34	0x3df290f7	0.11844056
35	0xbcef2711	-0.029193433
36	0x3e1838d0	0.14865422
37	0x3ce4feb1	0.027953478
38	0x3ba1a056	0.0049324436
39	0xbd5cd500	-0.05391407
40	0x3de97943	0.11400082
41	0x3e08bfd6	0.1335443
42	0x3e8ef7f5	0.2792355
43	0x3d83c477	0.06433957
44	0x3e1fe3e4	0.15614277
45	0xbe752528	-0.23939955
46	0xbe74f327	-0.2392088
47	0xbe01bf06	-0.12670526
48	0xbd2cebca	-0.042217053
49	0xbe33c18b	-0.175543
50	0x3d96d77e	0.073653206
51	0xbd5fd61c	-0.05464755
52	0xbefc5c34	-0.49289095
53	0xbe0aef82	-0.13567927
54	0xbf02bb90	-0.5106745
55	0xbf952f07	-1.1654977
56	0x3e8f33a1	0.27969077
57	0x3dba7649	0.09104592
58	0xbdb84ced	-0.089990474
59	0xbd9925ec	-0.07477936
60	0x3d0e9073	0.034805726
61	0xbe5045a6	-0.20339069
62	0xbe56a6cf	-0.2096207
63	0xbe7fcf03	-0.24981312
64	0xbe1e407d	-0.15454288
65	0xbdaeeebc	-0.08541629
66	0xbe06d784	-0.1316815
67	0xbd87d1a7	-0.06631785
68	0x3cc79fbf	0.024368165
69	0xbe3ab7b3	-0.18234138
70	0x3e243ede	0.16039607
71	0x3df90fd1	0.1216122
72	0x3e2bccc7	0.16777335
73	0xbd4cac2b	-0.04996888
74	0x3e19469c	0.14968342
75	0x3e36bcac	0.1784541
76	0x3cc73e24	0.024321623
77	0x3e590b48	0.2119571
78	0x3e09e57e	0.1346645
79	0x3e10b2e4	0.14130741
80	0xbe6a6009	-0.22888197
81	0x3fb6feee	1.4296548
82	0xbea39372	-0.3194843
83	0xbfe5718b	-1.7925276
84	0xbd68aba1	-0.056804303
85	0x3d1c4c6b	0.038158815
86	0xbd2db552	-0.04240925
87	0xbe1be0b4	-0.15222436
88	0x3e0f1944	0.13974482
89	0x3e448a74	0.1919344
90	0x3e0850f8	0.13312137
91	0xbdbe804b	-0.09301814
92	0xbd3996d6	-0.045309864
93	0xbca51fbf	-0.02015674
94	0x3e716726	0.23574504
95	0x3e02340e	0.1271517
96	0x3dee7653	0.11643662
97	0xbeaa96e7	-0.33318254
98	0x3cdafff1	0.02673337
99	0x3e804e59	0.25059775
100	0x3d69c3a6	0.05707135
101	0xbcef1ef9	-0.029189574
102	0x3dea9b44	0.11455396
103	0x3d1818a6	0.03713288
104	0x3d676b25	0.056498665
105	0x3d85cf0b	0.06533631
106	0xbdbc4288	-0.09192377
107	0xbdd2be95	-0.10290257
108	0x3ee83170	0.45350218
109	0x3f5785e9	0.84188706
110	0xbe8890eb	-0.26673064
111	0xc0894fae	-4.2909765
112	0xbe0cea81	-0.13761331
113	0xbe9ef736	-0.31047982
114	0xbe122775	-0.14272864
115	0x3d319e47	0.043363836
116	0x3d16f33e	0.036853068
117	0x3d530b9c	0.051524743
118	0x3e05c84f	0.13064693
119	0x3e59abf9	0.21257009
120	0x3e3d2d65	0.18474348
121	0xbcbf5276	-0.02335475
122	0x3d41cc1f	0.047313806
123	0x3d22ba92	0.03972871
124	0x3dfd6537	0.12372821
125	0x3d716d93	0.05894239
126	0x3e1d7adb	0.15378897
127	0xbd3ce235	-0.046114165
128	0x3e12566b	0.14290778
129	0x3e8443c5	0.25832954
130	0x3eb2d2ca	0.34926444
131	0x3cd09dcc	0.025465868
132	0xbd237159	-0.03990302
133	0xbd85f470	-0.065407634
134	0xbe154249	-0.14576067
135	0xbe9c1001	-0.3048096
136	0x3f538069	0.82617813
137	0xbf12e0f2	-0.5737449
138	0xbd20d97a	-0.0392699
139	0x3f3438da	0.7039925
140	0x3e11db51	0.14243819
141	0xbdb908cd	-0.09034882
142	0xbe5e4323	-0.21705298
143	0x3e122579	0.14272107
144	0x3dff86c5	0.12476877
145	0x3d54aa2c	0.0519201
146	0xbe0d1792	-0.13778523
147	0xbcee852e	-0.02911624
148	0xbdb0e804	-0.086380035
149	0xbe875c58	-0.2643764
150	0xbdb6da94	-0.08928409
151	0x3cf5fc19	0.030027436
152	0xbe88fa6c	-0.26753557
153	0xbec4b845	-0.38421836
154	0x3e4b88a2	0.1987634
155	0x3e51566d	0.20443125
156	0x3e89acfb	0.26889786
157	0x3e444eda	0.19170704
158	0xbe2642e5	-0.16236456
159	0x3dce2af0	0.100667834
160	0xbe4e83b1	-0.20167424
161	0x3dd9eb07	0.10640531
162	0x3dfeb226	0.12436323
163	0x3d0e9379	0.03480861
164	0x3f4e9d1e	0.8070849
165	0xbe049a41	-0.12949468
166	0xbe95a2d7	-0.292258
167	0xc0305024	-2.7548914
168	0xbe31195d	-0.17294832
169	0xbcc69de5	-0.024245212
170	0xbda35642	-0.07975437
171	0xbe13b863	-0.14425807
172	0xbe312eac	-0.1730296
173	0xbd4bf494	-0.049793795
174	0xbba979a7	-0.005171973
175	0x3da23ad9	0.079213805
176	0xbe3eed05	-0.18645103
177	0x3d1f8048	0.038940698
178	0xbd6ebd7d	-0.05828618
179	0xbda6f8e7	-0.08152943
180	0x3dce1381	0.10062314
181	0x3d8d4ee1	0.068998106
182	0x3e3aed36	0.18254551
183	0xbe21ee01	-0.15813448
184	0x3e286f54	0.16448718
185	0xbdfc354c	-0.12314853
186	0xbd044f90	-0.03230244
187	0xbd9d9e0f	-0.07696163
188	0xbe1d78e1	-0.15378143
189	0xbc75292e	-0.014963431
190	0xbde47fe9	-0.111572094
191	0xbe4b4b4a	-0.19852939
192	0x3f169368	0.58818674
193	0xc00c91fb	-2.19641
194	0x3ecc7b82	0.3993798
195	0xbfd59272	-1.6685317
196	0xbe56dd58	-0.20982873
197	0xbdab55df	-0.08365988
198	0x3de885cf	0.11353647
199	0xbe50f610	-0.20406365
200	0xbe2fc835	-0.17166217
201	0xbe433d5a	-0.19066373
202	0x3df115ab	0.11771711
203	0x3c9a58a3	0.018841093
204	0xbd8c7eac	-0.06860098
205	0xbe1987ca	-0.14993206
206	0x3d1fdeae	0.039030723
207	0xbe2926e4	-0.16518742
208	0xbdf07b64	-0.11742285
209	0x3e002ea2	0.12517789
210	0xbdd1660c	-0.10224542
211	0x3d98c1ae	0.074588165
212	0xbe317e4f	-0.17333339
213	0x3d99ec5d	0.07515786
214	0xbe42a9cd	-0.19010086
215	0xbd685d77	-0.05672976
216	0x3d876145	0.066103496
217	0x3db4d642	0.08829929
218	0xbe1cec6a	-0.1532456
219	0x3d49635d	0.049167026
220	0xbe26b3be	-0.16279504
221	0x3d81175d	0.06303284
222	0x3dbda6ff	0.092603676
223	0xbd678ad7	-0.056528892
224	0x3d31236d	0.043246675
225	0x3c45be66	0.01206932
226	0xbe3dee50	-0.1854794
227	0xbe75f058	-0.24017465
228	0x3db94a8a	0.0904742
229	0xbe63b342	-0.2223635
230	0x3cf0ff60	0.029418647
231	0xbd0482da	-0.032351352
232	0x3de20b2a	0.110372856
233	0xbcb63a74	-0.02224467
234	0x3dbb609c	0.09149286
235	0xbdc5d3d7	-0.09659546
236	0x3cda03cd	0.02661314
237	0xbe3bd40c	-0.18342608
238	0xbe025e21	-0.1273122
239	0x3a8db986	0.0010812737
240	0xbdfc4bbb	-0.12319132
241	0x3d7bfad9	0.061518524
242	0xbdd72072	-0.10504235
243	0xbe72520c	-0.23664111
244	0xbe43199c	-0.19052738
245	0x3c843d3e	0.016142484
246	0xbe1f7041	-0.15570165
247	0xbdcb02e1	-0.099126585
248	0x3d1584b0	0.036503494
249	0xbdf2622c	-0.11835131
250	0x3b8b2a02	0.004246951
251	0xbd7b91f7	-0.0614185
252	0xbcb844d0	-0.02249375
253	0xbd52838a	-0.051394977
254	0xbd95c121	-0.07312227
255	0x3dd2515a	0.10269423

layers.0.bias f4 [64]
0	0xbd3fe616	-0.046850286
1	0xbd65eee5	-0.05613603
2	0x3d801799	0.06254501
3	0xbddc438c	-0.10755071
4	0x3ea8bab5	0.32954946
5	0x3e1f1fd3	0.15539484
6	0xbe93ee2f	-0.28892657
7	0x3d44dac6	0.0480602
8	0x3d28e459	0.041233394
9	0xbdb84dfc	-0.08999249
10	0xbda2dc98	-0.07952231
11	0x3ed20621	0.410203
12	0xbede48e8	-0.43414998
13	0xbe1038b7	-0.14084135
14	0x3d74f035	0.05979939
15	0xbd739a43	-0.059473287
16	0xbdf584f1	-0.11988247
17	0x3c79121f	0.015202074
18	0x3e84c307	0.25930044
19	0x3d805ac0	0.06267309
20	0xbe0b055e	-0.13576266
21	0xbd002cfc	-0.0312929
22	0x3e99f1dd	0.3006734
23	0x3e0b6c3e	0.1361551
24	0xbe07efbf	-0.1327505
25	0xbd1f17b0	-0.03884095
26	0xbe8298b5	-0.2550713
27	0xbde01063	-0.109406255
28	0x3d8eb780	0.069685936
29	0xbce5d7ca	-0.028056998
30	0xbe12e205	-0.14344032
31	0x3d40cadc	0.04706846
32	0xbd082611	-0.033239428
33	0x3d8a5cdf	0.06755995
34	0xbb7f3361	-0.0038940536
35	0x3e512aca	0.20426479
36	0xbe50895d	-0.203649
37	0xbe164447	-0.14674483
38	0xbdf6d320	-0.12051988
39	0xbda30ef6	-0.07961838
40	0xbdc1cc6e	-0.0946282
41	0x3e5f54f6	0.21809754
42	0xbdaf25b2	-0.08552112
43	0xbe0a4538	-0.13502967
44	0x3d2b3866	0.041801833
45	0xbe3d0b9a	-0.18461457
46	0xbd9750fb	-0.07388493
47	0xbd33279e	-0.043738954
48	0x3d7c866a	0.061651625
49	0xbcc91a89	-0.024548786
50	0xbe4ccbdc	-0.19999641
51	0xbe5d6f35	-0.21624453
52	0xbd180e84	-0.03712322
53	0x3d8af5da	0.06785174
54	0xbe0cf0a7	-0.13763677
55	0x3dc54579	0.096323915
56	0xbcc60c58	-0.024175808
57	0x3e5c2d91	0.21501757
58	0xbda43cd1	-0.08019412
59	0xbbb1844f	-0.0054173837
60	0x3dc874a7	0.09787875
61	0xbc7c315a	-0.015392626
62	0x3dbfc065	0.09362868
63	0xbdbe3d0a	-0.09288986

layers.1.weight f4 [64, 64]
0	0xbe09ada8	-0.13445151
1	0xbd93d40f	-0.07218181
2	0xbd99cbd6	-0.07509582
3	0xbdb40d40	-0.0879159
4	0x3d2ff4c4	0.042958036
5	0x3c1f03fb	0.009705539
6	0x3c47b612	0.012189405
7	0xbde5405b	-0.111939155
8	0x3df9b7e3	0.12193277
9	0xbdceff43	-0.10107281
10	0xbdbb42f3	-0.09143629
11	0xbe32a783	-0.17446713
12	0x3da288c9	0.07936246
13	0x3dd455e7	0.10367947
14	0x3e018233	0.12647323
15	0xbe32d9d8	-0.17465913
16	0xbca6241b	-0.020280888
17	0x3c8b6044	0.017013676
18	0xbdbc67ca	-0.09199484
19	0x3d86ee9c	0.0658848
20	0x3e01f40a	0.1269075
21	0x3d7b885e	0.061409347
22	0xbd96adf6	-0.07357399
23	0xbde16ba6	-0.110068604
24	0x3cd6ea14	0.026234664
25	0xbd509c7e	-0.050930493
26	0x3bc68c0f	0.0060591768
27	0xbda8418a	-0.082156256
28	0x3cb9a8e8	0.022663549
29	0xbc42ec30	-0.011897132
30	0x3d0b6db4	0.034040168
31	0xbd3b9fa7	-0.045806553
32	0xba5ee4d3	-0.00085027254
33	0xbd3af0bb	-0.045639735
34	0x3d5dd321	0.054156426
35	0xbde0472e	-0.109510764
36	0x3c708d06	0.01468206
37	0x3cb526f6	0.022113305
38	0xbe04b3b0	-0.1295917
39	0xbcd2903e	-0.025703546
40	0x3d27d592	0.04097516
41	0x3d1ce031	0.038299743
42	0x3d38b95c	0.045098647
43	0x3dcce3e8	0.10004407
44	0xbdf930ca	-0.12167509
45	0x3d8f0085	0.06982521
46	0x3da6931f	0.0813353
47	0xbd8e1cac	-0.069390625
48	0x3dfaedc4	0.122523814
49	0xbdb0d04e	-0.08633481
50	0xbd28425f	-0.04107892
51	0x3d3f8506	0.04675772
52	0xbe31fd09	-0.17381682
53	0x3ce39b93	0.027784145
54	0xbd606316	-0.054781996
55	0x3de30d15	0.110864796
56	0xbdb25cb7	-0.0870909
57	0xbd821c52	-0.06353058
58	0x3d97e38c	0.07416448
59	0x3d77c86d	0.060493875
60	0xbd84a058	-0.06475896
61	0x3d689de1	0.05679119
62	0xbd8fd0ae	-0.07022224
63	0x3ddc3a8e	0.10753356
64	0xbf0a9334	-0.54130864
65	0xbe0acce8	-0.13554728
66	0x3e68c579	0.2273158
67	0x3ef21c6f	0.47287318
68	0xbc8e30ed	-0.017357314
69	0x3e8786ab	0.2646993
70	0x3e82ea9d	0.2556962
71	0x3e38f167	0.18060838
72	0x3d7a0a7c	0.061045155
73	0x3e0bab29	0.13639511
74	0x3cae4dec	0.02127739
75	0xbe1524d0	-0.14564824
76	0xbf2be58c	-0.67147136
77	0xbd4fdcac	-0.05074756
78	0x3c9f7dc5	0.019469151
79	0x3e036251	0.12830473
80	0x3e2f45de	0.17116496
81	0xbdb7f3f5	-0.08982078
82	0x3ebc55fc	0.3678435
83	0x3eea33f6	0.45742768
84	0x3db2f4ea	0.0873812
85	0xbd0399da	-0.032129146
86	0xbe113e9f	-0.14184044
87	0xbd6aaff8	-0.057296723
88	0x3dbe3a4b	0.09288462
89	0x3d155cf0	0.036465585
90	0x3deceaf4	0.11568251
91	0x3dfb7c62	0.122795835
92	0x3dd9b488	0.10630137
93	0x3ed4ffb0	0.41601324
94	0x3d5c5659	0.053793285
95	0x3df9d366	0.12198524
96	0x3ea4ab48	0.32161927
97	0x3c6e87c0	0.0145587325
98	0xbd962b20	-0.07332444
99	0xbc548fef	-0.01297377
100	0x3e3bbe47	0.18334304
101	0x3d7f0adf	0.062266227
102	0xbd15d96d	-0.036584307
103	0xbe26dc15	-0.16294892
104	0xbd4f9df9	-0.050687764
105	0xbe98f56b	-0.2987474
106	0x3b151e00	0.0022753477
107	0x3da2ad6c	0.07943234
108	0xbdc75b66	-0.0973423
109	0x3d99f9ed	0.07518373
110	0x3d2b4e72	0.04182286
111	0xbcde6a82	-0.027150396
112	0x3dba615d	0.09100602
113	0xbdadde0f	-0.0848962
114	0xbd26dafa	-0.040736176
115	0xbdc013e0	-0.09378791
116	0xbf139f0a	-0.5766455
117	0xbd8df090	-0.06930649
118	0x3e9d0a57	0.3067195
119	0xbe05a635	-0.13051684
120	0x3c262b9f	0.010142236
121	0xbe631512	-0.22176006
122	0x3d80fadd	0.062978484
123	0x3d6edc39	0.05831549
124	0xbd0e024b	-0.034670155
125	0xbe3fe0b4	-0.18738061
126	0x3e37777c	0.17916673
127	0x3d645488	0.055744678
128	0xbd51c674	-0.05121465
129	0xbdbd690c	-0.09248552
130	0x3cb16265	0.021653363
131	0xbe18cd71	-0.1492212
132	0xbdab0426	-0.083504006
133	0x3d9c9221	0.076450594
134	0xbdb0c609	-0.08631522
135	0xbdd63fdb	-0.10461398
136	0x3daa03f6	0.08301537
137	0xbcc31101	-0.023811819
138	0x3d128456	0.035770737
139	0xbe343124	-0.1759687
140	0x3d257038	0.040390223
141	0x3dcc8315	0.099859394
142	0xbd31d206	-0.043413185
143	0xbd523a27	-0.05132499
144	0x3dc82793	0.09773173
145	0x3b89a7da	0.0042009177
146	0xbcb1568f	-0.02164772
147	0xbc186359	-0.00930103
148	0xbd67c8fe	-0.056588165
149	0xbdb137cc	-0.086532205
150	0x3d92fd8a	0.07177265
151	0xbdbae2c4	-0.09125283
152	0x3cddca88	0.027074113
153	0xbd6fe802	-0.05857087
154	0xbd832276	-0.06403057
155	0x3de8638a	0.113471106
156	0xbc05ae17	-0.008159182
157	0x3d97911f	0.074007265
158	0xbb08c1a8	-0.0020867381
159	0xbe17d687	-0.1482793
160	0xbe124d9b	-0.14287417
161	0xbccda9bb	-0.025105348
162	0x3d9a277e	0.07527064
163	0xbd991620	-0.07474923
164	0xbddc016f	-0.10742461
165	0x3d24b591	0.040212218
166	0xbd512324	-0.051058903
167	0x3d0b2558	0.03397116
168	0xbdcc5b10	-0.09978306
169	0x3d23980c	0.039939925
170	0xbd60ebe0	-0.054912448
171	0x3cdb2478	0.026750788
172	0xbd173003	-0.036911022
173	0x3d99fb3e	0.07518624
174	0xbcf34667	-0.029696656
175	0x3d3a637f	0.045505043
176	0xbd952691	-0.072827466
177	0x3de3699d	0.111041285
178	0x3dbda879	0.09260649
179	0x3d6070eb	0.054795187
180	0xbdb0996a	-0.086230114
181	0xbdd5494a	-0.104143694
182	0xbcfdc1aa	-0.030976135
183	0xbdd8311b	-0.10556241
184	0xbd82aefd	-0.063810326
185	0x3dd140e7	0.10217457
186	0x3dcf84de	0.10132764
187	0xbbcff866	-0.00634675
188	0xbd10807a	-0.035278775
189	0x3d8251dd	0.063632704
190	0xbdaf302e	-0.085541114
191	0xbdf872de	-0.12131284
192	0xbe46c687	-0.1941167
193	0x3d2733c9	0.04082087
194	0xbde19858	-0.110153854
195	0xbd3c77c5	-0.04601266
196	0xbc1372a9	-0.008999505
197	0xbd577575	-0.05260225
198	0xbe348e9a	-0.17632523
199	0xbd3152f8	-0.043292016
200	0x3d88c288	0.06677729
201	0x3d358564	0.044316664
202	0xbdbe2e03	-0.0928612
203	0xbb5d323b	-0.0033751864
204	0xbd04b836	-0.03240224
205	0x3d6b9e8a	0.05752424
206	0x3e121606	0.14266214
207	0xbdd06333	-0.10175171
208	0xbdb8466e	-0.089978084
209	0x3bec1370	0.0072044656
210	0xbdf539bf	-0.11973905
211	0xbd6dbdc0	-0.058042288
212	0xbbc03659	-0.0058658537
213	0x3da3b3b0	0.07993257
214	0xbd7f9496	-0.062397562
215	0xbdf80700	-0.1211071
216	0xbddfd507	-0.109293036
217	0xbddaef8b	-0.106902204
218	0xbdbe5296	-0.09293096
219	0xbd44c1a8	-0.048036247
220	0xbe53af6e	-0.2067239
221	0xbe4a952e	-0.1978347
222	0xbc3c2391	-0.011483089
223	0xbc6efc35	-0.014586498
224	0xbe22787d	-0.15866275
225	0x3d4cf11b	0.050034624
226	0xbdf6daf2	-0.12053479
227	0xbd943915	-0.0723745
228	0xbc223581	-0.009900452
229	0xbe494414	-0.19654876
230	0xbce8d43a	-0.02842151
231	0x3c0506a0	0.008119255
232	0xbd97e394	-0.07416454
233	0xbcc07b75	-0.023496369
234	0xbd7035f0	-0.05864519
235	0xbde14a7a	-0.110005334
236	0xbe14ef42	-0.14544395
237	0x3d97b999	0.07408447
238	0xbd9ebf2c	-0.07751307
239	0xb94a2e85	-0.00019281551
240	0x3c391944	0.011297528
241	0xbb994580	-0.0046774745
242	0xbba2d81e	-0.004969611
243	0xbe00e262	-0.12586358
244	0xbe3a2b3e	-0.18180558
245	0xbd5723b0	-0.05252427
246	0xbb888392	-0.004166075
247	0xbdca08ad	-0.09864936
248	0xbcedce60	-0.029029071
249	0xbe46b485	-0.194048
250	0xbdeb0892	-0.11476244
251	0x3d02c38e	0.031924777
252	0xbe443e19	-0.19164313
253	0xbbf61044	-0.007509263
254	0xbe0b523b	-0.13605587
255	0x3bda6660	0.006665036

layers.1.bias f4 [64]
0	0x3d0a9e42	0.033842333
1	0x3d8cc778	0.06873983
2	0xbce094f4	-0.027414776
3	0xbe42a8bb	-0.19009678
4	0xb8752558	-5.844733e-05
5	0xbcc735f2	-0.024317715
6	0xbe0bbd1e	-0.13646361
7	0xbde55c9e	-0.11199306
8	0xbd470c58	-0.048595756
9	0xbdc98639	-0.09840054
10	0x3daa7e82	0.08324911
11	0xbeb57b01	-0.35445407
12	0xbe21b2e3	-0.15790896
13	0xbf0f7d5e	-0.5605067
14	0x3d446fc1	0.04795814
15	0xbe13dd44	-0.14439875
16	0xbdc05bd6	-0.09392516
17	0xbd66e57a	-0.05637119
18	0x3cbe3050	0.023216397
19	0xbe6076c7	-0.2192031
20	0xbd93894b	-0.07203921
21	0xbebb8953	-0.36628208
22	0x3b254a39	0.0025221242
23	0xbebb2076	-0.36548203
24	0xbe9a9d58	-0.3019817
25	0xbeb98e8a	-0.3624156
26	0x3e206d49	0.15666689
27	0x3c66cf9f	0.014087587
28	0xbd5602ea	-0.052248873
29	0x3e4e527c	0.20148653
30	0xbe449645	-0.19197948
31	0xbc33f2b2	-0.010983156
32	0xbea233f4	-0.31680262
33	0xbe7e3a67	-0.24826966
34	0x3d422338	0.04739687
35	0xbec45716	-0.3834769
36	0xbedef108	-0.43543267
37	0x3aaa606b	0.0012998705
38	0xbe0dfad3	-0.13865213
39	0xbdb1f9bf	-0.086902134
40	0xbe2aad8f	-0.1666777
41	0x3d0bb8c1	0.034111742
42	0x3cde6a48	0.027150288
43	0xbbfd1d2c	-0.007724425
44	0xbf2fd202	-0.6867982
45	0xbe3741aa	-0.17896143
46	0x3d2d1bc3	0.042262804
47	0x3d21bc87	0.039486434
48	0xbda45f2b	-0.08025964
49	0xbcd71eb5	-0.02625976
50	0xbd90ba69	-0.07066805
51	0x3e3c12d7	0.18366562
52	0x3c587369	0.01321111
53	0xbe0f2706	-0.1397973
54	0x3c1ff9f9	0.009764188
55	0x3ccccd71	0.025000306
56	0xbdd357d4	-0.10319486
57	0xbddb3c7a	-0.10704894
58	0xbf219f40	-0.6313362
59	0xbca7cc4c	-0.020483159
60	0x3d999974	0.07499972
61	0xbd7e50b1	-0.062088672
62	0x3dffacff	0.12484168
63	0xbe101119	-0.14069022

layers.2.weight f4 [64, 64]
0	0x3cdd2777	0.026996357
1	0xbee31e6b	-0.44359145
2	0xbc7794a0	-0.015111119
3	0x3caaaa73	0.02083323
4	0xbca8abb3	-0.020589685
5	0xbbe78b3d	-0.007066159
6	0xbe0f05f2	-0.13967112
7	0x3c9fc4c1	0.019503
8	0x3d9f112b	0.077669464
9	0xbe023666	-0.12716064
10	0x3cfa4dfe	0.030554768
11	0xbd39af19	-0.045333
12	0xbd18a3af	-0.037265476
13	0x3cc6c916	0.024265807
14	0x3d884bf2	0.066551104
15	0xbe325c4d	-0.17418022
16	0x3dc6fab6	0.09715788
17	0x3c8a4d21	0.016882481
18	0x3c0badb4	0.008525301
19	0x3da1f1e2	0.079074636
20	0xbea28bea	-0.3174737
21	0xbdb56c4c	-0.088585466
22	0xbbbbd1c4	-0.005731793
23	0x3d1240e4	0.035706416
24	0xbed927c2	-0.42413145
25	0x3e77b3a9	0.24189629
26	0xbeb30aad	-0.34969082
27	0xbdc88b87	-0.09792238
28	0xbe02564f	-0.12728237
29	0xbd354a5b	-0.044260364
30	0xbe055263	-0.1301971
31	0x3d58e53e	0.052952997
32	0xbe2f4b63	-0.17118602
33	0x3ccbc5da	0.024874616
34	0x3d37036e	0.044681005
35	0xbf0036d0	-0.5008364
36	0xbdb237b2	-0.08702029
37	0xbd793820	-0.06084454
38	0x3d85bd7c	0.06530282
39	0xbd092e90	-0.03349167
40	0xbd831ad8	-0.064016044
41	0xbe300799	-0.17190398
42	0x3de5d3ad	0.112220146
43	0x3d13f727	0.036124375
44	0xbd9a3adb	-0.07530757
45	0xbd5dd0a7	-0.054154065
46	0x3d7c853e	0.061650507
47	0x3b2d7bfe	0.002647161
48	0xbe09e9a8	-0.13468039
49	0x3d224935	0.039620597
50	0xbcd10363	-0.02551431
51	0xbea3d30b	-0.3199695
52	0x3da838be	0.08213948
53	0xbd948005	-0.0725098
54	0x3cc50e0c	0.02405455
55	0x3ef1e251	0.47242978
56	0x3dd12f6e	0.102141246
57	0xbcc26076	-0.023727637
58	0xbdad60ef	-0.08465754
59	0x3daf7c8e	0.08568679
60	0xbda6549f	-0.08121609
61	0x3cde83e8	0.027162507
62	0xbc025f94	-0.007957358
63	0x3e214e2b	0.15752475
64	0x3d90efef	0.07077014
65	0x3d3ee7c0	0.046607733
66	0x3d0e6327	0.034762528
67	0x3ccf04d5	0.025270859
68	0xbd50e210	-0.05099684
69	0xbb3ebce4	-0.0029104287
70	0x3d5b8470	0.0535931
71	0xbda43f1c	-0.0801985
72	0xbd1f986a	-0.038963713
73	0xbdcac563	-0.0990093
74	0xbda81442	-0.08206989
75	0xbde67335	-0.11252443
76	0xbdddae8e	-0.10824309
77	0xbf19a139	-0.6001163
78	0xbd11d7d2	-0.035606213
79	0xbf21a989	-0.63149315
80	0x3c2fa2eb	0.010719995
81	0x3d56c341	0.052432302
82	0xbf179264	-0.5920775
83	0xbe773eab	-0.24145
84	0xbe2ec12a	-0.17065874
85	0x3d2311ae	0.039811783
86	0xbd21db2a	-0.03951565
87	0xbea0f149	-0.31434086
88	0x3ec76a65	0.3894836
89	0x3e0679f2	0.13132456
90	0x3e0c8aa5	0.13724764
91	0x3b96cc72	0.0046020085
92	0xbe8bda69	-0.2731507
93	0xbee88b02	-0.45418555
94	0xbd70424f	-0.058656987
95	0xbd49a439	-0.04922888
96	0x3e569693	0.20955877
97	0xbe3baf99	-0.18328704
98	0x3d6ad976	0.057336293
99	0x3e589d72	0.2115381
100	0xbe8be909	-0.2732623
101	0xbcc7bddf	-0.02438253
102	0xbe729adf	-0.23691891
103	0x3c046e71	0.008082972
104	0xbddaf2a9	-0.10690815
105	0xbe5c1c5a	-0.2149519
106	0xbe33d9f3	-0.1756361
107	0x3d9a799f	0.07542729
108	0xbea117e3	-0.31463537
109	0x3d816282	0.06317617
110	0x3d524e7a	0.051344372
111	0xbeaf173b	-0.3419741
112	0xbcbb5a18	-0.022870108
113	0x3df92793	0.12165751
114	0xbdb0984f	-0.086228006
115	0x3df81ec9	0.12115247
116	0xbdfc4a51	-0.12318862
117	0x3d409e90	0.047026217
118	0x3ced62e0	0.028977811
119	0x3e494a92	0.19657353
120	0x3de42443	0.11139729
121	0x3cb59792	0.022167
122	0xbf133370	-0.5750036
123	0xbd8d889c	-0.06910822
124	0xbec2382a	-0.37933475
125	0xbee9afdd	-0.45641986
126	0x3ea0f9af	0.31440493
127	0xbe2372b4	-0.15961725
128	0xbd3abfb6	-0.045592986
129	0xbebea04d	-0.37231675
130	0xbd8e0c17	-0.069359
131	0x3df93a15	0.121692814
132	0x3d5230a8	0.051315933
133	0x3d8117be	0.063033566
134	0x3d50a593	0.050939154
135	0x3d159551	0.036519352
136	0x3db13158	0.0865199
137	0xbd3e7f77	-0.04650828
138	0xbe66dd49	-0.22545351
139	0x3d46686e	0.048439436
140	0xbd1e8fcc	-0.038711354
141	0xbe07ab32	-0.132489
142	0x3d7e9b6f	0.06215995
143	0x3f15d8f2	0.5853416
144	0xba3e7bfc	-0.00072664
145	0x3d860831	0.06544531
146	0xbe1b4bfe	-0.15165707
147	0xbdcffffa	-0.101562455
148	0x3e3662f0	0.17811179
149	0xbca0dcac	-0.019636475
150	0x3d6aa90d	0.057290126
151	0xbb1b60be	-0.0023708786
152	0xbbaee701	-0.0053375964
153	0xb7745822	-1.4564053e-05
154	0xbddc991c	-0.10771391
155	0x3d993e95	0.0748264
156	0xbda0a350	-0.078436494
157	0xbe10c90b	-0.14139192
158	0xbe364dd5	-0.17803128
159	0x3dbacb96	0.09120862
160	0x3ddf0d92	0.1089126
161	0xbe1ed872	-0.15512255
162	0x3deb283d	0.11482284
163	0xbe215943	-0.15756707
164	0x3d087ab7	0.033320155
165	0x3daa1742	0.08305217
166	0x3d82f82f	0.063949935
167	0xbddfb381	-0.109229095
168	0x3d3df3ba	0.046375014
169	0x3de93a02	0.11388017
170	0x3e0e35d8	0.13887727
171	0xbe00406a	-0.12524572
172	0x3d14171f	0.036154862
173	0xbbe067b0	-0.006848298
174	0xbbc819f4	-0.0061066095
175	0xbe3425d8	-0.17592561
176	0xbcf62b8e	-0.030050065
177	0x3c1dfb16	0.009642383
178	0x3d4f19ae	0.0505616
179	0xbeb0fdd4	-0.34568655
180	0x3d4d66f6	0.05014702
181	0x3d705892	0.058678217
182	0x3be27571	0.0069109728
183	0xbee5cdd8	-0.4488361
184	0x3dc8e5ca	0.09809454
185	0x3db81347	0.08988052
186	0x3d14b172	0.036302038
187	0x3d6668b6	0.056252204
188	0xbea2a692	-0.31767708
189	0xbcacc2d6	-0.021088999
190	0xbdbe112d	-0.0928062
191	0xbdb4bf45	-0.08825544
192	0xbc133304	-0.008984331
193	0xbd172bfc	-0.03690718
194	0x3da3a01e	0.07989524
195	0xbdb14a80	-0.08656788
196	0xbdb9bb23	-0.090688966
197	0x3d2b708f	0.04185539
198	0xbde4d423	-0.11173274
199	0xbd32fe2a	-0.04369942
200	0xbc2949f1	-0.01033257
201	0xbe046d79	-0.12932386
202	0xbe1be33e	-0.15223405
203	0xbdc9a97b	-0.09846779
204	0xbe4c0d90	-0.19927049
205	0xbf5861a8	-0.8452401
206	0x3d6784b8	0.056523055
207	0xbeeb4194	-0.4594847
208	0xbd8bf77b	-0.068343125
209	0xbe09eba1	-0.13468792
210	0xbd321dc2	-0.04348541
211	0xbebadab9	-0.36494997
212	0xbd0bb7f0	-0.034110963
213	0x3d702667	0.058630373
214	0x3d5e607a	0.054291226
215	0xbe7e0150	-0.24805188
216	0xbd59516f	-0.053056177
217	0x3e4861a0	0.19568491
218	0x3ddf5258	0.10904378
219	0x3e0b9497	0.13630901
220	0x3dc87bac	0.097892135
221	0xbc3ff48c	-0.011716019
222	0xbe278f87	-0.16363345
223	0xbcf8b19e	-0.030358132
224	0xbdab0b5f	-0.08351778
225	0xbd4eaf59	-0.050460193
226	0xbd4a19fd	-0.04934119
227	0x3e9d26e6	0.3069374
228	0xbe5714c9	-0.21004023
229	0x3be4c904	0.0069819707
230	0x3e11def2	0.14245203
231	0xbe54af36	-0.20769963
232	0x3d28b01a	0.04118357
233	0xbf0089ea	-0.5021044
234	0x3c8f5e79	0.017501103
235	0x3cb7e2f0	0.02244708
236	0xbf4f54c7	-0.80988735
237	0x3d1d56f7	0.038413014
238	0x39037435	0.00012536424
239	0xbe76f44d	-0.24116631
240	0xbd033d42	-0.032040842
241	0x3d502c73	0.05082364
242	0xbe077986	-0.13229951
243	0xbe8f01ff	-0.2793121
244	0xbe3e0dc8	-0.18559945
245	0xbdc8d062	-0.09805371
246	0xbdac53a7	-0.08414393
247	0x3e3cfb5d	0.18455262
248	0x3d9e3048	0.07724053
249	0xbe123f32	-0.1428192
250	0xbf806fce	-1.003412
251	0x3dc7c688	0.09754664
252	0xbe3bee28	-0.18352568
253	0xbeb5ba27	-0.35493585
254	0xbdb9e2be	-0.09076451
255	0xbd9fbac5	-0.07799295

layers.2.bias f4 [64]
0	0xbe8c41c4	-0.27393925
1	0x3dd6ea2b	0.10493883
2	0xbf272511	-0.65290934
3	0xbd8d3103	-0.06894114
4	0xbe44740a	-0.1918489
5	0xbe4c097a	-0.1992549
6	0xbdd77b26	-0.105215356
7	0x3f2b7930	0.6698179
8	0xbdc9ab3b	-0.09847113
9	0xbe2ae98d	-0.16690655
10	0x3e8cdc13	0.27511653
11	0xbeeb519e	-0.45960706
12	0xbf25cb72	-0.6476356
13	0xbe057c6d	-0.13035746
14	0xbd7d40c3	-0.06182934
15	0xbdf5602b	-0.11981233
16	0xbdc0e149	-0.0941797
17	0xbee7f0b0	-0.45300817
18	0x3ab9cdb5	0.0014175685
19	0xbe14c47e	-0.14528081
20	0xbd21f901	-0.03954411
21	0xbe80f0c7	-0.251837
22	0xbf3290ec	-0.69752383
23	0xbdc568b7	-0.096391134
24	0xbe2397d1	-0.15975882
25	0x3d5a3f95	0.053283293
26	0xbeca973f	-0.39568517
27	0xbeb864bd	-0.36014357
28	0xbd9e2a14	-0.077228695
29	0xbe004306	-0.12525567
30	0xbf17cb2a	-0.5929438
31	0x3d72d025	0.059280533
32	0xbe431359	-0.1905035
33	0xbf49e63f	-0.7886695
34	0xbd24057c	-0.040044293
35	0xbe70ee3d	-0.2352838
36	0xbf6ae769	-0.91759354
37	0xbd87988a	-0.066208914
38	0xbf326082	-0.6967851
39	0x3e77c4be	0.24196145
40	0xbe9136e1	-0.28362182
41	0xbebfb0ea	-0.37439662
42	0xbe6a282a	-0.22866884
43	0xbda80987	-0.08204942
44	0xbf2c1bd1	-0.67229944
45	0xbe80caf0	-0.2515483
46	0xbf04f465	-0.51935416
47	0xbc9a33c7	-0.018823517
48	0xbf269670	-0.650733
49	0xbde38036	-0.11108439
50	0xbf08028e	-0.531289
51	0xbd9576ca	-0.07298048
52	0xbd9d1e43	-0.076717876
53	0xbda29ec3	-0.07940438
54	0xbe59982c	-0.21249455
55	0xbd291451	-0.04127914
56	0xbe1ff0bc	-0.15619177
57	0xbebaf610	-0.36515856
58	0x3ef480e1	0.47754577
59	0xbe1b2061	-0.1514907
60	0xbd9395aa	-0.072062805
61	0xbe876a61	-0.26448348
62	0xbeac5cb5	-0.3366448
63	0x3e229698	0.1587776

layers.3.weight f4 [1, 64]
0	0xbeb43e3d	-0.35203734
1	0xbd400fae	-0.046889953
2	0x401506bd	2.3285363
3	0xbdcb9f2b	-0.09942468
4	0x3e36dd6e	0.17857906
5	0xbd808aa5	-0.06276444
6	0x3c7c09c4	0.015383188
7	0xbce1a8bb	-0.027546277
8	0x3e85a5b1	0.26102975
9	0x3e98a039	0.2980974
10	0xbad39a16	-0.0016143944
11	0x3f366fbf	0.7126426
12	0x3fb89c79	1.4422752
13	0xbd8f8bd1	-0.0700909
14	0xbdbbc438	-0.09168285
15	0xbe031abb	-0.12803166
16	0xbd9d76dc	-0.07688686
17	0xbe6628ae	-0.22476456
18	0xbe0fcc0e	-0.14042684
19	0xbb96f4ef	-0.004606835
20	0xbd6b2c97	-0.05741557
21	0x3e3b22e4	0.18275028
22	0xc00d0f9f	-2.2040784
23	0xbe9a499f	-0.30134293
24	0xbe1be8fc	-0.15225595
25	0x3e8d9a44	0.27656758
26	0x3e62f030	0.22161937
27	0x3e556670	0.20839858
28	0x3d36d382	0.044635303
29	0xbeaa0c90	-0.3321271
30	0xbf9051ef	-1.1275004
31	0xbeb2b2be	-0.34901994
32	0x3e9b533c	0.3033694
33	0x400103f5	2.0158665
34	0x3df3b0ba	0.11898942
35	0xbbb63964	-0.0055610407
36	0xbfb6958a	-1.4264386
37	0xbe0573eb	-0.130325
38	0xbfb2e53c	-1.3976207
39	0x3e8596eb	0.26091704
40	0x3e75113c	0.23932356
41	0x3f67fd28	0.9062066
42	0x3d8c9c36	0.06865732
43	0xbdbfd40d	-0.09366617
44	0xbfe4c344	-1.787209
45	0x3e98b997	0.29829094
46	0x3f19e621	0.60116774
47	0xbe326ef9	-0.17425145
48	0x3faf0745	1.3674093
49	0x3e92c158	0.28663135
50	0xbf0d5416	-0.5520643
51	0x3e0ff793	0.14059286
52	0xbbd7e414	-0.0065884683
53	0xbd8319d0	-0.06401408
54	0xbda0460a	-0.07825859
55	0x3e521853	0.20517091
56	0x3ddcc464	0.10779646
57	0xbee0d222	-0.4391032
58	0xbd411a9b	-0.047144514
59	0xbc991ef8	-0.018691525
60	0xbd59e6e3	-0.053198706
61	0x3e0c2ef2	0.13689783
62	0x3ee2f169	0.44324806
63	0xbcb81e5f	-0.02247542

layers.4.weight f4 [1, 64]
0	0x3f804166	1.0019958
1	0x40283345	2.6281292
2	0x3f6f434e	0.93462074
3	0x3f9941cf	1.1973208
4	0x400fb7e9	2.2456
5	0x409f44c1	4.977143
6	0x408c3dd5	4.382548
7	0x40920b9f	4.5639186
8	0x40dc0d82	6.876649
9	0x3d80bc9d	0.06285975
10	0x414c4e40	12.769104
11	0x3ed99f6e	0.42504448
12	0x3eaeb820	0.3412485
13	0xbe03218a	-0.12805763
14	0x3fa267a6	1.2687881
15	0x3f1837e9	0.5946031
16	0x3f435920	0.7630787
17	0xbef58329	-0.4795163
18	0xbcedb9cd	-0.02901926
19	0x3c891e94	0.016738214
20	0x4055b9fd	3.3394768
21	0x4016f0b4	2.3584414
22	0x3e10fadd	0.14158197
23	0x4099cac6	4.8060026
24	0x3d50101a	0.050796606
25	0x413d1976	11.818716
26	0xbf0c6850	-0.5484667
27	0x3ddf762d	0.10911212
28	0x40ab248b	5.348211
29	0x40869762	4.2059793
30	0xbe6d7cc1	-0.23192121
31	0xbdd19726	-0.102339074
32	0xbdde6e54	-0.10860887
33	0x3e571588	0.21004307
34	0x410be466	8.743261
35	0x3cdc15ee	0.026865926
36	0xbeb74124	-0.35791886
37	0xbe50b5ee	-0.203819
38	0xbe7f8676	-0.24953637
39	0x410568ae	8.338057
40	0x3fe5b3d0	1.79455
41	0x3f7ae511	0.9800578
42	0xbca833b9	-0.020532476
43	0x3ee4daa4	0.4469806
44	0xbe5cc7a8	-0.21560538
45	0x3fe16aba	1.7610695
46	0x4033e6b6	2.8109565
47	0x3e13d497	0.14436565
48	0x3f0a6c5c	0.54071593
49	0xbcb028d2	-0.02150384
50	0xbea13812	-0.3148809
51	0x4117fbf6	9.499014
52	0x3cd3a2bd	0.025834436
53	0x3f297785	0.66198
54	0x3e102ee0	0.14080381
55	0x4016b86c	2.3550062
56	0x3e32d19a	0.17462769
57	0x402a0f8d	2.6571991
58	0x40850a74	4.157526
59	0x3f21af2d	0.6315792
60	0x4014e35b	2.3263767
61	0x407cf28c	3.952304
62	0x40f2da10	7.589119
63	0x4005514e	2.0830874
