src/data/SEDDPG-20220615-063857/weights/actor-0-1.pkl (torch, 44167 bytes, 8 tensors)

layers.0.weight f4 [64, 28]
-0.0403443 -0.13217615 -0.019119624 -0.028840175 -0.15568177 -0.110630125 0.01367646 0.02730454
-0.062375054 0.16997112 -0.08550433 -0.015878938 0.031741224 -0.15424256 -0.1554843 0.13082924
-0.0394214 -0.1380716 -0.11282276 -0.11257509 -0.0308956 -0.16789576 -0.11395677 -0.1769022
0.15389079 0.14643036 0.05420957 0.14285938 -0.004322854 0.008003254 -0.08938086 -0.13681212
-0.074360594 -0.19273096 -0.15212265 -0.16852798 -0.14477038 -0.08840719 -0.15969288 -0.13813825
0.09808695 0.101725675 -0.0795347 0.14131422 0.07179207 0.1128649 -0.08241591 -0.19557226
0.06359682 -0.012796925 0.07605042 0.059420753 -0.018889993 -0.06009329 -0.07568626 0.1355067
0.12901597 -0.19690521 0.124371625 0.11920384 -0.089273006 -0.031388 0.12559168 0.06986722
-0.09088802 -0.018442158 0.16500494 0.06369268 -0.18943854 -0.12016437 0.05825715 0.16904125
-0.0045919875 0.027421966 -0.07772611 -0.044996183 0.047406 -0.08960626 -0.13345128 -0.19255225
0.041230172 -0.07295532 -0.04115766 0.07943742 -0.108293265 0.15308714 0.12069244 -0.11323092
-0.13655582 -0.05680839 0.16420832 0.14249231 0.021190789 -0.13098767 0.13714123 -0.10511332
0.08810698 -0.003112941 0.16090575 0.103188604 0.12838073 -0.117360756 0.107783824 -0.08698667
0.15026715 0.12767632 -0.040635593 0.0052729934 0.038457233 0.008844569 0.16582166 -0.038404305
0.11712281 -0.045381498 0.026469938 0.158553 0.11034632 0.19762364 0.09069546 -0.057156138
-0.027049648 -0.15171848 -0.09605578 -0.13187744 -0.11301419 0.17555848 0.009422977 0.15833488
0.18694161 -0.14254323 0.18317258 0.16891803 -0.15689144 -0.05916665 -0.09909891 0.16689382
-0.13908203 -0.09549957 0.042955473 -0.17585868 -0.088993706 -0.15548964 0.09397965 0.02968498
-0.10932774 0.09987512 0.19085647 -0.14871387 -0.019817265 0.09498113 0.16847092 0.14266628
0.05217493 -0.095499605 0.0006491649 -0.10997285 0.10027301 -0.11973252 0.18312024 0.18174641
0.10214533 0.072453104 -0.036970746 0.18810931 -0.09750326 -0.042685233 0.012613425 -0.15643698
0.103177264 0.21808049 0.020635895 0.16483103 -0.0041771987 0.16689205 0.21654642 0.0803755
0.14764784 -0.06891388 -0.043560587 -0.06091445 0.18190391 0.2248806 0.22853895 -0.043517694
0.11605458 0.0521382 -0.115271375 0.14626107 -0.0029799028 -0.06042815 -0.12808278 0.031936437
0.054380096 0.053820986 0.12164538 -0.011274609 0.14505187 -0.12747565 0.18339266 0.21667942
0.035605244 0.21796641 -0.088381924 0.09907587 0.082856216 -0.09292548 -0.058253605 -0.11897376
0.0061191996 0.12961689 -0.008376874 -0.03707154 0.1247705 0.15765814 -0.035492126 -0.016638644
-0.004206276 0.17576054 0.048698086 0.18683946 0.046670735 -0.07267744 0.022445641 -0.056757245
0.16019897 0.16497082 -0.1823699 -0.16296685 0.14224237 -0.1468393 -0.10579509 0.14054888
0.094202265 -0.120889336 -0.042436622 -0.055954654 -0.106116384 -0.1763538 0.047956474 -0.03856075
0.08923218 -0.022253161 0.0167608 -0.1297227 -0.08929666 -0.03270327 0.10252789 -0.19149491
-0.1555976 -0.106389984 -0.017708829 0.006100651 0.18172945 -0.008965785 -0.08627512 0.0048377896
00000000: 1140 25bd 2f59 07be c2a0 9cbc 3b42 ecbc
00000010: 0b6b 1fbe 0c92 e2bd 3b13 603c c5ad df3c
00000020: fc7c 7fbd e90c 2e3e e51c afbd 8c14 82bc
00000030: 1603 023d c3f1 1dbe 4737 1fbe 1af8 053e
00000040: 5578 21bd a462 0dbe 9f0f e7bd c58d e6bd
00000050: c518 fdbc deec 2bbe 2b62 e9bd da25 35be
00000060: 8c95 1d3e d7f1 153e db0a 5e3d bb49 123e
00000070: baa6 8dbb 1520 033c 500d b7bd 7a18 0cbe
00000080: 5e4a 98bd 445b 45be 0ac6 1bbe 9992 2cbe
00000090: b03e 14be d40e b5bd 8886 23be 1d74 0dbe
000000a0: d0e1 c83d 8d55 d03d 17e3 a2bd adb4 103e
000000b0: b907 933d b625 e73d acc9 a8bd 1844 48be
000000c0: 0d3f 823d 32aa 51bc 53c0 9b3d 2d63 733d
000000d0: 30bf 9abc 6224 76bd 6601 9bbd 45c2 0a3e
000000e0: c31c 043e 85a1 49be 8db6 fe3d 2521 f43d
000000f0: c4d4 b6bd b490 00bd 1b9b 003e 8c16 8f3d
00000100: 8023 babd 0214 97bc 0ef7 283e 4f71 823d
00000110: 2dfc 41be bd18 f6bd 0d9f 6e3d 2619 2d3e
00000120: 6278 96bb 08a4 e03c de2e 9fbd eb4d 38bd
00000130: cb2c 423d 7d83 b7bd 74a7 08be 6b2c 45be
00000140: f8e0 283d 9969 95bd ef94 28bd 16b0 a23d
00000150: dcc8 ddbd e0c2 1c3e 992d f73d 9de5 e7bd
00000160: 4ad5 0bbe eaaf 68bd 3a26 283e 81e9 113e
00000170: 4e98 ad3c a221 06be c06e 0c3e a745 d7bd
00000180: 6f71 b43d 7c02 4cbb 7ac4 243e 8c54 d33d
00000190: 3d76 033e d65a f0bd c4bd dc3d 1126 b2bd
000001a0: a2df 193e 95bd 023e 8271 26bd 13c9 ac3b
000001b0: 5585 1d3d d0e8 103c 27cd 293e d54d 1dbd
000001c0: 15de ef3d f3e1 39bd 7cd7 d83c b85b 223e
000001d0: 40fd e13d da5d 4a3e 8bbe b93d 8e1c 6abd
000001e0: 3997 ddbc 175c 1bbe e5b8 c4bd e10a 07be
000001f0: fc73 e7bd 9ac5 333e d562 1a3c 8a22 223e
00000200: 9f6d 3f3e daf6 11be 9891 3b3e d9f8 2c3e
00000210: 26a8 20be bb58 72bd 5ff4 cabd 37e6 2a3e
00000220: 856b 0ebe 4795 c3bd 14f2 2f3d 4c14 34be
00000230: 5542 b6bd ad38 1fbe 6778 c03d ea2d f33c
00000240: 39e7 dfbd 548b cc3d e16f 433e 7348 18be
00000250: d157 a2bc 7785 c23d a483 2c3e 1c17 123e
00000260: 61b5 553d 4c95 c3bd b82c 2a3a 7239 e1bd
00000270: f05b cd3d 5336 f5bd df83 3b3e bb1b 3a3e
00000280: 9231 d13d 4b62 943d a36e 17bd ba9f 403e
00000290: caaf c7bd b6d6 2ebd 8aa8 4e3c 0431 20be
000002a0: 9a4e d33d 7e50 5f3e 9c0c a93c 77c9 283e
000002b0: e2e0 88bb c0e5 2a3e 58be 5d3e e99b a43d
000002c0: ff30 173e b822 8dbd 966c 32bd 6e81 79bd
000002d0: 0545 3a3e 1a47 663e 1d06 6a3e 9c3f 32bd
000002e0: 06ae ed3d dd8e 553d 6613 ecbd 76c5 153e
000002f0: 794a 43bb 8283 77bd 2228 03be c8cf 023d
00000300: aabd 5e3d 6573 5c3d 3721 f93d 23b9 38bc
00000310: 7a88 143e fa88 02be 49cb 3b3e 36e1 5d3e
00000320: ced6 113d 9632 5f3e 9501 b5bd 4ae8 ca3d
00000330: 85b0 a93d b74f bebd 559b 6ebd 84a8 f3bd
00000340: 9183 c83b 4aba 043e 283f 09bc 54d8 17bd
00000350: ad87 ff3d 2371 213e 3160 11bd c44d 88bc
00000360: cdd4 89bb 92fa 333e a577 473d d852 3f3e
00000370: d029 3f3d e9d7 94bd ecdf b73c 497a 68bd
00000380: 330b 243e 1cee 283e 2dbf 3abe c8e0 26be
00000390: fca7 113e 0b5d 16be 19ab d8bd 0cec 0f3e
000003a0: 1eed c03d d494 f7bd 06d2 2dbd b530 65bd
000003b0: 8c53 d9bd 1796 34be 026e 443d e1f1 1dbd
000003c0: 5cbf b63d 434c b6bc f24d 893c 07d6 04be
000003d0: 2be1 b6bd ddf3 05bd 24fa d13d 3e17 44be
000003e0: fa54 1fbe fee2 d9bd 1b12 91bc f8e7 c73b
000003f0: 4917 3a3e 3ae5 12bc 03b1 b0bd 5286 9e3b

layers.0.bias f4 [64]
-0.07462335 0.055792667 -0.14267874 0.13318136 -0.14315113 0.14502795 -0.10980116 0.029857649
0.16175078 -0.024833668 0.077427864 0.18357678 0.082546026 -0.072971925 -0.12188828 -0.13323182
-0.04596199 0.040482454 -0.054328594 -0.11195229 0.19944899 -0.15628698 -0.11411934 -0.026108766
0.091284364 0.12643424 0.06771488 -0.00984258 0.05249189 0.11992497 0.16726036 -0.068002105
0.01967298 -0.08941987 -0.10036293 -0.0020497188 -0.10888208 0.05125891 0.19498785 -0.07873067
-0.046627786 0.059496917 0.09461251 -0.030936893 0.07014476 -0.09494481 0.017298725 0.108341396
-0.14500183 0.12279267 -0.041467436 0.13868017 0.12340331 0.113529295 -0.08971436 -0.14423965
0.14813885 0.10944956 -0.096512064 0.08906149 0.08666601 0.1823398 0.1679231 -0.20320812
00000000: 20d4 98bd da86 643d 601a 12be b260 083e
00000010: 3696 12be 3582 143e 6edf e0bd 0798 f43c
00000020: ffa1 253e fa6f cbbc 8092 9e3d 8dfb 3b3e
00000030: e40d a93d 4e72 95bd 90a0 f9bd ec6d 08be
00000040: a442 3cbd eed0 253d a987 5ebd 3e47 e5bd
00000050: 5b3c 4c3e b209 20be 67b7 e9bd 0de2 d5bc
00000060: 4cf3 ba3d fa77 013e 19ae 8a3d c642 21bc
00000070: bc01 573d 399b f53d 4d46 2b3e b044 8bbd
00000080: 3b29 a13c c421 b7bd 148b cdbd 9354 06bb
00000090: 91fd debd ddf4 513d e5aa 473e 8c3d a1bd
000000a0: c7fc 3ebd 0ab3 733d 34c4 c13d 5e6f fdbc
000000b0: 0ea8 8f3d 6d72 c2bd 0eb6 8d3c 18e2 dd3d
000000c0: 5c7b 14be b97a fb3d c2d9 29bd 2d02 0e3e
000000d0: e0ba fc3d 0c82 e83d 2abc b7bd 8fb3 13be
000000e0: b6b1 173e 1727 e03d 1ea8 c5bd df65 b63d
000000f0: f37d b13d 49b7 3a3e 08f4 2b3e ca15 50be

layers.1.weight f4 [64, 64]
-0.029906362 -0.109709054 0.032998595 -0.03639388 -0.10998813 -0.1396618 -0.06737637 0.03161306
-0.1261628 0.101954564 0.06051754 0.04544329 -0.032230392 0.07809008 -0.10658128 -0.0137175005
-0.0006037335 0.013425789 -0.10408112 0.06309513 0.06819349 0.07838125 0.035769034 0.09272889
-0.054111365 -0.05206671 0.06992463 -0.07385938 -0.114275485 0.09783636 0.03201312 0.04458627
0.015965432 -0.0527524 0.07683962 0.07353155 -0.109179035 -0.10754107 -0.0032844448 -0.11465892
0.04119722 -0.015013219 -0.00082016154 -0.0997083 0.022133645 0.0030060872 -0.06401321 0.020564884
-0.09093334 -0.05126028 -0.11692274 -0.051356453 0.05085823 -0.010835174 0.09039525 0.111565456
-0.042446725 -0.1101683 -0.003991388 0.104076594 -0.03020978 -0.10125255 -0.017229784 0.027879545
-0.0027046502 0.11923707 0.13391194 0.014140549 -0.0909339 0.057140186 -0.066702046 0.08966921
0.053581305 -0.13257591 -0.06319502 0.08920714 0.11097431 -0.051371537 0.00681744 -0.031249102
-0.086048946 -0.003061601 0.02998993 -0.0012392749 -0.12368041 -0.10881345 -0.13145584 -0.12267392
0.07430963 0.09616883 -0.11877871 0.009197026 0.029787667 -0.114901915 -0.015733259 -0.077867955
-0.04339078 -0.103188656 0.07442907 -0.09461588 -0.064732224 -0.12986706 0.0017074584 0.043591555
-0.17027228 -0.06651354 -0.01052562 0.007888611 0.099296354 -0.049941838 -0.004084562 -0.046219002
0.04127188 -0.10870861 -0.0075149746 -0.090950035 -0.14745149 -0.044854872 -0.09236755 -0.05300671
0.06280398 0.11325575 -0.09871515 -0.04437864 -0.09438605 0.039056152 0.12226646 0.0829103
0.11121152 -0.07633428 -0.10696565 0.0062854313 0.021014221 0.029360607 0.07959926 -0.0077404296
-0.02348853 0.06699631 -0.13495731 0.018648624 0.08756707 -0.08964554 0.11465455 -0.06948589
0.014810418 0.05619323 0.115803376 0.09302503 0.14136054 0.12972356 -0.066142134 -0.02310455
0.09054467 0.09059512 0.04274342 0.018810919 0.08277443 0.00017455603 0.019545859 0.020110855
0.033513963 0.029847242 0.0804107 0.12288645 0.07271003 0.031110477 0.0140588265 -0.057870377
0.014845769 0.03197989 0.1263763 0.083442695 -0.0306796 0.024739128 0.0024419012 0.054979715
0.11084102 0.10425617 -0.056956068 0.054149583 0.108099625 0.046200234 0.010506503 0.0939025
0.1491768 0.008444706 0.05690715 0.08129455 0.0035345112 0.102848984 0.05450681 0.040065568
0.08335771 -0.0808021 -0.07717717 -0.10146454 0.02607815 0.12026553 0.09575954 -0.099329695
-0.043122455 -0.11956756 -0.07949899 -0.09804019 -0.03374213 -0.10925172 0.053885117 0.05333194
-0.11557424 -0.016806781 -0.087603375 -0.1169783 -0.022529468 -0.058450505 -0.12409788 -0.090231955
0.08368331 -0.11955039 0.07535808 -0.11801864 0.033728257 -0.057498172 -0.10021731 0.09616037
-0.118630946 -0.12073991 0.07641716 0.08024883 -0.02082999 -0.033407852 -0.009307817 -0.10735233
0.115624234 -0.009601846 -0.11404686 -0.035926074 -0.060141742 0.019666106 -0.114168346 -0.09234129
-0.012754545 -0.042457387 0.030645251 0.06888954 -0.0032804906 -0.025486827 -0.10324855 0.026300833
0.04325068 -0.070188284 -0.040996388 0.104403526 -0.07346155 -0.0044407696 0.032999918 -0.0610016
00000000: 30fe f4bc 24af e0bd 8929 073d c011 15bd
00000010: 7541 e1bd 8103 0fbe 9ffc 89bd b27c 013d
00000020: d230 01be 8ecd d03d 3de1 773d be22 3a3d
00000030: 0404 04bd b1ed 9f3d 4947 dabd 5ebf 60bc
00000040: df43 1eba d7f7 5b3c 7b28 d5bd 0538 813d
00000050: 07a9 8b3d 5986 a03d 8d82 123d a5e8 bd3d
00000060: e1a3 5dbd e743 55bd a534 8f3d 9643 97bd
00000070: 4409 eabd 6e5e c83d 3020 033d 18a0 363d
00000080: f0c9 823c e712 58bd 175e 9d3d b697 963d
00000090: 4299 dfbd 7e3e dcbd d73f 57bb 4cd2 eabd
000000a0: 6bbe 283d 01fa 75bc 1c00 57ba dd33 ccbd
000000b0: 9e51 b53c c601 453b 5c19 83bd b077 a83c
000000c0: 423b babd 4df6 51bd 3175 efbd 255b 52bd
000000d0: b850 503d 0386 31bc 2521 b93d 6e7c e43d
000000e0: 9edc 2dbd eb9f e1bd 30ca 82bb 1c26 d53d
000000f0: 807a f7bc 7f5d cfbd 7a25 8dbc a563 e43c
00000100: 8040 31bb 9132 f43d 3620 093e c3ad 673c
00000110: 8d3b babd d40b 6a3d 159b 88bd 7ea4 b73d
00000120: 1278 5b3d fbc1 07be 646c 81bd 3cb2 b63d
00000130: 8046 e33d f66a 52bd d564 df3b 1efe ffbc
00000140: 6e3a b0bd 24a5 48bb 71ad f53c 2a6f a2ba
00000150: 284c fdbd 96d9 debd 5c9c 06be 773c fbbd
00000160: a62f 983d 2af4 c43d 4142 f3bd 1faf 163c
00000170: 4405 f43c b251 ebbd 09e3 80bc 3c79 9fbd
00000180: 88ba 31bd 9354 d3bd 456e 983d f8c5 c1bd
00000190: 5492 84bd dffb 04be cccc df3a 0f8d 323d
000001a0: db5b 2ebe 4038 88bd a673 2cbc 3c3f 013c
000001b0: e35b cb3d d08f 4cbd cad7 85bb 2350 3dbd
000001c0: b40c 293d 9fa2 debd 2d40 f6bb 0344 babd
000001d0: 86fd 16be beb9 37bd 332b bdbd 901d 59bd
000001e0: 609f 803d a1f2 e73d 2b2b cabd 60c6 35bd
000001f0: 794d c1bd 58f9 1f3d d666 fa3d e0cc a93d
00000200: dec2 e33d 2655 9cbd cf10 dbbd 05f6 cd3b
00000210: 0426 ac3c a885 f03c f004 a33d 6ea3 fdbb
00000220: 056b c0bc 5d35 893d 4032 0abe 00c5 983c
00000230: 5d56 b33d 1598 b7bd 01d0 ea3d 9e4e 8ebd
00000240: 65a7 723c df2a 663d 522a ed3d e883 be3d
00000250: d1c0 103e 41d6 043e 8775 87bd c145 bdbc
00000260: 7c6f b93d ef89 b93d b913 2f3d 5b19 9a3c
00000270: a485 a93d 0709 3739 a31e a03c 85bf a43c
00000280: f045 093d 3482 f43c 5dae a43d e4ab fb3d
00000290: ffe8 943d 66db fe3c fe56 663c 7d09 6dbd
000002a0: ab3b 733c 58fd 023d ca68 013e 01e4 aa3d
000002b0: c953 fbbc b6a9 ca3c 4e08 203b 6932 613d
000002c0: 9e00 e33d 4284 d53d c44a 69bd f4cb 5d3d
000002d0: 5663 dd3d 753c 3d3d 7823 2c3c f44f c03d
000002e0: cec1 183e aa5b 0a3c 7917 693d c27d a63d
000002f0: 42a3 673b 7da2 d23d 8842 5f3d cb1b 243d
00000300: 72b7 aa3d 927b a5bd 100f 9ebd a4cc cfbd
00000310: d8a1 d53c c64d f63d 941d c43d 5e6d cbbd
00000320: 2ca1 30bd d6df f4bd 5ed0 a2bd 4cc9 c8bd
00000330: 3035 0abd 5ebf dfbd a4b6 5c3d 9872 5a3d
00000340: 30b2 ecbd 60ae 89bc 6669 b3bd 5292 efbd
00000350: b88f b8bc cc69 6fbd 0827 febd 88cb b8bd
00000360: 2862 ab3d d6d6 f4bd 5655 9a3d c2b3 f1bd
00000370: a426 0a3d 3483 6bbd bc3e cdbd baef c43d
00000380: c8f4 f2bd 7c46 f7bd 9a80 9c3d 8059 a43d
00000390: a8a3 aabc acd6 08bd d07f 18bc 8adb dbbd
000003a0: 66cc ec3d 1051 1dbc 6691 e9bd 3827 13bd
000003b0: 3057 76bd d01a a13c 18d1 e9bd 6e1d bdbd
000003c0: 70f8 50bc cce7 2dbd c00b fb3c f615 8d3d
000003d0: 80fd 56bb c0c9 d0bc fa73 d3bd d874 d73c
000003e0: a027 313d e0be 8fbd d4eb 27bd 84d1 d53d
000003f0: 0273 96bd e083 91bb ec2a 073d d0dc 79bd

layers.1.bias f4 [64]
0.105633505 -0.068796426 -0.10749288 -0.056522563 -0.089312926 -0.08726362 -0.0594935 0.01132966
0.05420621 0.105037786 0.0035360334 0.0009460632 0.037778657 0.0954517 -0.0033877532 -0.029243067
0.06665404 -0.06702911 -0.057176705 -0.0128988605 -0.06379271 -0.014861484 0.007545421 -0.055046026
0.0710756 -0.032103844 0.10372458 -0.10332975 -0.11064041 -0.004196301 -0.07455344 -0.0044745696
0.11437612 -0.032828767 -0.0109600825 -0.02825972 0.071310736 0.10691109 -0.07758067 0.07670058
0.026441112 0.10734148 -0.01605085 0.075761825 0.1731539 -0.035446364 0.059021752 -0.09404981
0.031472027 -0.0012944192 -0.03045359 0.10384664 0.103872426 0.11028819 0.093491726 0.062255867
0.044763666 -0.07025511 0.0523403 -0.12757057 -0.062314373 -0.014273703 -0.042915076 -0.019958006
00000000: 6156 d83d 24e5 8cbd 3a25 dcbd 3484 67bd
00000010: b2e9 b6bd 45b7 b2bd 75af 73bd 0aa0 393c
00000020: 5507 5e3d 0d1e d73d ccbc 673b 3a01 783a
00000030: cbbd 1a3d 2e7c c33d 1105 5ebb 288f efbc
00000040: ea81 883d 8f46 89bd 1f32 6abd be55 53bc
00000050: c1a5 82bd 957d 73bc 943f f73b f177 61bd
00000060: 1690 913d 527f 03bd 8d6d d43d 8c9e d3bd
00000070: 7097 e2bd 2081 89bb 79af 98bd 699f 92bb
00000080: 073e ea3d 7577 06bd eb91 33bc ee80 e7bc
00000090: 5d0b 923d 34f4 da3d 9de2 9ebd 3215 9d3d
000000a0: 089b d83c dad5 db3d 127d 83bc 0429 9b3d
000000b0: 424f 313e 3530 11bd cbc0 713d 309d c0bd
000000c0: d0e8 003d 80a9 a9ba cf79 f9bc 8cad d43d
000000d0: 11bb d43d c6de e13d 9778 bf3d 0200 7f3d
000000e0: 1b5a 373d e9e1 8fbd c862 563d dca1 02be
000000f0: 5b3d 7fbd 40dc 69bc b8c7 2fbd f97e a3bc

layers.2.weight f4 [64, 64]
-0.06529708 -0.03535981 0.08840578 -0.040667385 -0.0336971 -0.06089846 0.015351847 0.05030952
0.06622037 -0.024715167 -0.0035131501 -0.10987504 0.05983653 -0.02783838 0.061316025 0.01692362
-0.066783845 -0.06699466 -0.063273 -0.10558689 -0.022834748 -0.06903476 -0.049947504 0.016977105
-0.044835303 0.09703873 0.13398814 0.056809336 0.0123505 0.059552938 -0.05427093 0.039205488
0.13178307 0.014928835 -0.06245061 0.040106725 -0.072584614 0.10261265 0.10183292 -0.120500594
-0.024842158 -0.1211919 0.00697993 -0.08925699 -0.18702123 0.122265436 0.061096642 -0.053512007
-0.069079496 -0.009206802 0.07887447 0.05102016 0.050934624 0.12551254 0.055153366 0.08858222
-0.05464085 0.10600543 0.07078714 0.054470118 -0.045209337 0.08687964 -0.08935155 0.1191718
-0.038161628 -0.09596666 -0.047145616 -0.06438056 -0.044563428 0.018327838 0.080162406 0.029931461
-0.13811465 0.06771752 0.026971359 -0.089742966 0.029266216 0.0805752 -0.10938608 -0.0860581
-0.001069252 0.05942559 -0.013943851 0.045971807 -0.08847168 -0.13963929 0.039683636 -0.06183956
-0.072868325 0.017410345 -0.004402659 0.031215176 0.10220276 -0.016726345 -0.109391585 0.040879
-0.05506156 0.048683304 0.093765356 -0.0074043805 0.09668074 -0.05263774 -0.040562633 -0.02583465
-0.009344965 0.0863444 0.09684624 -0.00951682 -0.055854842 -0.026830733 0.004475865 0.030312523
-0.07833853 -0.07899609 -0.047851626 0.025411457 -0.13465996 -0.0037272463 0.071607634 0.067009546
-0.13795789 -0.12745148 -0.093879506 0.029540123 0.004209407 -0.09920837 -0.122300684 -0.0025903773
0.11082624 -0.02462466 -0.0040444746 0.044742867 0.086477235 -0.12941332 -0.11054887 -0.05466175
0.10991556 -0.00033322285 -0.04376278 0.015499446 -0.018351145 4.287064e-05 0.051265363 -0.028009985
-0.09986228 -0.026456045 0.08506988 0.105793044 0.019507894 -0.053402275 -0.16238332 0.077966176
-0.14440003 0.058412645 0.04284113 -0.032001987 -0.072177246 -0.07805827 -0.1159184 -0.14188075
-0.10560415 0.048079964 -0.031662896 -0.05867062 -0.11423842 0.027846172 -0.12743844 0.06901349
0.028928816 0.031643108 -0.014205822 0.07655111 0.05561393 0.049882453 -0.037294075 0.012371185
-0.14408663 0.023295417 0.018205382 0.034477144 0.039934576 -0.0015778408 -0.037824403 0.04208837
-0.027277894 0.06742284 -0.068473354 0.03273712 0.064230345 -0.070753366 0.016795069 0.089151524
-0.13377158 -0.09129984 0.062298626 -0.067971826 0.078147635 0.022672195 -0.038328856 0.020760369
0.0061886623 -0.03839697 -0.091800705 -0.0963489 -0.080153264 0.102054596 0.08175641 0.02078812
-0.06600164 -0.1100701 -0.022237696 0.06718966 0.10147822 0.052722115 -0.12420698 0.0013886412
-0.09868474 0.016084356 -0.012645884 0.118640795 0.044422686 -0.07878406 -0.117875695 0.069207035
0.02689118 -0.07696895 -0.016458644 -0.0038929565 -0.036505505 -0.13586763 -0.016674267 0.10974692
-0.0126297325 0.11590334 0.05651447 0.07846427 -0.10253644 -0.12289741 0.04060986 -0.041253984
0.07188845 -0.079587325 -0.056813605 0.06674567 -0.022502806 -0.11127488 -0.06728693 -0.0059851534
-0.054672826 -0.1352986 -0.112789914 -0.089887135 -0.04762535 -0.09655 -0.06957854 -0.005271756
00000000: 7aba 85bd 73d5 10bd 170e b53d d892 26bd
00000010: f805 0abd aa70 79bd 5086 7b3c 5b11 4e3d
00000020: 8c9e 873d 7677 cabc e13c 66bb 2a06 e1bd
00000030: 2617 753d 500d e4bc 8326 7b3d 67a3 8a3c
00000040: f8c5 88bd 7f34 89bd 4695 81bd f03d d8bd
00000050: f00f bbbc 1962 8dbd c195 4cbd 9213 8b3c
00000060: 39a5 37bd 3ebc c63d 3034 093e e8b0 683d
00000070: c059 4a3c c8ed 733d 324b 5ebd ef95 203d
00000080: 24f2 063e 1398 743c 36cc 7fbd f346 243d
00000090: 3ea7 94bd 9526 d23d c78d d03d 04c9 f6bd
000000a0: c881 cbbc 7533 f8bd e6b7 e43b 5ecc b6bd
000000b0: 7e82 3fbe 4d66 fa3d 7940 7a3d 682f 5bbd
000000c0: 8d79 8dbd 20d8 16bc f088 a13d 84fa 503d
000000d0: d3a0 503d 5c86 003e 7fe8 613d 986a b53d
000000e0: 15cf 5fbd 6019 d93d d9f8 903d 0f1c 5f3d
000000f0: 6d2d 39bd f4ed b13d f2fd b6bd 5810 f43d
00000100: 5e4f 1cbd 2b8a c4bd c31b 41bd f4d9 83bd
00000110: 2488 36bd 4324 963c 302c a43d d332 f53c
00000120: ed6d 0dbe 7caf 8a3d 0af3 dc3c 29cb b7bd
00000130: b4bf ef3c 9c04 a53d cf05 e0bd 3b3f b0bd
00000140: 2526 8cba 3f68 733d c074 64bc ef4c 3c3d
00000150: a430 b5bd 9afd 0ebe 4f8b 223d 7a4b 7dbd
00000160: fd3b 95bd 24a0 8e3c 2e44 90bb f8b6 ff3c
00000170: ae4f d13d b005 89bc b208 e0bd bd70 273d
00000180: 3b88 61bd 2568 473d 0d08 c03d 72a0 f2bb
00000190: 8d00 c63d ac9a 57bd 0125 26bd 30a3 d3bc
000001a0: a01b 19bc 55d5 b03d 5257 c63d 70ec 1bbc
000001b0: 0cc8 64bd 20cc dbbc 47aa 923b f851 f83c
000001c0: f46f a0bd b4c8 a1bd 1100 44bd b02b d03c
000001d0: 4de4 09be d144 74bb 06a7 923d 4d3c 893d
000001e0: d544 0dbe a482 02be e643 c0bd 21fe f13c
000001f0: 11ef 893b c22d cbbd c878 fabd 52c3 29bb
00000200: def8 e23d a8b9 c9bc 8387 84bb 4c44 373d
00000210: fa1a b13d ed84 04be 7267 e2bd 00e5 5fbd
00000220: 691b e13d 6ab4 aeb9 9a40 33bd 63f1 7d3c
00000230: 2455 96bc 00d0 3338 a1fb 513d 3275 e5bc
00000240: 9884 ccbd 59ba d8bc 1e39 ae3d 06aa d83d
00000250: 05cf 9f3c 58bc 5abd d047 26be bbac 9f3d
00000260: 9add 13be 1942 6f3d 2e7a 2f3d 8414 03bd
00000270: aad1 93bd 04dd 9fbd a066 edbd 3049 11be
00000280: fd46 d8bd 7fef 443d f4b0 01bd 9b50 70bd
00000290: d5f5 e9bd a81d e43c 397f 02be f256 8d3d
000002a0: 20fc ec3c 349c 013d 89bf 68bc d4c6 9c3d
000002b0: 6fcb 633d 8b51 4c3d acc1 18bd 83b0 4a3c
000002c0: 728b 13be 08d6 be3c 7423 953c e837 0d3d
000002d0: 7092 233d 8dcf ceba c3ed 1abd db64 2c3d
000002e0: e475 dfbc fc14 8a3d c23b 8cbd 5c17 063d
000002f0: 338b 833d 24e7 90bd d095 893c 1395 b63d
00000300: 6bfb 08be 69fb babd d82c 7f3d d034 8bbd
00000310: de0b a03d 0abb b93c b8fe 1cbd a611 aa3c
00000320: 43ca ca3b 2446 1dbd 0202 bcbd 9252 c5bd
00000330: 6527 a4bd 0002 d13d e86f a73d d94b aa3c
00000340: de2b 87bd 6f6c e1bd d42b b6bc bc9a 893d
00000350: d0d3 cf3d 25f3 573d 3b60 febd 1103 b63a
00000360: 3a1b cabd 57c3 833c af30 4fbc f2f9 f23d
00000370: 90f4 353d 8a59 a1bd d068 f1bd 6bbc 8d3d
00000380: e44a dc3c e6a1 9dbd 47d4 86bc f920 7fbb
00000390: cc86 15bd e220 0bbe 7998 88bc fec2 e03d
000003a0: f0ec 4ebc bb5e ed3d b87b 673d e0b1 a03d
000003b0: a0fe d1bd a3b1 fbbd 8656 263d f0f9 28bd
000003c0: 403a 933d aefe a2bd 62b5 68bd f4b1 883d
000003d0: ce57 b8bc 16e4 e3bd bbcd 89bd 1b1f c4bb
000003e0: 9df0 5fbd b78b 0abe 66fe e6bd bf16 b8bd
000003f0: cd12 43bd 02bc c5bd 327f 8ebd b2be acbb

layers.2.bias f4 [64]
-0.06543396 -0.025190795 -0.08878825 0.07826878 -0.08666649 0.06370077 0.05813836 0.032608252
-0.107616454 0.010978968 -0.09527187 -0.03906752 0.01115433 0.06906668 0.03341213 -0.023910223
0.095874414 -0.06330944 -0.08239053 0.11837325 -0.113786064 -0.09730394 0.005108234 -0.10973355
0.020273447 0.08613607 0.021788845 -0.03492802 -0.05606222 -0.12175835 -0.08021614 0.12701759
-0.022131952 -0.057336707 0.012297123 -0.04902257 0.05270387 0.018935245 -0.064734526 0.0050756275
-0.08687665 0.102114774 -0.13704063 -0.12306011 -0.084224425 -0.06413145 -0.026167246 -0.045815222
0.019271793 -0.013590941 -0.08539535 -0.11387507 0.14910866 0.051517162 0.09595622 0.109854005
0.054263353 -0.016921744 0.07116607 0.040528107 -0.012355628 -0.06544748 -0.042341463 0.10474054
00000000: 3d02 86bd ed5c cebc 9dd6 b5bd 624b a03d
00000010: 337e b1bd 8d75 823d 7d22 6e3d 3b90 053d
00000020: 0466 dcbd 21e1 333c e61d c3bd 4405 20bd
00000030: a7c0 363c d572 8d3d 28db 083d 5fdf c3bc
00000040: ce59 c43d 61a8 81bd 5ebc a8bd ad6d f23d
00000050: ab08 e9bd 4a47 c7bd f962 a73b fcbb e0bd
00000060: 8014 a63c 1c68 b03d 857e b23c af10 0fbd
00000070: 80a1 65bd 715c f9bd 5c48 a4bd e610 023e
00000080: 114e b5bc e5d9 6abd df79 493c e4cb 48bd
00000090: 03e0 573d 161e 9b3c 8993 84bd 7351 a63b
000000a0: 63ec b1bd 8d21 d13d 6154 0cbe f006 fcbd
000000b0: db7d acbd 5a57 83bd b15c d6bc bea8 3bbd
000000c0: e1df 9d3c 8aac 5ebc c2e3 aebd 5537 e9bd
000000d0: f1af 183e a903 533d b284 c43d 23fb e03d
000000e0: 4043 5e3d 789f 8abc 84bf 913d cd00 263d
000000f0: 436f 4abc 5409 86bd 3e6e 2dbd 3582 d63d

layers.3.weight f4 [1, 64]
0.17341724 -0.05163454 0.013264879 -0.07854787 -0.21838179 -0.20620087 -0.22545621 -0.080652416
-0.34150496 0.24979796 0.20669702 0.1656866 -0.05704004 0.29575807 -0.025591057 -0.1508155
0.19128779 0.1276413 -0.13270088 0.06670717 -0.031262778 0.013063303 -0.034824844 -0.3098918
-0.22140718 -0.13579838 0.033715636 -0.15283829 0.085622475 -0.102860674 0.06849197 0.17164782
-0.06815357 -0.2840158 0.006676583 0.16849975 -0.0026129214 -0.26440004 -0.17447321 -0.06052376
0.1010506 -0.227498 0.034741066 -0.029029982 -0.118055865 0.29174593 -0.16078654 -0.16809763
0.11070362 0.27467433 0.030537086 0.21505736 -0.07434506 0.15657447 0.13825564 0.10286369
-0.017404187 -0.3186611 -0.3628982 0.117935374 -0.0969154 -0.30344462 -0.10129497 -0.066695675
00000000: 4a94 313e bd7e 53bd ef54 593c b5dd a0bd
00000010: 7a9f 5fbe 5226 53be fedd 66be 182d a5bd
00000020: bdd9 aebe 09cb 7f3e 62a8 533e c0a9 293e
00000030: d1a2 69bd 9a6d 973e 56a4 d1bc 616f 1abe
00000040: f2e0 433e 67b4 023e bde2 07be c59d 883d
00000050: 660d 00bd 7707 563c 7fa4 0ebd 23aa 9ebe
00000060: 90b8 62be bb0e 0bbe 6819 0a3d a481 1cbe
00000070: d65a af3d 9ea8 d2bd 8545 8c3d 72c4 2f3e
00000080: 1994 8bbd 856a 91be 3dc7 da3b 338b 2c3e
00000090: 8c3d 2bbb 715f 87be 1ba9 32be c3e7 77bd
000000a0: 9ef3 ce3d 3cf5 68be a64c 0e3d 49d0 edbc
000000b0: 46c7 f1bd b95f 953e 3aa5 24be c921 2cbe
000000c0: 94b8 e23d 1da2 8c3e e928 fa3c ff37 5c3e
000000d0: 3942 98bd 0f55 203e e392 0d3e 33aa d23d
000000e0: 3a93 8ebc 8c27 a3be cbcd b9be 1a88 f13d
000000f0: 957b c6bd 185d 9bbe bd73 cfbd be97 88bd

layers.4.weight f4 [1, 64]
-0.074674256 0.09220922 0.19539404 0.08842076 0.081056505 -0.07991787 -0.403278 0.162551
-0.26463398 0.15095429 -0.09829372 0.10892461 0.24748859 0.08786485 -0.044484276 0.046948157
0.048602995 -0.34073958 -0.12103 -0.06776622 0.16546826 -0.17549737 0.09922486 0.13471934
-0.06517998 -0.06549502 -0.22693971 0.03807146 -0.08147272 0.043428756 -0.109004505 -0.22497185
-0.0767289 0.01917364 -0.032511786 0.05483178 -0.052531037 0.07094184 0.14150852 0.071987204
0.030113712 0.06020904 0.1466278 0.0043083066 -0.17592987 -0.0230362 -0.04184483 -0.21380527
0.08620896 -0.26180664 0.20350914 -0.05170642 -0.45488435 0.039770916 -0.1282372 0.0913767
0.056470696 -0.03771564 0.036896165 -0.1527794 -0.15044408 0.03223218 -0.12640989 -0.12655927
00000000: d1ee 98bd 30d8 bc3d 6015 483e f215 b53d
00000010: f400 a63d fbab a3bd 747a cebe c573 263e
00000020: 1b7e 87be c393 1a3e 384e c9bd de13 df3d
00000030: a66d 7d3e 7df2 b33d 2535 36bd b64c 403d
00000040: ef13 473d 6b75 aebe 94de f7bd 04c9 8abd
00000050: 8370 293e 95b5 33be 6736 cb3d def3 093e
00000060: 157d 85bd 4122 86bd e262 68be d2f0 1b3d
00000070: 2bdb a6bd 5ae2 313d c13d dfbd 055f 66be
00000080: 0b24 9dbd 0a12 9d3c 142b 05bd 4a97 603d
00000090: c92a 57bd f549 913d 9ce7 103e 076e 933d
000000a0: 08b1 f63c c19d 763d 9925 163e b22c 8d3b
000000b0: f626 34be 6ab6 bcbc 7c65 2bbd c5ef 5abe
000000c0: 538e b03d 850b 86be b364 503e 1cca 53bd
000000d0: 9ae6 e8be d4e6 223d 9d50 03be b523 bb3d
000000e0: d14d 673d b77b 1abd 6f20 173d 3472 1cbe
000000f0: 030e 1abe e405 043d 9871 01be c198 01be
