src/data/IDDPG-20220613-220312/weights/actor-0-4.pkl (torch, 44167 bytes, 8 tensors)

layers.0.weight f4 [64, 28]
0	0xbe279fd9	-0.16369571
1	0xbd986bed	-0.0744246
2	0xbdbd1b57	-0.0923373
3	0x3d472548	0.04861954
4	0xbe135083	-0.14386182
5	0x3d803b4f	0.06261312
6	0xbd2623cf	-0.040561493
7	0xbe34f139	-0.17670144
8	0x3d62e65f	0.05539548
9	0xbe3957de	-0.18099925
10	0x3e17fc57	0.14842354
11	0xbe4fe072	-0.20300463
12	0xbd30b93f	-0.043145414
13	0x3d5d98e0	0.05410087
14	0x3b23b37c	0.0024978807
15	0xbdec8b23	-0.11549976
16	0xbe2c28f3	-0.16812496
17	0x3cbf93f1	0.023385974
18	0x3dd0ccde	0.10195325
19	0x3d39fa99	0.045405004
20	0xbe3295b1	-0.17439915
21	0xbd8d6905	-0.069047965
22	0xbe430410	-0.19044518
23	0xbb9a9474	-0.004717404
24	0x3d4c1f41	0.049834494
25	0xbe04362d	-0.12911291
26	0x3e1a8940	0.15091419
27	0x3d8a4102	0.067506805
28	0xbd89148a	-0.06693371
29	0xbe061534	-0.13094026
30	0x3daaeb94	0.08345714
31	0xbde33ae0	-0.11095214
32	0xbd954b71	-0.0728978
33	0xbdaa6949	-0.08320863
34	0xbe363d6d	-0.1779687
35	0xbd61a44e	-0.055088334
36	0x3d761504	0.060078636
37	0x3e204d71	0.15654542
38	0xbdeba279	-0.115055986
39	0xbdeae0b6	-0.114686415
40	0xbe50bb1e	-0.2038388
41	0x3e1563d1	0.14588858
42	0xbd57fbd4	-0.052730396
43	0xbd81f2f2	-0.06345166
44	0xbd862271	-0.06549538
45	0x3dcf9919	0.10136623
46	0x3e13efb2	0.14446905
47	0xbdceb15e	-0.10092424
48	0x3dcf02d5	0.10107962
49	0x3e2b2742	0.16714194
50	0xbcd1ada8	-0.025595501
51	0x3cc6b73b	0.024257293
52	0x3e22174f	0.15829204
53	0xbdaca7aa	-0.08430417
54	0xbe4c78fa	-0.19968024
55	0xbd8bae7b	-0.06820389
56	0x3e439e7e	0.19103429
57	0xbe1406ff	-0.14455794
58	0xbde6a1e2	-0.112613454
59	0x3e1a79b8	0.15085495
60	0x3e668552	0.22511795
61	0x3d2e8dbe	0.042615645
62	0x3e1a4057	0.15063606
63	0x3e5c0635	0.21486743
64	0x3e3a58ef	0.18197988
65	0x3e14e61b	0.14540903
66	0x3e1f6284	0.15564924
67	0x3e610764	0.21975476
68	0xbde6d71f	-0.112715
69	0xbd3f140e	-0.046649985
70	0x3e3c0d60	0.18364477
71	0xbdfa1d88	-0.12212664
72	0x3c59b66c	0.013288122
73	0xbd826f60	-0.06368899
74	0xbb26cf1e	-0.0025453041
75	0x3daa94c8	0.08329159
76	0xbe0c1dc1	-0.13683225
77	0x3e64c1c5	0.22339542
78	0x3e2d065f	0.16896962
79	0x3e22b56d	0.15889521
80	0xbdc328db	-0.09529277
81	0x3e38a75e	0.18032596
82	0x3cb5890e	0.02216008
83	0xbe585226	-0.21125087
84	0x3e27bf7b	0.16381638
85	0x3e407020	0.18792772
86	0x3d2cbb7b	0.042170983
87	0xbca114bb	-0.019663205
88	0xbd434942	-0.047677286
89	0xbd1d4640	-0.038397074
90	0xbd38e5e2	-0.04514111
91	0x3d6cfda8	0.057859093
92	0x3daa6824	0.083206445
93	0x3e3c9882	0.18417552
94	0x3d7c4276	0.06158682
95	0xbd8a9ee5	-0.06768588
96	0x3e3c68c8	0.18399346
97	0xbe0edf5d	-0.13952394
98	0x3e36b2f5	0.17841704
99	0x3e4c7696	0.19967112
100	0x3cd25a2b	0.025677761
101	0x3c2c60b9	0.010521107
102	0x3e27d099	0.16388167
103	0x3dc31fa4	0.09527519
104	0x3c9fb764	0.019496627
105	0xbdd657b4	-0.10465947
106	0x3dd6798f	0.10472404
107	0x3e0dff96	0.1386703
108	0x3e312b9e	0.17301795
109	0x3e686776	0.22695717
110	0xbcc5013c	-0.02404844
111	0xbd5aa13d	-0.053376425
112	0xbdc81aa8	-0.09770709
113	0xbcc633a7	-0.024194552
114	0xbd2b4576	-0.04181429
115	0x3d32e809	0.043678317
116	0xbd01be20	-0.031675458
117	0xbe063953	-0.13107805
118	0xbe0e3c97	-0.138903
119	0x3dd56368	0.10419351
120	0x3d155a3f	0.03646302
121	0x3d9cde65	0.07659606
122	0xbcbfd4c8	-0.023416892
123	0xbd228be1	-0.03968418
124	0xbc4e1c98	-0.0125800595
125	0xbe28866b	-0.16457526
126	0x3dff520f	0.12466823
127	0x3dbff602	0.09373094
128	0x3d4c566d	0.04988711
129	0xbe0bb313	-0.1364253
130	0x3da3d197	0.079989605
131	0xbe2d8258	-0.16944253
132	0x3dc241e8	0.09485227
133	0x3e0edc0c	0.13951129
134	0xbda6ca7e	-0.08144091
135	0xbdf43977	-0.11925023
136	0x3e35fe48	0.17772782
137	0xbd5cece1	-0.053936843
138	0xbdd91338	-0.10599369
139	0x3e0b2347	0.13587676
140	0x3d37df4a	0.04489068
141	0x3e44337b	0.19160263
142	0xbdb3f275	-0.087864794
143	0xbde65ecc	-0.1124855
144	0xbd077ca3	-0.033077847
145	0xbdc82f4f	-0.097746484
146	0x3e1ac812	0.15115383
147	0x3c8570e2	0.016289178
148	0xbdbfd9e6	-0.09367733
149	0xbe162be7	-0.14665185
150	0xbce1d4d1	-0.0275673
151	0xbdeb2972	-0.114825144
152	0x3e3b9ee4	0.1832233
153	0x3d305bbc	0.043056235
154	0xbdf5a392	-0.11994089
155	0x3d397bde	0.045284145
156	0xbd9e33b1	-0.07724703
157	0x3dd0b448	0.10190636
158	0x3e4e8a15	0.20169862
159	0x3d260fca	0.0405424
160	0x3df3ebe1	0.11910225
161	0xbdd2f578	-0.10300726
162	0x3e1a2b9d	0.150557
163	0x3e01ab01	0.12662889
164	0x3ccac41c	0.024751715
165	0x3d763993	0.0601135
166	0x3d669833	0.056297492
167	0xbe331352	-0.17487839
168	0x3c915d11	0.017744573
169	0x3e43e7fd	0.19131465
170	0x3e1957a7	0.14974843
171	0x3d92f0de	0.07174848
172	0xbcc48a8d	-0.023991847
173	0xbd31b229	-0.043382797
174	0xbc9ce8a0	-0.019153893
175	0xbd638db9	-0.05555508
176	0xbe085c42	-0.13316444
177	0x3e4ec534	0.20192415
178	0x3dad9e2f	0.08477437
179	0x3cfa5ed9	0.030562805
180	0x3e68f018	0.22747838
181	0x3e3533ad	0.17695494
182	0xbdc40f2c	-0.09573206
183	0x3e2f5200	0.17121124
184	0x3e2f152a	0.17097917
185	0x3d162f40	0.036666155
186	0x3d89fa88	0.06737238
187	0x3ddf4f14	0.10903755
188	0x3e6f1490	0.23347688
189	0x3e125e50	0.1429379
190	0xbde6a277	-0.112614565
191	0xbe0282ec	-0.12745255
192	0xbb5139dc	-0.0031925356
193	0x3d37e830	0.044899166
194	0x3cb677f4	0.022273995
195	0xbe38d3d6	-0.18049559
196	0x3dcd8862	0.100357786
197	0x3e29480e	0.16531393
198	0x3dd2a090	0.10284531
199	0xbe3494fb	-0.17634957
200	0x3da51c28	0.08062011
201	0x3dc2df2c	0.09515223
202	0xbd87c887	-0.066300444
203	0xbcca1632	-0.024668787
204	0x3df7a2b6	0.120915815
205	0x3d0f56c3	0.03499485
206	0x3ca1168b	0.01966407
207	0x3de70d1e	0.11281799
208	0xbdd3f849	-0.10350091
209	0x3d5063ee	0.05087655
210	0x3e10e211	0.14148737
211	0xbc802f08	-0.015647426
212	0x3d6861b9	0.05673382
213	0xbdfa6abb	-0.122273885
214	0xbd43e8b4	-0.047829345
215	0x3e06f219	0.1317829
216	0x3deae8a6	0.114701554
217	0xbcaebcc1	-0.02133024
218	0xbde1e88d	-0.11030684
219	0xbd1f4590	-0.0388847
220	0x3d909f45	0.07061628
221	0x3c970664	0.018435664
222	0x3caea008	0.021316543
223	0xbe33dff4	-0.175659
224	0x3d65164f	0.05592948
225	0xbc745308	-0.014912374
226	0xbdeb596b	-0.114916645
227	0xbe32eef7	-0.1747397
228	0xbcb4478a	-0.022006769
229	0xbcaee612	-0.02134994
230	0x3d3409f9	0.043954823
231	0x3db51592	0.08842005
232	0x3a997dbf	0.0011710449
233	0xbe1be6b2	-0.15224722
234	0xbd9b2c0e	-0.07576762
235	0x3d9bee30	0.0761379
236	0x3e3f8dff	0.18706511
237	0xbe19a38d	-0.15003796
238	0x3d9823f7	0.07428735
239	0xbd156be3	-0.036479842
240	0xbda8ea0a	-0.082477644
241	0x3e12d1f0	0.14337897
242	0xbe40ae08	-0.18816388
243	0x3d2d540e	0.04231649
244	0xbe011c21	-0.12608387
245	0x3e2de99b	0.16983645
246	0xbe159730	-0.14608455
247	0x3e3f0b6f	0.18656705
248	0xbd9e0897	-0.07716482
249	0xbdd10a50	-0.10207045
250	0xbe303fad	-0.1721179
251	0x3d4da73d	0.05020832
252	0x3dc00ca9	0.09377415
253	0xbde7a600	-0.11310959
254	0x3c2c0ec0	0.010501564
255	0x3c4fa8fc	0.012674566

layers.0.bias f4 [64]
0	0xbc776dc2	-0.015101852
1	0x3e00de0e	0.12584707
2	0xbe118493	-0.1421073
3	0xbe09aac6	-0.13444051
4	0xbd7e2bee	-0.062053613
5	0x3e2b5ff9	0.1673583
6	0x3d5e767d	0.054312218
7	0x3dbde794	0.09272686
8	0x3e3e4090	0.18579316
9	0xbe2fa3b7	-0.17152296
10	0xbd0d76dc	-0.03453718
11	0x3dbd38a6	0.092393205
12	0x3e1dc1f4	0.15406018
13	0xbe39efc5	-0.18157871
14	0x3de36261	0.11102749
15	0x3e22d57d	0.15901752
16	0xbdfac07b	-0.12243744
17	0xbe07feeb	-0.13280837
18	0x3cc1fc9b	0.023680022
19	0x3e212ef7	0.15740572
20	0xbd2fa8d0	-0.0428856
21	0x3dfc9352	0.123327866
22	0xbd1fa57c	-0.038976178
23	0x3dd10077	0.10205167
24	0xbde53e89	-0.11193568
25	0xbd60a872	-0.054848142
26	0x3dff1c56	0.124565765
27	0xbd61ed58	-0.05515799
28	0xbd27ab08	-0.040934592
29	0x3e10196b	0.14072196
30	0xbded94f4	-0.11600676
31	0xbdfa9ac9	-0.12236554
32	0x3d369b86	0.044581912
33	0x3e374307	0.17896663
34	0x3d7ff547	0.062489774
35	0x3e49e362	0.19715646
36	0x3deb10d8	0.11477822
37	0xbe203286	-0.15644273
38	0x3d74be6b	0.05975191
39	0xbe2b8768	-0.16750872
40	0x3e0a5c6f	0.13511823
41	0xbca7ed1d	-0.020498807
42	0xbdbce414	-0.0922319
43	0x3e7d4bb4	0.2473591
44	0x3d9e751b	0.0773718
45	0x3d1b7656	0.03795465
46	0xbd8e4cc5	-0.069482364
47	0x3e0ac502	0.13551715
48	0x3df6b46f	0.12046134
49	0x3d9598b3	0.07304516
50	0x3ddfe51c	0.10932371
51	0x3dece7f4	0.11567679
52	0xbd99b9af	-0.075061195
53	0x3c8527e8	0.01625438
54	0x3dd175a3	0.102275155
55	0x3cc7ad4b	0.024374625
56	0x3d25f403	0.04051591
57	0x3ccd1d46	0.025038373
58	0x3e228bb2	0.15873602
59	0x3e41d645	0.18929394
60	0x3da484c2	0.08033134
61	0x3da438b7	0.0801863
62	0xbd4e1767	-0.050315287
63	0xbe1a409c	-0.15063709

layers.1.weight f4 [64, 64]
0	0xbdc80ee8	-0.09768468
1	0xbd4ced77	-0.05003115
2	0xbddd01ba	-0.10791345
3	0x3dbd28e9	0.092363186
4	0x3c233280	0.009960771
5	0x3cce2a81	0.025166752
6	0x3c9517f8	0.018199906
7	0x3da0181e	0.078171
8	0xbcf01d90	-0.029310971
9	0x3db44a90	0.08803284
10	0xbd6b5212	-0.057451315
11	0x3ded67a8	0.115920365
12	0xbd32c202	-0.04364205
13	0x3d0481a0	0.032350183
14	0xbd846c31	-0.064659484
15	0x3d154f3d	0.03645252
16	0xbd36e8ce	-0.044655614
17	0x3d2f088f	0.04273277
18	0xbd91f0a5	-0.071259774
19	0x3dd3066d	0.1030396
20	0xbdb43613	-0.08799376
21	0x3d1c5b33	0.03817291
22	0x3dcebbcb	0.100944124
23	0x3ce9c4b4	0.028536178
24	0xbe005896	-0.12533793
25	0x3bdc9190	0.0067312196
26	0xbd1940e4	-0.0374154
27	0x3da04b39	0.078268476
28	0xbddac8bb	-0.106828175
29	0xbda0c728	-0.07850486
30	0xbdf50ced	-0.11965356
31	0x3d3a4039	0.045471404
32	0xbab28b3e	-0.001362182
33	0xbde761d7	-0.11297958
34	0x3c2ff859	0.010740363
35	0xbdce3b8d	-0.10069952
36	0xbdb1d12c	-0.086824745
37	0x3da988d2	0.082780495
38	0x3cc24c9f	0.023718176
39	0x3dd53e51	0.104122765
40	0xbdfbb86b	-0.12291034
41	0xbcbe06ba	-0.023196567
42	0xbe0c3bf3	-0.13694744
43	0xbc7ece98	-0.0155521855
44	0x3d482186	0.048860095
45	0xbb2b4b80	-0.002613753
46	0xbb808f5a	-0.003923339
47	0xbd8a7783	-0.06761076
48	0xbcd6ca20	-0.026219428
49	0x3dab7934	0.08372727
50	0x3db89527	0.090128236
51	0x3d042209	0.03225902
52	0x3dc6ec51	0.097130425
53	0xbdc5b823	-0.09654262
54	0x3d7f4ce2	0.06232918
55	0xbde3179b	-0.11088487
56	0xbe0be6e9	-0.13662304
57	0x3db1fac7	0.0869041
58	0xbdb317a6	-0.08744745
59	0xbc9d70dd	-0.019218856
60	0xbd15edb1	-0.036603633
61	0x3d95248c	0.072823614
62	0xbdda6293	-0.10663333
63	0x3d02d3b0	0.031940162
64	0xbdb9cca8	-0.09072238
65	0xbd9aade6	-0.075527
66	0xbd9c9a4e	-0.07646619
67	0x3db57bae	0.08861481
68	0x3d3a0bc8	0.04542139
69	0x3c239a60	0.009985536
70	0x3db4a9ee	0.08821474
71	0xbd274004	-0.040832534
72	0xbd97c562	-0.07410695
73	0x3cdec7c0	0.027194858
74	0xbdd2e9fc	-0.10298535
75	0x3dfa34f2	0.1221713
76	0xbd1f9478	-0.03895995
77	0xbb924480	-0.0044637322
78	0xbb010200	-0.001968503
79	0xbce1b6a8	-0.027552918
80	0xbd9658ea	-0.07341178
81	0x3d60e8fc	0.05490969
82	0xbc44a080	-0.012001157
83	0x3d216e58	0.039411873
84	0xbdb5e994	-0.08882442
85	0x3dcec474	0.10096064
86	0xbdb39332	-0.0876831
87	0xbd3e2868	-0.046425253
88	0x3d9cfd58	0.07665509
89	0xbddb3f9a	-0.107054904
90	0x3d97f664	0.07420042
91	0xbdb1403c	-0.0865483
92	0x3dadf35c	0.08493683
93	0xbd501194	-0.050798014
94	0xbdaa9d66	-0.083308026
95	0x3bde1a00	0.006778002
96	0x3c7b4ec0	0.0153386
97	0xbd5b7c7c	-0.053585514
98	0xbcb48498	-0.022035882
99	0xbd638f08	-0.055556327
100	0xbdf54682	-0.11976339
101	0xbd28cab8	-0.041208953
102	0xbdd4cd56	-0.10390727
103	0xbdbe0a24	-0.09279278
104	0xbde78258	-0.11304158
105	0xbd8fec56	-0.070274994
106	0x3d52bf24	0.051451817
107	0xbd42993c	-0.047509417
108	0xbd4e5260	-0.050371528
109	0xbd8e12f4	-0.06937209
110	0x3da28f12	0.07937445
111	0x3ddbdae0	0.107351065
112	0x3da78bd2	0.081809655
113	0xbdb1317c	-0.086520165
114	0xbdfded4e	-0.12398778
115	0x3d07d560	0.033162475
116	0x3bb13840	0.005408317
117	0xbdca4ef2	-0.09878339
118	0xbc299980	-0.010351539
119	0xbd8b288c	-0.06794843
120	0x3b313cc0	0.0027044266
121	0xbdf571c2	-0.11984588
122	0xbda8a242	-0.08234073
123	0xbdebd116	-0.11514489
124	0xbde18188	-0.11011034
125	0xbdd6b8e2	-0.10484482
126	0x3d97994c	0.07402286
127	0xbdf30cd6	-0.11867683
128	0xbd58508c	-0.05281119
129	0x3dbc0d46	0.09182219
130	0xbd93508a	-0.07193096
131	0xbe076ea4	-0.132258
132	0x3dc6826c	0.09692845
133	0xbc2cb000	-0.010540009
134	0x3c896ea5	0.016776392
135	0xbcd9a1d0	-0.026566416
136	0x3de84c12	0.11342634
137	0x3d0044a8	0.031315476
138	0x3dea069b	0.11427041
139	0xbce8ce10	-0.02841857
140	0xbdd2a812	-0.10285963
141	0x3db4f9e2	0.08836724
142	0xbadc47f0	-0.0016806107
143	0x3dbdef51	0.092741616
144	0xbd449daf	-0.04800194
145	0xbc9a6010	-0.018844634
146	0x3dc5685e	0.09639047
147	0xbdcb1d4c	-0.09917697
148	0x3ddfcd75	0.1092786
149	0x3bfa76a0	0.0076435357
150	0x3d5ab157	0.05339178
151	0xbc5c4227	-0.013443506
152	0x3ddf1c49	0.10894067
153	0xbd2ce7c6	-0.042213224
154	0xbd4c91d8	-0.049943775
155	0x3da6cb6f	0.08144271
156	0xbddd3679	-0.108014055
157	0xbdc85cfc	-0.0978336
158	0x3d761113	0.060074877
159	0xbd14fa3a	-0.036371447
160	0xbdcd8c78	-0.10036558
161	0x3c8aeb50	0.016957909
162	0xbddbac32	-0.10726203
163	0xbdcdd201	-0.10049821
164	0x3d373fdb	0.04473863
165	0xbd971694	-0.07377353
166	0xbe01bb7e	-0.12669179
167	0xbc410479	-0.0117808515
168	0x3d9c8ac6	0.076436564
169	0x3bb4b2f6	0.005514498
170	0xbdad7c57	-0.084709816
171	0xbd83ca44	-0.064350635
172	0x3b18ccf3	0.0023315519
173	0xbdaf4394	-0.085578114
174	0xbca06698	-0.01958017
175	0xbdccccae	-0.09999977
176	0xbc98547b	-0.01859497
177	0xbd77f02c	-0.06053178
178	0xbc71d224	-0.014759574
179	0xbd81fdde	-0.063472494
180	0x3da0f3d3	0.07859006
181	0x3dec1014	0.11526504
182	0x3d9b93e2	0.07596566
183	0x3deb8cf9	0.11501498
184	0xbc18ded0	-0.009330466
185	0x3d8c1802	0.068405166
186	0x3d1546bd	0.036444414
187	0x3d017faf	0.03161591
188	0x3d890466	0.06690292
189	0xbde123f8	-0.109931886
190	0xbda3dcca	-0.080010965
191	0xbd259306	-0.040423416
192	0xbdd0ffe0	-0.10205054
193	0xbe03b016	-0.1286014
194	0xbd8a3392	-0.067481175
195	0xbdb4fce6	-0.08837299
196	0xbd2d14b0	-0.042256057
197	0xbdb6a49b	-0.08918115
198	0xbdae08b7	-0.08497756
199	0xbd055de8	-0.03256026
200	0x3d8f6806	0.07002263
201	0xbd82eb98	-0.06392592
202	0xbd1b78c6	-0.037956975
203	0x3c780360	0.015137523
204	0xbd43a8c2	-0.047768362
205	0xbd0c6eb0	-0.034285247
206	0x3cd35324	0.02579648
207	0x3d640449	0.05566815
208	0x3caca018	0.021072432
209	0xbd630624	-0.055425778
210	0xbdeb39d2	-0.11485638
211	0xbd6ddc02	-0.058071144
212	0x3c9d6285	0.019212017
213	0x3c09ca73	0.008410084
214	0x3caef4aa	0.0213569
215	0x3cacc020	0.021087706
216	0xbc1c0062	-0.009521576
217	0x3d7e9736	0.062155925
218	0xbd542305	-0.05179121
219	0xbdf192f5	-0.11795608
220	0x3d39d555	0.045369465
221	0xbc826812	-0.015918765
222	0xbd8d0cfd	-0.06887243
223	0xbcb53538	-0.022120103
224	0x3d6a44f9	0.057194684
225	0x3dd3dcaa	0.10344823
226	0x3c00d302	0.007862808
227	0x3d9536ec	0.07285866
228	0xbc8fe299	-0.017564105
229	0x3d5be911	0.053689066
230	0xbe019883	-0.12655835
231	0xbd10a33e	-0.03531193
232	0x3d8af2ad	0.06784568
233	0x3db3feb9	0.08788819
234	0x3d293c92	0.04131753
235	0xbe05c9fe	-0.13065335
236	0xbd5c01ab	-0.05371253
237	0x3d98aa10	0.07454312
238	0x3d2ab974	0.041680768
239	0x3de12159	0.10992689
240	0xbdd5f6b3	-0.10447445
241	0xbd1eebf5	-0.038799245
242	0xbd12f3b5	-0.03587695
243	0xbe064316	-0.13111529
244	0x3c9c4d86	0.019079935
245	0x3da59cd4	0.08086553
246	0xbde06a29	-0.109577484
247	0x3d83eaba	0.06441255
248	0x3dd16d55	0.102259316
249	0x3ddb7045	0.10714773
250	0x3c8d3cb0	0.017240852
251	0xba661c85	-0.00087780535
252	0xbd89c584	-0.06727126
253	0xbd824aac	-0.06361899
254	0xbce535eb	-0.027979812
255	0x3cb2b06a	0.021812636

layers.1.bias f4 [64]
0	0xbd992c20	-0.07479119
1	0xbdd6b1a6	-0.104831025
2	0xbd1a260e	-0.037633948
3	0xbdd83e5b	-0.10558768
4	0x3db89bd5	0.090140976
5	0x3d92d713	0.071699284
6	0xbdeb2c94	-0.11483112
7	0xbd0d0857	-0.03443178
8	0x3dac4a73	0.084126376
9	0x3e07b84a	0.13253894
10	0xbcd317d2	-0.025768194
11	0xbd38aca6	-0.045086525
12	0x3e0705eb	0.13185851
13	0xbda83471	-0.082131274
14	0x3ccef92b	0.025265297
15	0x3c365926	0.011129653
16	0xbd0ce4dc	-0.034397945
17	0x3dd8e9bb	0.105914555
18	0xbdf319e5	-0.11870173
19	0x3db1aeda	0.086759284
20	0xbc9b02ab	-0.01892217
21	0xbcdd3293	-0.027001655
22	0x3cae4113	0.021271264
23	0xbdfb759e	-0.12278293
24	0xbc43a967	-0.011942244
25	0x3e0ec706	0.13943109
26	0xbd94a647	-0.072582774
27	0xbd9f0199	-0.077639766
28	0x3d335fb6	0.04379245
29	0x3da8d5bd	0.08243892
30	0xbdc1cce3	-0.09462907
31	0x3db1fdf0	0.08691013
32	0x3d9f72c7	0.07785564
33	0xbd4d97a5	-0.050193448
34	0x3cfea457	0.031084223
35	0x3da294fa	0.07938571
36	0xbb81cd52	-0.0039612437
37	0xbc3a370c	-0.011365663
38	0x3c8d70ae	0.017265644
39	0xbd767b57	-0.06017622
40	0xbcfbf340	-0.03075564
41	0x3d50ec3e	0.051006548
42	0xbd9cd4c4	-0.07657769
43	0xbc9eae02	-0.019370083
44	0xbddfd49f	-0.10929226
45	0x3d86f4cc	0.0658966
46	0x3dde79c7	0.10863071
47	0x3d78bfaa	0.06072966
48	0xbc021486	-0.0079394635
49	0x3d5c2cc7	0.05375364
50	0x3d91a548	0.07111603
51	0x3d2b8f4a	0.041884698
52	0xbda5e38a	-0.0810004
53	0x3bc638b2	0.006049239
54	0x3c8bda56	0.017071884
55	0xbd20ae80	-0.039228916
56	0x3dc1582f	0.09440648
57	0x3cf0da6e	0.02940103
58	0x3c277368	0.010220386
59	0xbdda0299	-0.10645027
60	0x3ddbfd54	0.10741678
61	0xbd95fb8f	-0.073233716
62	0x3cac58d3	0.021038448
63	0xbdaf8bb5	-0.08571569

layers.2.weight f4 [64, 64]
0	0x3c7f3281	0.015576006
1	0xbdcc0dc4	-0.09963563
2	0xbdd00da0	-0.10158849
3	0x3d8d0e61	0.06887508
4	0xbd8e76d6	-0.0695626
5	0x3bc2b976	0.005942519
6	0xbd161470	-0.036640584
7	0xbd2aad8e	-0.04166942
8	0xbdb798de	-0.08964704
9	0x3db35815	0.08757035
10	0xbdc11255	-0.09427325
11	0x3c0f2294	0.008736271
12	0x3e021260	0.12702322
13	0xbbdaa1a5	-0.0066721016
14	0xbdbf6547	-0.09345489
15	0x3d742dfd	0.05961417
16	0x3da67631	0.08128012
17	0xbdec400d	-0.11535654
18	0x3e0e47b7	0.13894545
19	0x3cfd4646	0.030917298
20	0x3dc20edc	0.094754905
21	0x3defa2d0	0.11700976
22	0xbcdcd327	-0.026956154
23	0x3bf9e7e0	0.0076265186
24	0xbd5182fe	-0.051150315
25	0xbc9b6510	-0.018969089
26	0x3d71120d	0.058855105
27	0x3db46e8c	0.08810148
28	0xbd942e82	-0.07235433
29	0xbd7a402a	-0.061096348
30	0x3d5b046f	0.053471025
31	0x3d8a7e9a	0.067624286
32	0xbc82445b	-0.015901735
33	0xbd827798	-0.06370467
34	0x3d167c10	0.03673941
35	0x3e025258	0.12726724
36	0xbdacef0f	-0.08444034
37	0x3d73bf75	0.05950876
38	0xbdb7b0ec	-0.08969292
39	0x3e0fdc4e	0.14048883
40	0xbd0ff359	-0.035144184
41	0x3c9753a2	0.018472496
42	0x3d801792	0.06254496
43	0xbd48ea9a	-0.04905186
44	0xbc96dd58	-0.018416092
45	0xbddb6513	-0.10712638
46	0xbceadf82	-0.02867103
47	0xbd219bee	-0.039455347
48	0x3dc87a9a	0.097890094
49	0xbdc60c44	-0.09670308
50	0xbde868a0	-0.11348081
51	0x3d8862de	0.066594824
52	0xbd8517da	-0.0649869
53	0x3db881de	0.09009145
54	0xbd9d3678	-0.07676405
55	0x3df5ea7b	0.12007614
56	0xbd753450	-0.059864342
57	0xbd6c003b	-0.057617407
58	0xbc27a61a	-0.010232473
59	0xbd5bbb70	-0.05364555
60	0xbc3f771b	-0.011686112
61	0x3df98d33	0.12185135
62	0x3d116ce5	0.03550424
63	0xbbaae0fe	-0.0052148094
64	0x3ceede30	0.029158682
65	0x3dea1b02	0.114309326
66	0x3d86555e	0.06559251
67	0x3d6a1764	0.057151213
68	0xbdc18ef0	-0.09451091
69	0xbde9df64	-0.114195615
70	0x3d311f4c	0.043242738
71	0x3d2e92e0	0.04262054
72	0xbdbd6840	-0.092484
73	0xbdbf81d4	-0.093509346
74	0x3d8ea434	0.06964913
75	0x3d4969bc	0.0491731
76	0x3d80f896	0.06297414
77	0x3cf8dea0	0.030379593
78	0xbdd20ee8	-0.102567494
79	0x3dce41a0	0.10071111
80	0xbdc8d65c	-0.09806511
81	0x3d69239c	0.056918725
82	0x3cb8d748	0.022563592
83	0xbd564ea8	-0.052321106
84	0xbcb19dd0	-0.021681696
85	0xbd085cc8	-0.033291608
86	0x3da023ca	0.07819326
87	0xbc892ee0	-0.016745985
88	0xbaefeb00	-0.0018304288
89	0x3daa226c	0.08307347
90	0xba2aa000	-0.0006508827
91	0xbdd51c38	-0.10405773
92	0xbd3d227c	-0.046175465
93	0xbd2b6494	-0.041843966
94	0xbc8b0a68	-0.016972736
95	0xbc989f48	-0.018630639
96	0xbbfe80c0	-0.007766813
97	0x3c956cd8	0.018240377
98	0x3de82d76	0.11336796
99	0xbd42ae84	-0.047529712
100	0xbdc35eca	-0.09539564
101	0xbd93e55a	-0.0722148
102	0x3d389c9c	0.04507123
103	0xbdb582de	-0.088628516
104	0xbde5dd4a	-0.11223848
105	0xbd641b74	-0.055690244
106	0x3d54b314	0.051928595
107	0xbc1f4b00	-0.009722471
108	0x3d4def08	0.050276786
109	0xbd536fa0	-0.051620126
110	0xbde81fce	-0.11334191
111	0x3d2ea860	0.042641044
112	0x3d846c4c	0.064659685
113	0xbdf55a32	-0.11980094
114	0xbd8ad464	-0.067787915
115	0x3ca88aa0	0.020573914
116	0xbcb36068	-0.021896556
117	0x3d1d45ec	0.03839676
118	0xbdbe3760	-0.09287906
119	0xbcd608b0	-0.02612719
120	0x3dd39330	0.10330808
121	0x3c537240	0.012905657
122	0x3dc441ce	0.09582864
123	0x3df43ce6	0.11925678
124	0x3d63d918	0.05562696
125	0x3de4fc44	0.11180928
126	0xbdb40d0c	-0.08791551
127	0xbddc0eca	-0.10745008
128	0xbe01ddb8	-0.12682235
129	0xbc309c10	-0.010779396
130	0xbd99e0ae	-0.075135574
131	0x3cf88e10	0.030341178
132	0x3d669c34	0.05630131
133	0x3d8365f4	0.064159304
134	0x3b880a00	0.0041515827
135	0x3c5647a6	0.013078606
136	0xbd973e3c	-0.07384917
137	0x3e10b9c6	0.14133367
138	0xbd5ff03b	-0.05467246
139	0x3da41c85	0.08013252
140	0x3d960afb	0.07326313
141	0x3ddefb18	0.10887736
142	0x3dd63fd8	0.10461396
143	0x3de92f55	0.11385981
144	0x3d83a27e	0.06427477
145	0xbd8c989d	-0.06865046
146	0xbdce06d2	-0.100598946
147	0xbdc002f2	-0.09375562
148	0x3c3ff70a	0.011716614
149	0xbde97548	-0.11399323
150	0xbd515777	-0.051108804
151	0xbc969108	-0.018379703
152	0x3da2a811	0.079422124
153	0xbd968518	-0.07349604
154	0x3dacc56c	0.08436093
155	0xbc90a881	-0.017658474
156	0x3d8cb76a	0.06870921
157	0xbbf58b94	-0.0074934456
158	0x3dc7283e	0.097244725
159	0xbd02367c	-0.03179024
160	0xbd59085b	-0.052986484
161	0xbc454337	-0.012039951
162	0xbd5454af	-0.051838573
163	0x3d627ff9	0.055297825
164	0xbc805300	-0.015664577
165	0xbd0072fd	-0.03135966
166	0xbd08ec80	-0.03342867
167	0x3d6b8369	0.05749837
168	0x3e095ee3	0.13415103
169	0xbd8d1f1b	-0.068906985
170	0xbde51c02	-0.11186983
171	0x3d44e3ee	0.048068933
172	0x3c6808d0	0.014162257
173	0xbda9a19d	-0.082827784
174	0xbb74049a	-0.0037234188
175	0x3de26965	0.11055259
176	0x3e076ada	0.13224354
177	0xbce48a0e	-0.02789786
178	0xbcea4f18	-0.028602168
179	0xbd8bd683	-0.06828024
180	0x3a71c400	0.00092226267
181	0xbaa950f3	-0.0012917802
182	0x3cd9659d	0.02653771
183	0xbd809064	-0.0627754
184	0xbb81c798	-0.003960561
185	0x3dbe50c0	0.092927456
186	0xbdab1b54	-0.08354822
187	0xbd97d140	-0.07412958
188	0x3dd96877	0.10615628
189	0x3da7abd7	0.08187073
190	0x3e210cb3	0.157275
191	0x3df7d835	0.12101785
192	0xbdec6c7b	-0.115441285
193	0x3d208e3c	0.039198145
194	0xbd8717be	-0.06596325
195	0xbe0021b1	-0.12512852
196	0xbb0feb8d	-0.0021960468
197	0x3d343ad2	0.044001408
198	0xbdd45068	-0.10366899
199	0x3daca399	0.08429641
200	0xbc3a8450	-0.011384085
201	0x3e0efdeb	0.1396405
202	0x3da46e5d	0.080288626
203	0xbd6943b2	-0.056949325
204	0xbd8f5d5a	-0.07000227
205	0xbdbcf09d	-0.09225581
206	0xbd979653	-0.07401719
207	0x3d25c52a	0.040471233
208	0x3de9e9c7	0.114215426
209	0x3d894958	0.06703442
210	0x3e055cd1	0.13023688
211	0xbdbbd790	-0.09171975
212	0xbd5f8160	-0.05456674
213	0x3dd7e2ae	0.105412826
214	0x3db31a60	0.08745265
215	0xbdf212ac	-0.11819968
216	0x3d7a333f	0.06108403
217	0xba48c158	-0.0007658205
218	0x3db5414b	0.08850344
219	0x3e146514	0.14491683
220	0xbd9f8c25	-0.07790402
221	0xbc657468	-0.014004804
222	0xbae28161	-0.001728099
223	0x3deeac79	0.1165399
224	0xbd9aeed1	-0.07565082
225	0xbdf1b2e7	-0.11801701
226	0x3d48f026	0.04905715
227	0x3dbcf768	0.092268765
228	0x3d2c71ce	0.04210072
229	0x3d979c1d	0.07402823
230	0xbdc0e683	-0.094189666
231	0x3df98d88	0.12185198
232	0xbda58f80	-0.08084011
233	0xbdcd90e6	-0.10037403
234	0x3df42aec	0.11922249
235	0x3e17d94b	0.14828984
236	0xbcf8d7e7	-0.030376388
237	0x3ba32227	0.0049784365
238	0x3e0f1463	0.1397262
239	0xbd5f577b	-0.054526787
240	0x3e1bbec9	0.15209498
241	0x3c34eca3	0.011042747
242	0xbd659c40	-0.056057215
243	0x3d86530c	0.06558809
244	0x3d680d09	0.056653056
245	0x3cb5cd40	0.022192597
246	0xbd5b3a27	-0.053522255
247	0xbcb0e7f2	-0.021594975
248	0xbd329b10	-0.04360491
249	0x3d2dd9b2	0.04244394
250	0x3cf8c838	0.03036891
251	0xbda7131e	-0.08157943
252	0xbd6c148d	-0.057636786
253	0x3e161e15	0.14659913
254	0x3e138c95	0.14409097
255	0x3e0459ee	0.1292493

layers.2.bias f4 [64]
0	0x3dd3d181	0.10342694
1	0xbde5a0f0	-0.11212337
2	0xbb8b3fec	-0.0042495634
3	0xbd9870e6	-0.07443409
4	0xbdaab8c4	-0.083360225
5	0xbdee6564	-0.116404325
6	0x3dc3c325	0.09558705
7	0xb62b61a9	-2.5537831e-06
8	0x3d9d76db	0.076886855
9	0x3d6ea820	0.058265805
10	0xbd0be902	-0.03415776
11	0x3dfadf19	0.12249584
12	0xbe044198	-0.12915647
13	0x3daa77df	0.08323645
14	0x3d92dbc4	0.07170823
15	0x3d79d664	0.060995474
16	0xbac9502c	-0.0015358976
17	0x3d818466	0.06324081
18	0xbde6de2d	-0.112728454
19	0x3c9945d2	0.01871005
20	0x3e072d7f	0.13200949
21	0xbd2f4d1f	-0.042798158
22	0xbdc00d06	-0.09377484
23	0xb938aeff	-0.00017612799
24	0x3cefd00c	0.02927401
25	0xbd085bcc	-0.03329067
26	0xbe031704	-0.12801749
27	0xbd8e7a56	-0.069569275
28	0xbe07307d	-0.1320209
29	0xbdf718d4	-0.120652825
30	0xbc95afa9	-0.018272238
31	0x3dc8d8e8	0.098069966
32	0x3d977930	0.073961616
33	0xbdf976c6	-0.12180857
34	0x3c881c9f	0.01661521
35	0x3e1c8b8a	0.15287605
36	0x3b8a615f	0.0042230333
37	0x3d35a9b0	0.04435128
38	0x3d351d93	0.044217657
39	0x3e082060	0.132936
40	0x3dd5b7fe	0.10435484
41	0x3d44d166	0.04805126
42	0x3bea2919	0.0071460125
43	0xbd9819fc	-0.07426831
44	0xbda6ed8e	-0.08150779
45	0x3d06454e	0.032780938
46	0xbd4b9373	-0.049701165
47	0xbb953e31	-0.004554533
48	0x3dc5d344	0.09659436
49	0xbd6ead89	-0.058270965
50	0x3dcae3a8	0.09906703
51	0x3d9a059a	0.075206
52	0x3d4e665c	0.050390586
53	0xb97e0168	-0.00024223852
54	0x3d60e928	0.054909855
55	0xbd32bce1	-0.04363716
56	0x3c5f3cfe	0.0136253815
57	0x3d409dbb	0.047025423
58	0xbdd80f68	-0.105498135
59	0xbce753c8	-0.028238192
60	0x3aa54195	0.0012608046
61	0xbd8b0271	-0.06787575
62	0x3d813cca	0.06310423
63	0x3deb9cf4	0.11504546

layers.3.weight f4 [1, 64]
0	0xbe292ebf	-0.16521738
1	0xbe4b18b0	-0.19833636
2	0xbe2a672f	-0.16640924
3	0xbdcbfce7	-0.09960347
4	0xbe2cdf6e	-0.16882107
5	0x3e932f2e	0.28746933
6	0xbe6684eb	-0.22511642
7	0x3decdc31	0.11565436
8	0xbd141c7c	-0.036159977
9	0x3e903431	0.2816482
10	0x3e7b9ac9	0.24570765
11	0xbca30fdf	-0.019905029
12	0x39fb165f	0.00047891118
13	0xbd8078a6	-0.06273012
14	0x3d947c43	0.072502635
15	0xbe170ce2	-0.14751008
16	0xbe879aed	-0.26485386
17	0xbc90461c	-0.017611556
18	0x3dfb46b0	0.12269342
19	0x3ca8ec9d	0.020620639
20	0xbe8d671e	-0.27617735
21	0xbd145d24	-0.03622164
22	0x3d101bed	0.035182882
23	0xbe6c3f12	-0.23070934
24	0x3dead348	0.1146608
25	0x3ee446c1	0.4458523
26	0x3e08cd13	0.1335948
27	0x3c9e90eb	0.019356212
28	0x3e2b1a22	0.16709188
29	0x3e0b6954	0.13614398
30	0xbca00be2	-0.019536916
31	0x3e95cf68	0.292598
32	0xbe35f552	-0.17769364
33	0x3e183b16	0.1486629
34	0xbdc66d16	-0.09688775
35	0xbd658fd8	-0.056045383
36	0x3ca29419	0.01984601
37	0xbde42ff1	-0.111419566
38	0x3e104259	0.1408781
39	0xbe14619f	-0.14490364
40	0xbe597487	-0.21235858
41	0x3dd9b2c7	0.10629802
42	0x3d8cd719	0.06876964
43	0x3b94ed90	0.004544921
44	0x3c9c5ee7	0.019088222
45	0xbd5f0770	-0.054450452
46	0x3e3b38c7	0.18283378
47	0xbe3bf832	-0.18356398
48	0xbe232f8d	-0.15936108
49	0xbe1204dd	-0.14259668
50	0xbe079f10	-0.13244271
51	0x3e34cc81	0.17656137
52	0x3da210b5	0.07913343
53	0x3e40c9f9	0.18827046
54	0x3e52cd19	0.20586051
55	0xbe170a97	-0.14750133
56	0x3e4bcb72	0.19901827
57	0x3e10cb99	0.14140166
58	0x3daf9158	0.08572644
59	0xbbb21814	-0.0054349992
60	0x3d89326f	0.066990726
61	0x3d318f42	0.043349512
62	0xbe6a887e	-0.2290363
63	0xbe84e16d	-0.25953236

layers.4.weight f4 [1, 64]
0	0x3e8a3e60	0.27000713
1	0xbce4983e	-0.027904626
2	0xbe6ae4c7	-0.22938834
3	0x3db03e0e	0.08605586
4	0xbe323b85	-0.17405517
5	0xbe22ad93	-0.15886526
6	0xbead04e5	-0.33792797
7	0xbc30ae93	-0.010783809
8	0xbf104fc9	-0.5637174
9	0x3d190c1b	0.03736506
10	0x3af8d36f	0.001898391
11	0xbe347119	-0.17621268
12	0x3e9557ce	0.29168552
13	0xbdc25062	-0.09487988
14	0xbddcb089	-0.10775859
15	0x3e23c511	0.15993144
16	0x3de48840	0.111588
17	0x3c85e9b0	0.016346782
18	0xbded3b18	-0.11583537
19	0x3db4c86c	0.0882729
20	0x3cbdf6f6	0.02318905
21	0xbe465545	-0.19368465
22	0x3d47737f	0.04869413
23	0xbd1a39b4	-0.037652686
24	0xbc9cebfc	-0.019155495
25	0xbeb9ac04	-0.3626405
26	0xbd322611	-0.043493334
27	0xbe51a740	-0.20473957
28	0x3e19a6d0	0.1500504
29	0xbddadb82	-0.10686399
30	0x3e2cff65	0.168943
31	0x3e10ff38	0.14159858
32	0x3e8b1954	0.2716776
33	0x3e99aaf5	0.30013242
34	0xbe6ea5a5	-0.23305376
35	0xbda68281	-0.081303604
36	0xbe0a427c	-0.13501924
37	0x3dcc70a2	0.099824205
38	0xbe378752	-0.17922714
39	0xbe1af813	-0.15133695
40	0xbe0499ff	-0.1294937
41	0x3d531b07	0.051539447
42	0xbd73e4e3	-0.059544455
43	0x3cc43d9b	0.023955157
44	0xbe08a9bf	-0.13346003
45	0x3d0db6eb	0.034598272
46	0xb90aabe1	-0.00013224735
47	0xbe99af82	-0.30016714
48	0xbe8672b2	-0.2625938
49	0xbdfc2ce3	-0.12313249
50	0xbd56c582	-0.052434452
51	0xbe3c1673	-0.18367939
52	0x3e1b86f4	0.151882
53	0x3cda0c30	0.02661714
54	0xbe4a8977	-0.19779001
55	0xbdd3f5fb	-0.103496514
56	0xbeadf9c0	-0.33979607
57	0x3ecab8f4	0.39594233
58	0xbe2c1c41	-0.16807653
59	0xbd6b87c1	-0.057502512
60	0x3e1594af	0.146075
61	0x3e92e085	0.2868692
62	0xbe33d7af	-0.17562746
63	0x3d5dbc17	0.054134455
