src/data/SNDDPG-20220612-124138/weights/actor-75-0.pkl (torch, 44167 bytes, 8 tensors)

layers.0.weight f4 [64, 28]
-0.036206193 0.0496811 0.1554415 -0.04792623 -0.08169917 -0.0203086 0.005954156 -0.0077071907
-0.2825827 0.16546808 0.007228835 0.02440489 -0.0025009473 0.21503274 -0.02330911 -0.13585335
-0.12759617 0.10884381 0.11328037 0.19112343 0.06205535 -0.09132828 0.15056948 -0.2029563
0.14107923 0.7948852 -0.087914355 -1.364982 -0.0788557 -0.11036982 -0.16083121 0.06339348
0.031232994 -0.12736036 -0.05204771 -0.21240047 -0.010142432 0.07887802 -0.034171324 0.11512609
-0.11210699 -0.18184645 -0.2213132 -0.08719269 -0.04812497 0.09349563 -0.08574435 0.08448248
0.07149472 0.02120918 0.0862767 -0.23612067 0.026507659 0.008605003 -0.19690391 0.011021556
0.33786434 0.37303635 0.250147 0.039123047 0.1057509 -0.070960745 -0.44072607 -0.13043809
-0.32130483 -0.41348216 -0.46632627 -0.35313597 0.030340081 -0.2705667 -0.28521857 -0.13592018
-0.3311687 -0.28308967 -0.32593572 -0.17941195 -0.017028688 0.32867575 0.18058275 0.035046954
-1.9865978 -0.5285175 0.25932264 -0.49176708 -0.14555934 0.032744892 -0.017922182 -0.13572143
-0.1931896 -0.054444898 -0.13948439 -0.17889436 0.027481629 0.046427455 -0.1413091 0.06506054
0.01392246 0.02117993 0.07151265 0.07389259 0.010807546 -0.27180973 0.0881871 -0.07163168
-0.13356759 -0.22959064 -0.09184432 -0.025330681 -0.18681131 0.17207608 -0.05989244 -0.08498434
-0.023943868 0.07186989 -0.118731394 0.17667893 -0.07693376 0.039827894 0.2832888 0.11813108
0.016715653 0.010090829 -0.018564276 0.22170962 0.08431899 -0.10628168 0.008510863 -0.18940407
-0.08337653 -0.16081467 -0.099503934 -0.1749431 0.1097278 0.25441092 -0.21404044 0.044790793
1.0520151 -0.5084856 -0.1742105 2.2217066 -0.17703107 -0.06728285 -0.22834937 -0.07128818
-0.15001918 -0.034505274 0.030846875 0.05681104 -0.19693549 -0.17528254 0.09266034 -0.08322033
0.09803083 -0.106501915 0.107248075 0.11224897 0.06771164 -0.023732834 -0.050650354 -0.13500345
0.019948946 -0.035793677 0.00044186768 0.06305455 -0.20542109 -0.03314158 -0.22718012 0.081218444
-0.038148142 -0.02233334 -0.16071081 0.19414607 -0.083154336 0.03646061 -0.08014671 0.105236754
-0.056452285 -0.091927625 0.04193508 0.121070825 -0.033812433 -0.055548526 -0.053095274 -0.18434687
0.21420424 0.044832423 0.24340609 0.13472505 0.13005494 0.13087335 -0.2221061 -0.06285239
-0.9768915 0.95366365 -0.09271739 -1.0724918 0.0057494617 0.16886926 -0.06328117 -0.030102069
-0.16560149 -0.10113957 0.098006696 0.089443 -0.13343807 -0.11489101 0.11860411 -0.08196735
-0.008684343 -0.016646044 -0.16612951 -0.10715099 -0.041932784 -0.1651951 -0.18649971 -0.08712671
-0.050730888 -0.06514038 0.10957696 -0.1653836 -0.029336283 0.146284 -0.107979774 0.10687387
0.1929949 -0.11809022 -0.17018224 0.124618426 -0.028757462 0.018525075 0.07822656 -0.18118426
0.034843333 0.120731026 0.027821247 0.05840166 0.08264856 -0.079752766 0.008735053 -0.15561238
-0.054847192 0.054797836 -0.07095063 0.28207934 -0.03662453 -0.18987645 -0.09620087 -0.029900823
0.17433597 0.46607804 0.19695424 -2.3522565 0.05385931 -0.078881115 0.08874673 -0.102582626
00000000: f24c 14bd 697e 4b3d 0e2c 1f3e 4b4e 44bd
00000010: e551 a7bd 395e a6bc 151b c33b 9a8c fcbb
00000020: aeae 90be 7770 293e dddf ec3b c4ec c73c
00000030: efe6 23bb 8b31 5c3e bff2 bebc 241d 0bbe
00000040: 92a8 02be 81e9 de3d 8aff e73d dcb5 433e
00000050: c02d 7e3d 520a bbbd e32e 1a3e c7d3 4fbe
00000060: 1377 103e 997d 4b3f 710c b4bd bbb7 aebf
00000070: 197f a1bd 9209 e2bd f0b0 24be 71d4 813d
00000080: 56dc ff3c c16a 02be fb2f 55bd 827f 59be
00000090: 712c 26bc cd8a a13d 3bf7 0bbd 3ac7 eb3d
000000a0: 5998 e5bd f535 3abe ed9f 62be 1592 b2bd
000000b0: b01e 45bd a37a bf3d bc9a afbd 2705 ad3d
000000c0: d36b 923d e0be ad3c d7b1 b03d 9ec9 71be
000000d0: 9726 d93c 00fc 0c3c 2ea1 49be c293 343c
000000e0: 8efc ac3e 9ffe be3e 4513 803e 7d3f 203d
000000f0: ee93 d83d de53 91bd d9a6 e1be 9091 05be
00000100: 1182 a4be efb3 d3be 51c2 eebe 3dce b4be
00000110: c38b f83c b887 8abe 2b08 92be a92e 0bbe
00000120: f28e a9be 21f1 90be 0ce1 a6be c4b7 37be
00000130: bf7f 8bbc 3048 a83e afea 383e 658d 0f3d
00000140: d648 febf ec4c 07bf f0c5 843e e5c8 fbbe
00000150: 820d 15be 821f 063d 8ad1 92bc 8ffa 0abe
00000160: 7fd3 45be 9d01 5fbd ffd4 0ebe 1530 37be
00000170: 2721 e13c b72a 3e3d 55b3 10be 763e 853d
00000180: 081b 643c 8881 ad3c 3975 923d 0055 973d
00000190: 2212 313c a52a 8bbe 709b b43d a1b3 92bd
000001a0: f1c5 08be cf19 6bbe e018 bcbd 4a82 cfbc
000001b0: 774b 3fbe b634 303e c651 75bd 450c aebd
000001c0: ee25 c4bc 8530 933d 7229 f3bd 52eb 343e
000001d0: 728f 9dbd 9322 233d 3b0b 913e b5ee f13d
000001e0: 44ef 883c 0154 253c 1c14 98bc d907 633e
000001f0: 6faf ac3d 36aa d9bd 2671 0b3c 24f3 41be
00000200: 50c1 aabd 9aac 24be b8c8 cbbd 4924 33be
00000210: f8b8 e03d 2642 823e 6b2d 5bbe 8d76 373d
00000220: 6ea8 863f 1d2c 02bf 3d64 32be 7130 0e40
00000230: a247 35be 97cb 89bd 6bd4 69be 8aff 91bd
00000240: a19e 19be 6755 0dbd 96b2 fc3c b1b2 683d
00000250: 75a9 49be 447d 33be b4c4 bd3d 6c6f aabd
00000260: 63c4 c83d ad1d dabd e1a4 db3d cae2 e53d
00000270: 66ac 8a3d 5c6b c2bc bf76 4fbd 583e 0abe
00000280: f96b a33c 649c 12bd 7aaa e739 be22 813d
00000290: e859 52be 77bf 07bd e8a1 68be db55 a63d
000002a0: 3a41 1cbd 69f4 b6bc 6091 24be 3ace 463e
000002b0: d24c aabd b857 153d f523 a4bd 5e86 d73d
000002c0: 833a 67bd 8d44 bcbd 1ec4 2b3d fbf3 f73d
000002d0: e87e 0abd da86 63bd 6e7a 59bd 6dc5 3cbe
000002e0: 5b58 5b3e 34a2 373d 723f 793e 5df5 093e
000002f0: 1f2d 053e aa03 063e c86f 63be c1b8 80bd
00000300: 9015 7abf 4d23 743f 9de2 bdbd 6947 89bf
00000310: fb65 bc3b 10ec 2c3e 8f99 81bd 9d98 f6bc
00000320: 7093 29be 4322 cfbd bcb7 c83d e42d b73d
00000330: fda3 08be fa4b ebbd b6e6 f23d 7fde a7bd
00000340: c648 0ebc 495d 88bc db1d 2abe fa71 dbbd
00000350: b6c1 2bbd e728 29be c8f9 3ebe 7d6f b2bd
00000360: 31cb 4fbd 5268 85bd e369 e03d 525a 29be
00000370: a552 f0bc 79cb 153e 8024 ddbd b0e0 da3d
00000380: 74a0 453e 49d9 f1bd 4144 2ebe f237 ff3d
00000390: c594 ebbc e6c1 973c 3f35 a03d 5e88 39be
000003a0: e2b7 0e3d d441 f73d 62e9 e33c 9436 6f3d
000003b0: a643 a93d 6b55 a3bd 781d 0f3c da58 1fbe
000003c0: 73a7 60bd b273 603d 904e 91bd b46c 903e
000003d0: 9a03 16bd f96e 42be f604 c5bd 92f2 f4bc
000003e0: 2185 323e c8a1 ee3e 5fae 493e 5f8b 16c0
000003f0: 949b 5c3d 6c8c a1bd d8c0 b53d d716 d2bd

layers.0.bias f4 [64]
-0.07333991 -0.21331774 -0.066990085 -0.054748435 0.07430819 -0.078013875 0.056141045 0.11701056
-0.030730775 -0.08117169 -0.16215555 0.15924107 -0.06802315 -0.17355774 0.22794776 -0.1428213
-0.15592471 0.15403782 -0.18171132 0.06928883 -0.185582 -0.067230985 0.10478015 -0.19097312
0.18216592 -0.115903296 0.056571037 -0.17046651 -0.08829739 0.052238386 -0.16948767 -0.06905785
-0.04446765 0.007302717 -0.0065672835 -0.16192299 0.20931953 -0.17389025 0.051699236 0.109515384
-0.14143443 -0.030526362 -0.10633434 -0.125103 0.28865492 -0.1000685 0.0016963085 -0.023574885
-0.06508264 -0.019731674 -0.14321238 -0.11288497 0.030059235 0.010557682 -0.19052722 0.1609977
-0.047010265 -0.046407383 0.20582412 -0.06594736 0.19853763 0.008460512 -0.09585009 0.14727767
00000000: 3c33 96bd f76f 5abe 1932 89bd e53f 60bd
00000010: e42e 983d bdc5 9fbd 27f4 653d 3ca3 ef3d
00000020: 1bbf fbbc 583d a6bd 1b0c 26be 1710 233e
00000030: b94f 8bbd 1fb9 31be 236b 693e bf3f 12be
00000040: baaa 1fbe 17bc 1d3e 8812 3abe 4de7 8d3d
00000050: 3509 3ebe 66b0 89bd fa96 d63d 758e 43be
00000060: b489 3a3e b55e edbd 08b7 673d c68e 2ebe
00000070: 43d5 b4bd ebf7 553d 2d8e 2dbe 346e 8dbd
00000080: b623 36bd a14b ef3b 5e32 d7bb 24cf 25be
00000090: dc57 563e 4910 32be 94c2 533d 9a49 e03d
000000a0: 30d4 10be 6c12 fabc d2c5 d9bd 001b 00be
000000b0: 94ca 933e b7f0 ccbd ab56 de3a 1e20 c1bc
000000c0: 0c4a 85bd 52a4 a1bc 44a6 12be 3c30 e7bd
000000d0: c93e f63c 21fa 2c3c 9119 43be 95dc 243e
000000e0: d68d 40bd ab15 3ebd 8fc3 523e 690f 87bd
000000f0: 734d 4b3e f69d 0a3c 0d4d c4bd f5cf 163e

layers.1.weight f4 [64, 64]
0.083101265 0.048115477 0.25800702 -0.016991442 -0.45113474 -0.09633913 -0.09557808 -0.049791306
0.15929507 0.04679069 -0.42959 0.0014850735 0.03546719 0.06503856 0.13678795 -0.206372
-0.60332835 -6.0330323e-05 0.11235173 -0.23127037 0.1489975 0.10966427 -0.17648505 0.10476287
0.04242734 0.2118595 0.121479824 -0.06710581 -0.015021691 -0.14599003 -0.010546932 0.15216641
-0.30384305 -0.21296413 -0.0066904533 0.032727174 0.16261779 -0.08941229 0.023774147 -0.12279487
-0.06820437 0.0772949 0.044412967 0.18058021 -0.064623915 0.15265064 -0.25948077 -0.47547236
-0.10357124 -0.12493073 -0.42575943 -0.38582787 0.20973748 -0.016645074 0.03588128 -0.027903326
-0.036610473 -0.0098746335 -0.0637492 -0.17036237 0.07887838 -0.17445551 -0.07859552 0.10432859
-0.14361647 -0.09817866 0.09843886 -0.12325109 -0.12450188 0.10152324 -0.13642524 -0.0006983429
0.00016253251 0.031200511 0.050612714 0.064590864 -0.08425625 -0.06678723 -0.09123679 -0.088141665
-0.07263292 0.080560625 -0.11673347 -0.043912265 0.116770774 -0.08777474 -0.13675314 -0.15309475
0.050992817 0.06461609 -0.074938335 0.014856349 -0.015228069 -0.04255952 0.018643236 0.05204851
-0.13610658 -0.006589193 -0.07682653 -0.12003371 0.018392913 0.0045092916 0.022375673 -0.078237735
-0.02094794 -0.0036225829 0.00037074788 -0.033809748 -0.022718377 0.0041416762 0.08634687 0.025111184
-0.08527565 0.048857834 -0.12307901 -0.10500121 -0.13002495 -0.0111760795 -0.031335868 0.049778033
-0.09378647 0.005969547 -0.09156428 -0.07593419 0.0662284 0.01738225 -0.0975961 0.024175862
-0.17426921 -0.017888315 -0.07626811 0.027351262 -0.09664195 0.12340638 0.15208481 -0.12061357
-0.06402776 0.019142253 -0.4843913 0.090177365 -0.13225211 -0.33086756 -0.32143193 -0.072771944
-0.11371375 -0.12783419 0.027078891 0.034059606 -0.0022826248 -0.06922514 0.11154359 -0.017337382
-0.36364463 -0.15053694 0.06565758 0.2056049 -0.05783493 0.084135816 -0.20633072 0.16276918
0.028722525 0.07059201 0.03445742 -0.0387185 -0.2993259 -0.025263583 0.112674825 0.29320174
0.09405079 0.028750505 0.052322034 -0.45463774 0.18333104 -0.4024939 0.24091274 -0.26093245
0.004741208 -0.033631515 0.10423002 0.18717597 0.0419172 -0.015913785 -0.10605608 -0.043050624
-0.2535466 -0.08255304 -0.074181795 0.1814211 0.049839467 0.039499007 -7.704261e-05 -0.40738896
-0.23737618 -0.009978287 0.36423355 0.08159348 -0.17651244 0.11337365 0.13996252 -0.05551935
0.17801557 -0.1270965 0.22551277 -0.052426595 0.16004565 0.02700574 0.14836133 -0.021567374
-0.10484667 0.4305911 -0.17390715 0.08815741 0.0061971447 0.0014624912 0.16196087 -0.596348
0.16996661 0.0019690294 0.10727212 -0.20050444 0.21438713 0.07450305 -0.061691083 0.26993516
0.15490669 0.009526806 0.09666705 -0.2285838 0.289052 -0.40297383 0.020772463 0.27689576
0.025466088 0.06820679 -0.4301232 -0.02418595 -0.17410132 0.20311768 0.057853293 0.12637083
0.029471604 0.051791187 0.20768504 -0.07259662 0.18070303 0.10015786 -0.09250513 -0.08390285
0.18222226 -0.021327475 0.19228598 0.24156965 -0.46696803 -0.15621573 -0.21859726 0.059307214
00000000: ff30 aa3d bc14 453d 7f19 843e a331 8bbc
00000010: 22fb e6be 734d c5bd 71be c3bd f8f1 4bbd
00000020: 3f1e 233e 98a7 3f3d 38f3 dbbe cca6 c23a
00000030: 0b46 113d f032 853d 2412 0c3e 2e53 53be
00000040: ba73 1abf 310b 7db8 aa18 e63d 24d2 6cbe
00000050: cd92 183e a997 e03d 7fb8 34be ea8d d63d
00000060: 4ac8 2d3d b2f1 583e 6aca f83d c56e 89bd
00000070: 8a1d 76bc 697e 15be 0acd 2cbc 83d1 1b3e
00000080: 5191 9bbe 4513 5abe 973b dbbb ee0c 063d
00000090: 4785 263e ca1d b7bd 00c2 c23c e07b fbbd
000000a0: bcae 8bbd ca4c 9e3d 5fea 353d 05ea 383e
000000b0: 8b59 84bd 7350 1c3e aada 84be 1d71 f3be
000000c0: 291d d4bd afdb ffbd 24fd d9be 3b8b c5be
000000d0: 6cc5 563e 405b 88bc 40f8 123d 8495 e4bc
000000e0: ddf4 15bd 37c9 21bc f18e 82bd 7973 2ebe
000000f0: fd8a a13d 77a4 32be b0f6 a0bd 3aaa d53d
00000100: 3210 13be e511 c9bd 509a c93d 116b fcbd
00000110: d7fa febd 6beb cf3d 0fb3 0bbe 0011 37ba
00000120: 7d6d 2a39 3798 ff3c 474f 4f3d 3748 843d
00000130: 8a8e acbd bec7 88bd 5bda babd 9e83 b4bd
00000140: 92c0 94bd f8fc a43d f511 efbd 59dd 33bd
00000150: 8425 ef3d 3ec3 b3bd 0409 0cbe dfc4 1cbe
00000160: d8dd 503d 7155 843d 4579 99bd 0b68 733c
00000170: 277f 79bc e452 2ebd b3b9 983c d230 553d
00000180: 865f 0bbe 28ea d7bb 3a57 9dbd 3cd4 f5bd
00000190: bcac 963c aec2 933b 304d b73c 1b3b a0bd
000001a0: 049b abbc db68 6dbb f060 c239 177c 0abd
000001b0: e41b babc e6b6 873b a1d6 b03d f8b5 cd3c
000001c0: 00a5 aebd 271f 483d d910 fcbd e00a d7bd
000001d0: 4325 05be e01b 37bc 0a5a 00bd 0de4 4b3d
000001e0: 1f13 c0bd 319c c33b 0e86 bbbd 6283 9bbd
000001f0: c1a2 873d 3865 8e3c 77e0 c7bd 750c c63c
00000200: a173 32be 848a 92bc 7432 9cbd c10f e03c
00000210: 37ec c5bd 7cbc fc3d 1fbc 1b3e 3f04 f7bd
00000220: fc20 83bd 37d0 9c3c 2302 f8be e9ae b83d
00000230: 196d 07be 7967 a9be ba92 a4be 7509 95bd
00000240: c1e2 e8bd f7e6 02be 8dd4 dd3c 1682 0b3d
00000250: 1798 15bb e9c5 8dbd f770 e43d 2007 8ebc
00000260: a12f babe 5b26 1abe 7b77 863d 178a 523e
00000270: 52e4 6cbd 664f ac3d 5c48 53be f7ac 263e
00000280: 804b eb3c 8b92 903d 3923 0d3d 4a97 1ebd
00000290: 3f41 99be 93f5 cebc 0fc2 e63d 8a1e 963e
000002a0: b39d c03d 2e86 eb3c a14f 563d 47c6 e8be
000002b0: 22bb 3b3e ae13 cebe d4b1 763e f098 85be
000002c0: 235c 9b3b 33c1 09bd 8c76 d53d 0fab 3f3e
000002d0: 5fb1 2b3d a05d 82bc ee33 d9bd da55 30bd
000002e0: dcd0 81be 9111 a9bd a0ec 97bd 74c6 393e
000002f0: 7824 4c3d b6c9 213d f091 a1b8 4995 d0be
00000300: be12 73be f87b 23bc d27c ba3e 7c1a a73d
00000310: adbf 34be 7230 e83d 5652 0f3e 4268 63bd
00000320: b749 363e 9625 02be d2ec 663e 45bd 56bd
00000330: 02e3 233e 243b dd3c 08ec 173e 10ae b0bc
00000340: dab9 d6bd 7076 dc3e b714 32be df8b b43d
00000350: 6b11 cb3b 10b1 bf3a 12d9 253e 43aa 18bf
00000360: ba0b 2e3e d50a 013b 7cb1 db3d 0951 4dbe
00000370: 4d88 5b3e 0e95 983d caaf 7cbd f134 8a3e
00000380: dc9f 1e3e 5216 1c3c 60f9 c53d df11 6abe
00000390: a0fe 933e 9652 cebe 032b aa3c 48c5 8d3e
000003a0: 429e d03c 00b0 8b3d 1c39 dcbe 9d21 c6bc
000003b0: 9e47 32be 15fe 4f3e 93f7 6c3d 5b67 013e
000003c0: 6f6e f13c ff22 543d 63ab 543e 89ad 94bd
000003d0: 370a 393e 901f cd3d 5473 bdbd 42d5 abbd
000003e0: 7998 3a3e f5b6 aebc 9ee6 443e 095e 773e
000003f0: 6f16 efbe 04f7 1fbe f6d7 5fbe 1fec 723d

layers.1.bias f4 [64]
-0.092385255 -0.16339989 0.091023855 0.060147285 -0.15273856 -0.009123569 0.003294736 -0.09974609
0.011729032 0.11055123 -0.12954064 0.030203493 0.031939246 -0.152554 0.08180376 -0.087693445
0.060013726 -0.045674082 -0.10562136 -0.06667489 -0.041404795 -0.07238917 -0.16483685 0.024979694
0.13782842 -0.018873213 0.08470867 0.11301385 -0.20444264 0.015068889 -0.036626536 -0.038426753
-0.07448324 -0.2703156 0.19144179 -0.02064089 0.07098241 0.024112813 0.00623668 0.02878454
0.2425516 0.031438176 -0.03264483 0.043883536 -0.11329734 -0.002379137 0.03682034 -0.08121215
-0.049255118 -0.12332555 -0.06167769 0.118471585 -0.068382196 -0.17752904 0.031977877 -0.08082559
-0.10679234 -0.22688107 0.103411615 -0.039913636 -0.06671854 0.014842251 -0.081366934 -0.07970401
00000000: 7b34 bdbd 4d52 27be b76a ba3d 005d 763d
00000010: 7f67 1cbe 067b 15bc 7fec 573b ae47 ccbd
00000020: 202b 403c af68 e23d 4da6 04be 516d f73c
00000030: bad2 023d 1e37 1cbe bb88 a73d 9f98 b3bd
00000040: f4d0 753d bf14 3bbd 0350 d8bd d88c 88bd
00000050: 1398 29bd c640 94bd feca 28be 37a2 cc3c
00000060: e522 0d3e ff9b 9abc bd7b ad3d ce73 e73d
00000070: 6959 51be 80e3 763c b505 16bd 5f65 1dbd
00000080: ab8a 98bd ce66 8abe 5109 443e 1517 a9bc
00000090: 3a5f 913d 3c88 c53c 105d cc3b 8ecd eb3c
000000a0: 725f 783e 51c5 003d 96b6 05bd 39bf 333d
000000b0: 7008 e8bd 4ceb 1bbb edd0 163d 8e52 a6bd
000000c0: bcbf 49bd 1b92 fcbd bfa1 7cbd 3ba1 f23d
000000d0: f70b 8cbd 2cca 35be 3cfb 023d e387 a5bd
000000e0: f1b5 dabd 8353 68be 78c9 d33d 7b7c 23bd
000000f0: bba3 88bd ea2c 733c b5a3 a6bd db3b a3bd

layers.2.weight f4 [64, 64]
-0.03908936 -0.057396505 -0.17392994 -0.19897678 -0.42669997 -0.45987034 -0.4477993 -0.014279307
-0.23650649 -0.35601118 -0.2381581 -0.5038885 -0.1468243 -0.078302614 -0.22195515 -0.15104121
-0.415668 -0.16915792 -0.5784586 0.0022219077 -0.012706287 -0.09494173 -0.1494569 -0.13063486
-0.2560205 0.15256503 -0.5035689 0.063448645 -0.00715311 -0.07072777 0.010501095 -0.328483
0.01316897 0.1718398 -0.009286738 -0.16921392 -0.2649719 -0.37472627 -0.061400253 -0.20237336
0.069142886 0.095756374 -0.04761825 0.1574925 -0.19086845 0.00072436366 0.00772894 0.08604821
-0.18926567 -0.13237646 -0.18394871 -0.029390382 -0.096563324 -0.07960419 0.17759807 0.030924423
-0.072098024 -0.028691646 0.17515434 0.097958356 -0.2479133 0.054168276 -0.27986574 -0.3028856
0.044674754 0.04687841 -0.19071373 0.35751435 -0.15155227 -0.2857142 0.08315884 -0.28789875
-0.4759607 0.024238324 -0.036835853 0.14944899 0.09881968 -0.292379 -0.13179426 -0.05467156
0.18336974 0.17744862 -0.24807957 0.19765209 0.10361186 0.16483259 -0.007827209 -0.09123039
-0.030919988 0.084486075 -0.19469601 -0.27125737 -0.0404069 -0.122999206 -0.06755062 -0.2031905
-0.09922403 -0.36988053 -0.033191703 -0.06660533 -0.01619063 0.06683232 0.03236706 -0.41264164
-0.1868084 0.08382731 -0.10193698 0.098506175 -0.114396416 0.0012393497 -0.06191501 -0.19261688
0.19784687 0.078430764 -0.23711297 0.4624811 -0.054455355 -0.2041513 0.081595704 0.082861565
-0.11541163 -0.06927565 -0.15166596 -0.33596337 0.151925 -0.048241943 0.14250171 -0.08749921
-0.017094096 -0.066239476 -0.06635147 -0.021208683 0.18307452 0.061059106 -0.133054 0.11158286
-0.19191265 0.011289892 0.24947527 -0.0419096 0.3955311 0.14611506 -0.021367058 -0.09736844
0.16614014 -0.16056074 -0.13264182 0.10344889 -0.09912589 -0.40652436 -0.02842064 0.10714128
-0.16616453 -0.19266692 0.31759244 0.08006912 -0.053404078 -0.069289416 0.12971932 0.44462976
-0.16188687 -0.06761425 -0.10969522 0.02175002 -0.010478091 -0.041927703 0.123393595 0.31008762
-0.19979773 -0.08815456 0.02128831 -0.025794027 0.30252603 -0.10108066 0.08486221 0.05107043
-0.0025384708 0.16239691 -0.0692015 -0.41375387 -0.0034083074 -0.07679893 -0.17887154 -0.16649334
-0.24621557 -0.046798397 -0.09365748 -0.03978983 -0.22029838 -0.018910356 0.002070431 -0.04270266
-0.11656038 0.0440804 -0.12926108 0.107887655 -0.028302316 -0.16509666 -0.074241646 -0.21462005
-0.47268206 -0.28991812 -0.13470852 -0.11644128 -0.019479418 -0.16423264 0.07344144 -0.18904978
0.24138986 0.3263518 0.25900403 -0.11185875 0.13223872 0.09132982 0.030396266 0.07546952
-0.26260883 -0.15252456 -0.2844642 -0.15322532 -0.012073246 -0.16614826 -0.1416909 -0.019188616
-0.12407258 -0.33248663 -0.20458946 0.025104059 -0.40075174 -0.34476146 -0.26880017 -0.4005743
0.012538272 -0.09700945 -0.07136639 -0.24576911 0.12673795 -0.091918305 0.1816037 -0.12493487
0.18261479 0.26557964 0.030698335 -0.033783417 -0.15862468 0.22148466 -0.17725635 -0.23017848
0.5849697 0.02030141 0.11807889 -0.1523059 -0.18384854 0.079742275 0.24922523 0.1590891
00000000: 2a1c 20bd 9918 6bbd b11a 32be 92c0 4bbe
00000010: 6b78 dabe 2074 ebbe f345 e5be c1f3 69bc
00000020: c22e 72be 1947 b6be b8df 73be d6fe 00bf
00000030: 1c59 16be 1f5d a0bd 3648 63be 8caa 1abe
00000040: 70d2 d4be bc37 2dbe dd15 14bf 6d9d 113b
00000050: 082e 50bc cf70 c2bd 3b0b 19be 25c5 05be
00000060: 1e15 83be 023a 1c3e e4e9 00bf 5df1 813d
00000070: a364 eabb b9d9 90bd c90c 2c3c ec2e a8be
00000080: aac2 573c c6f6 2f3e 6727 18bc 6a46 2dbe
00000090: 66aa 87be 1fdc bfbe d57e 7bbd f63a 4fbe
000000a0: c99a 8d3d eb1b c43d 5b0b 43bd b745 213e
000000b0: 0573 43be 39e3 3d3a 0c43 fd3b 0b3a b03d
000000c0: dcce 41be b28d 07be 0d5d 3cbe 19c4 f0bc
000000d0: fec2 c5bd 8607 a3bd 45dc 353e 3755 fd3c
000000e0: 21a8 93bd be0a ebbc a95b 333e 649e c83d
000000f0: fcdc 7dbe 8edf 5d3d 904a 8fbe d213 9bbe
00000100: e0fc 363d 9303 403d 764a 43be 1f0c b73e
00000110: 8530 1bbe 2249 92be 2f4f aa3d 7767 93be
00000120: 1fb1 f3be 738f c63c 31e1 16bd 2809 193e
00000130: f961 ca3d b3b2 95be 13f5 06be 49ef 5fbd
00000140: 47c5 3b3e 17b5 353e 9208 7ebe 4f65 4a3e
00000150: 7432 d43d e0c9 283e b23d 00bc 00d7 babd
00000160: ea4b fdbc 0907 ad3d 645e 47be 3fe2 8abe
00000170: b581 25bd 02e7 fbbd fb57 8abd 2c11 50be
00000180: f835 cbbd fb60 bdbe 06f4 07bd 6068 88bd
00000190: 36a2 84bc 62df 883d 5393 043d c445 d3be
000001a0: b44a 3fbe a7ad ab3d 56c4 d0bd 9bbd c93d
000001b0: ab48 eabd ad71 a23a 989a 7dbd 5c3d 45be
000001c0: 5f98 4a3e 4fa0 a03d becd 72be 53ca ec3e
000001d0: 940c 5fbd 0a0d 51be a61b a73d 53b3 a93d
000001e0: ef5c ecbd 64e0 8dbd 524e 1bbe 6403 acbe
000001f0: 3a92 1b3e 5899 45bd f8eb 113e c932 b3bd
00000200: eb08 8cbc 90a8 87bd 48e3 87bd d5bd adbc
00000210: e377 3b3e 1d19 7a3d 4f3f 08be 8e85 e43d
00000220: c084 44be 3df9 383c 7276 7f3e 67a9 2bbd
00000230: 0d83 ca3e 309f 153e f809 afbc 1b69 c7bd
00000240: a420 2a3e 096a 24be 42d3 07be 03dd d33d
00000250: 8402 cbbd f623 d0be 67d2 e8bc e36c db3d
00000260: 0927 2abe 7a4a 45be 7a9b a23e 47fb a33d
00000270: 3cbe 5abd 9ce7 8dbd 24d5 043e 83a6 e33e
00000280: acc5 25be 5779 8abd e3a7 e0bd 192d b23c
00000290: 4dac 2bbc 62bc 2bbd c8b5 fc3d cec3 9e3e
000002a0: c797 4cbe 618a b4bd d264 ae3c ff4d d3bc
000002b0: b1e4 9a3e 6103 cfbd 3dcc ad3d 3a2f 513d
000002c0: 795c 26bb 604b 263e 84b9 8dbd 8cd7 d3be
000002d0: e95d 5fbb c248 9dbd 1a2a 37be 3b7d 2abe
000002e0: ef1f 7cbe adaf 3fbd 7ecf bfbd a9fa 22bd
000002f0: e695 61be e4e9 9abc 11b0 073b fce8 2ebd
00000300: 35b7 eebd a68d 343d 045d 04be 34f4 dc3d
00000310: 42da e7bc 190f 29be 010c 98bd 5cc5 5bbe
00000320: 6203 f2be 2670 94be 08f1 09be c478 eebd
00000330: 4d93 9fbc 9a2c 28be 7768 963d 4496 41be
00000340: e72e 773e 9517 a73e 2d9c 843e 3316 e5bd
00000350: 9669 073e 210b bb3d 9701 f93c c48f 9a3d
00000360: aa74 86be 662f 1cbe 4ba5 91be 19e7 1cbe
00000370: ddce 45bc c522 2abe 6b17 11be 7231 9dbc
00000380: c419 febd b03b aabe e67f 51be 07a7 cd3c
00000390: 552f cdbe 9384 b0be 2da0 89be 1318 cdbe
000003a0: 536d 4d3c e4ac c6bd 8b28 92bd e6aa 7bbe
000003b0: 98c7 013e aa3f bcbd 52f6 393e dadd ffbd
000003c0: 5fff 3a3e 0efa 873e 137b fb3c 7b60 0abd
000003d0: 826e 22be e0cc 623e b082 35be e8b3 6bbe
000003e0: 93c0 153f 254f a63c 58d3 f13d 14f6 1bbe
000003f0: cb42 3cbe eb4f a33d e634 7f3e 41e8 223e

layers.2.bias f4 [64]
-0.018077884 -0.0060988977 -0.044292383 -0.34997183 0.05541864 0.093409404 -0.17042986 0.0810654
-0.0567544 -0.23713328 -0.013683275 -0.18209672 -0.39065012 0.013862929 0.018687824 -0.17758128
-0.17527975 -0.014018449 -0.15736848 0.09287057 0.33526552 -0.18722735 -0.043606408 -0.12626216
-0.28125694 0.12070238 -0.034741595 -0.014131775 -0.101863556 -0.09693744 -0.057916913 -0.009235757
-0.093613915 -0.1442154 0.03906929 0.062297657 -0.17233108 -0.13599227 -0.20590523 0.018116314
-0.25627637 -0.2330019 -0.050659675 -0.096030734 -0.2660496 -0.04816682 0.047632094 0.0024726926
-0.2134559 -0.054070517 -0.12706044 -0.3178139 -0.15502863 -0.18921594 0.08028455 0.039510023
-0.15022747 0.0704498 -0.08994666 -0.1410342 -0.18742988 -0.13548195 -0.116422325 -0.33725932
00000000: 1218 94bc 43d9 c7bb ee6b 35bd 822f b3be
00000010: a8fe 623d 6e4d bf3d 2a85 2ebe 9e05 a63d
00000020: 4d77 68bd 11d3 72be d12f 60bc 9077 3abe
00000030: 4b03 c8be 5721 633c 3517 993c ded7 35be
00000040: 897c 33be a3ad 65bc 3425 21be ed32 be3d
00000050: eca7 ab3e 87b8 3fbe a29c 32bd de4a 01be
00000060: e900 90be cf32 f73d 344d 0ebd f688 67bc
00000070: d79d d0bd 2387 c6bd 493a 6dbd 9351 17bc
00000080: a7b8 bfbd 34ad 13be 1f07 203d d42b 7f3d
00000090: 8f77 30be 8f41 0bbe d2d8 52be aa68 943c
000000a0: a836 83be 0d98 6ebe 8580 4fbd c3ab c4bd
000000b0: a737 88be 924a 45bd df19 433d e60c 223b
000000c0: 2f94 5abe 0c79 5dbd 221c 02be 81b8 a2be
000000d0: d3bf 1ebe d3c1 41be 3a6c a43d 43d5 213d
000000e0: 3bd5 19be fc47 903d f435 b8bd 456b 10be
000000f0: 9eed 3fbe c8bb 0abe d46e eebd 41ad acbe

layers.3.weight f4 [1, 64]
-0.23214148 0.10439345 -0.14736569 -0.43249893 -0.2834695 0.2884417 0.056873053 -0.24080537
-0.082844384 -0.15029949 0.147631 -0.04401383 0.82673573 0.24996148 0.49642178 0.85083055
0.33850512 -0.030246073 0.6983412 -0.17261922 0.0031698572 0.17740455 -0.021627693 -0.09050681
-0.4316591 -0.30638978 -0.23245269 -0.07031449 0.16450612 -0.17030476 -0.062314745 0.16926749
-0.12951717 -0.21935716 0.6252742 0.14829206 -0.0037447289 -0.12443318 0.29045308 -0.11802785
-1.3386127 -0.18044537 0.026599566 0.11221643 1.7165315 0.015923833 -0.565316 -0.14981793
0.09867303 -0.7386278 -0.065320276 -0.85660094 -0.09150567 -0.15162751 -0.27270693 0.54925376
-0.3416169 -0.4065678 0.09273793 0.10127684 -0.29192644 0.0007039686 -0.03023655 -0.8272126
00000000: 7fb6 6dbe 3ccc d53d 08e7 16be 8070 ddbe
00000010: ea22 91be a1ae 933e b8f3 683d af95 76be
00000020: 51aa a9bd 1ce8 19be 952c 173e d947 34bd
00000030: f4a4 533f e7f5 7f3e ff2a fe3e 08d0 593f
00000040: 8b50 ad3e 9dc6 f7bc 7dc6 323f 18c3 30be
00000050: 61bd 4f3b 8aa9 353e 8f2c b1bc a25b b9bd
00000060: 6c02 ddbe 1fdf 9cbe 1408 6ebe 0b01 90bd
00000070: 4b74 283e 5f64 2ebe bf3d 7fbd 7554 2d3e
00000080: 26a0 04be 2a9f 60be f811 203f e0d9 173e
00000090: 206a 75bb d3d6 febd 44b6 943e 96b8 f1bd
000000a0: a957 abbf acc6 38be 55e7 d93c bad1 e53d
000000b0: 4eb7 db3f b372 823c 8db8 10bf df69 19be
000000c0: 1615 ca3d b616 3dbf a3c6 85bd 334a 5bbf
000000d0: 5367 bbbd 3e44 1bbe 3ea0 8bbe e59b 0c3f
000000e0: 69e8 aebe a829 d0be 62ed bd3d 3b6a cf3d
000000f0: 6277 95be 888a 383a a4b2 f7bc 34c4 53bf

layers.4.weight f4 [1, 64]
2.2737079 3.0904083 -0.25907272 0.9100402 -0.10794277 2.2612453 -0.39431807 8.86002
-0.009742725 0.66702616 4.9546213 0.1750212 1.498352 0.50707155 1.0317179 0.2964877
1.9087057 9.995856 -0.16446914 6.23021 10.959985 5.1984816 0.32885027 0.1626225
-0.061450735 4.3277407 0.29867327 0.12544036 0.28967983 0.8904329 -0.13969235 0.46967697
0.2596195 -0.024292372 3.3125827 3.700758 0.15727127 -0.064958 4.182342 -0.104450464
2.36619 -0.16366462 0.25965962 -0.0034673077 1.5654964 0.06942144 1.9828836 0.47581193
0.028276328 0.61659634 0.124554425 -0.20199038 -0.058112632 -0.16013807 3.265301 2.4428248
-0.46501505 2.2409031 -0.09842008 0.15968563 -0.11370675 0.42502713 0.31018177 3.013124
00000000: 6e84 1140 40c9 4540 2ea5 84be 65f8 683f
00000010: 1911 ddbd 3eb8 1040 0fe4 c9be a4c2 0d41
00000020: f39f 1fbc 3ac2 2a3f 428c 9e40 c238 333e
00000030: 00ca bf3f 71cf 013f 550f 843f 3ccd 973e
00000040: 7850 f43f 07ef 1f41 996a 28be e15d c740
00000050: 195c 2f41 f659 a640 105f a83e 8386 263e
00000060: c4b3 7bbd da7c 8a40 b4eb 983e 7073 003e
00000070: ea50 943e 69f3 633f 830b 0fbe 8079 f03e
00000080: d9ec 843e cc00 c7bc 5b01 5440 38d9 6c40
00000090: b80b 213e b308 85bd bfd5 8540 20ea d5bd
000000a0: a86f 1740 b397 27be 1bf2 843e c53b 63bb
000000b0: 3062 c83f d42c 8e3d 21cf fd3f 9f9d f33e
000000c0: c2a3 e73c 42d9 1d3f 6416 ff3d 91d6 4ebe
000000d0: 8307 6ebd 3cfb 23be b1fa 5040 3e57 1c40
000000e0: 7416 eebe f56a 0f40 7890 c9bd a184 233e
000000f0: 16df e8bd 289d d93e 25d0 9e3e 06d7 4040
